model_save2/v2-30-0.0001-150.pth (torch, 40920 bytes, 3 tensors)

model.0.weight f4 [30, 320]
0	0x3d3a0f78	0.04542491
1	0x3d275bd4	0.04085906
2	0xbd1bca36	-0.03803464
3	0xbd3a91f3	-0.045549344
4	0xbd3c091d	-0.04590713
5	0x3ad598c1	0.0016296135
6	0x3d4eaaf6	0.05045601
7	0x3ce7b940	0.028286576
8	0x3d3da6f0	0.046301782
9	0xbb7e7849	-0.003882902
10	0xbd1d4e8f	-0.038404997
11	0x3cdede9c	0.027205758
12	0x3cf4ebc9	0.029897587
13	0x3bb6705e	0.0055675944
14	0x394732a5	0.00018996985
15	0xbcaed613	-0.021342313
16	0x3d609733	0.054831695
17	0xbd5945ff	-0.05304527
18	0x3ce26fb6	0.027641159
19	0xbd03fbf8	-0.032222718
20	0x3d0d5846	0.034508012
21	0xbd01f509	-0.031727824
22	0xbd3198f0	-0.043358743
23	0x3d1e81bb	0.03869794
24	0xbcc254cd	-0.023722077
25	0x3c2c100c	0.010501873
26	0xbc846afa	-0.016164292
27	0xbd59d1ba	-0.053178526
28	0x3b9f327d	0.0048583136
29	0xbd65c20e	-0.056093268
30	0xbcdcf73c	-0.02697336
31	0x3d48ba69	0.0490059
32	0xbd0265c1	-0.03183532
33	0x3cb81a00	0.022473335
34	0xbbf41f66	-0.007450032
35	0x3ccd6cba	0.025076259
36	0xbd44d79d	-0.048057187
37	0xbbfc719c	-0.007703973
38	0xbca894e8	-0.020578817
39	0xbcc66094	-0.024215974
40	0x3d26488d	0.040596534
41	0x3c9e8a93	0.019353187
42	0x3b110c36	0.0022132522
43	0x3c27b8ac	0.0102369
44	0xbcb11298	-0.021615312
45	0x3d46d0bd	0.048538912
46	0xbccf0553	-0.025271093
47	0xbcb51aa2	-0.022107426
48	0x3d1182ea	0.03552524
49	0xbd0438fc	-0.032280907
50	0xbd4a12a9	-0.049334202
51	0x3b2fc8f6	0.0026822663
52	0xbca5c5e4	-0.020235963
53	0xbd2b9106	-0.041886352
54	0xbca6067f	-0.02026677
55	0x3cac66e7	0.021045161
56	0xbcdade09	-0.026717203
57	0xbaab2a55	-0.001305888
58	0x3c3dc7e2	0.0115833
59	0x3ca673ca	0.020318884
60	0xbd1bbcad	-0.038021732
61	0xbd171a22	-0.036890157
62	0x3cbc2a19	0.022969292
63	0x3d634bf6	0.055492364
64	0xbccde7ff	-0.025135038
65	0x3cc73cc5	0.02432097
66	0xbd6749ef	-0.056466993
67	0x3d3ad2a8	0.045611054
68	0xbd586252	-0.05282814
69	0x3c306557	0.010766349
70	0xbc9825ad	-0.018572653
71	0xbd5afacf	-0.053461846
72	0x3d591071	0.052994195
73	0xbd14a9b3	-0.03629465
74	0x3d26e64a	0.040746965
75	0xbd29d2c9	-0.041460786
76	0xbd39f8d9	-0.045403335
77	0x3d439095	0.047745306
78	0xbd61c873	-0.055122804
79	0x3bbe5d80	0.005809486
80	0xbd1f3798	-0.038871378
81	0x3c182e76	0.009288421
82	0x3d3a5947	0.045495298
83	0x3d165f0f	0.03671175
84	0x3c14309b	0.009044792
85	0xbd1b9598	-0.03798446
86	0xbc86803c	-0.016418569
87	0xbb312027	-0.002702722
88	0x3d0e0abe	0.034678213
89	0x3d0b4ce7	0.034008887
90	0xbceee9cd	-0.02916422
91	0xbd529221	-0.05140889
92	0xbd082340	-0.033236742
93	0x3d155758	0.03646025
94	0x3d06cb55	0.032908756
95	0xba099395	-0.00052481267
96	0xbd11406a	-0.03546182
97	0x3c994bdf	0.018712936
98	0xbd3514f1	-0.044209424
99	0x3ca1cc50	0.019750744
100	0xbc8a4fc2	-0.016883735
101	0xbd495454	-0.049152687
102	0xbd341064	-0.043960944
103	0xbd5c07b6	-0.05371829
104	0x3cff6989	0.031178253
105	0xbc2bd225	-0.010487114
106	0x3d1bdc1c	0.03805171
107	0x3bc9886e	0.006150297
108	0x3c5250aa	0.012836615
109	0xbd4e9a82	-0.05044032
110	0xbbc0ff1f	-0.005889788
111	0xbd5aeca6	-0.05344834
112	0xbca40e9b	-0.020026496
113	0x3a4489bf	0.00074973324
114	0xbd3a43df	-0.045474883
115	0x3c9e2cba	0.019308437
116	0xbc1b23b0	-0.009468958
117	0xbcae0ec7	-0.02124728
118	0xbc7f0f3b	-0.015567596
119	0xbd59aba9	-0.053142224
120	0x3d112172	0.035432287
121	0x3cd74af8	0.026280865
122	0xbd35741d	-0.044300187
123	0x3c1922c0	0.009346664
124	0xbd4d9740	-0.05019307
125	0x3d4e63cc	0.050388142
126	0xbc86b950	-0.016445786
127	0x3d33845b	0.043827396
128	0x3b8b1503	0.004244448
129	0x3d3d5490	0.046223223
130	0xbc0ea450	-0.008706167
131	0xbc4bf19b	-0.01244774
132	0xbcf62d5e	-0.03005093
133	0xbd3578a6	-0.044304512
134	0x3d05b6c7	0.032645013
135	0x3cd7af7c	0.026328795
136	0x3d5e758f	0.05431133
137	0x3c728f0d	0.014804614
138	0xbd25b28c	-0.04045348
139	0xbd41621b	-0.0472127
140	0x3d23b476	0.039967023
141	0xbbe63a85	-0.007026019
142	0xbd29d1e1	-0.04145992
143	0xbcd65ea4	-0.026168175
144	0x3b1170b2	0.0022192416
145	0xbbbd3eb7	-0.0057752985
146	0xbbeeff9a	-0.0072936537
147	0xbce2f9f7	-0.027707083
148	0xbc7d2fcd	-0.015453291
149	0x3c855437	0.016275508
150	0xbcc83307	-0.024438394
151	0xbd2f986c	-0.04286997
152	0xbce83c2e	-0.028349008
153	0xbd4f1bbc	-0.05056356
154	0xbbeb6c7f	-0.0071845646
155	0xbc4d078c	-0.012514006
156	0x3aa4dbd6	0.0012577723
157	0x386d290f	5.6543442e-05
158	0x3d181a66	0.03713455
159	0xbc17860e	-0.00924827
160	0x3d2d9405	0.04237749
161	0x3d56df1f	0.05245888
162	0x3d2488b9	0.04016945
163	0x3cf7bc6d	0.030241216
164	0xbc704c1e	-0.014666585
165	0x3d3dc4ab	0.046330135
166	0xbd1d4d6b	-0.03840391
167	0x3d235894	0.039879397
168	0x3d409026	0.04701247
169	0x3d56ea6f	0.052469667
170	0x3cb4e116	0.022079986
171	0xbb34640b	-0.002752545
172	0xbd26176b	-0.040549677
173	0x3bbf1d38	0.0058323406
174	0x3bfcadb4	0.0077111367
175	0x3d34fef2	0.044188447
176	0xbd488ba2	-0.04896129
177	0x3c629c32	0.013831185
178	0xbd085525	-0.033284325
179	0x3d1c78ca	0.03820113
180	0x3ce72be4	0.02821917
181	0xbb16a923	-0.0022988997
182	0xbd55428c	-0.052065417
183	0xbcaf3f66	-0.021392535
184	0xbbdde8bc	-0.006772129
185	0x3d2e068d	0.042486716
186	0x3d14338e	0.03618198
187	0x3d55c0bc	0.05218576
188	0x3d1ad2c8	0.037798673
189	0xbc84ef49	-0.016227381
190	0x3d39fd6b	0.045407694
191	0x3cc7c095	0.024383822
192	0x3c7bb60d	0.0153632285
193	0x3d46479d	0.04840814
194	0x39db96fb	0.00041883424
195	0xbd571ec2	-0.052519567
196	0x3d3200dd	0.043457855
197	0xbd303087	-0.04301503
198	0xbcfabb03	-0.030606752
199	0xbc96bbda	-0.018400121
200	0xbc9881a0	-0.018616498
201	0x3d4437c7	0.047904756
202	0x3d52b200	0.051439285
203	0x3d3ab400	0.045581818
204	0x3ccd4053	0.025055086
205	0x3d0c92d2	0.034319706
206	0x3d6486c1	0.055792574
207	0xbb022b56	-0.0019862256
208	0xbab39629	-0.0013701367
209	0xbd43076d	-0.047614504
210	0xbc8e3d85	-0.01736332
211	0xbd20fac4	-0.03930165
212	0xbd1455a2	-0.03621448
213	0x3cd55bfc	0.026044838
214	0xbc0780b5	-0.008270432
215	0x3ba357da	0.004984838
216	0x3b15a157	0.0022831762
217	0x3c6a859b	0.014314081
218	0xbd23694b	-0.039895337
219	0xbc833ff6	-0.01602171
220	0x3d5881e2	0.05285824
221	0x3d347a8f	0.044062193
222	0xbd0cf81f	-0.034416314
223	0xbb834b4e	-0.0040067798
224	0x3d34a78c	0.044105098
225	0x3ce4aa3c	0.027913205
226	0xbc8713c6	-0.01648892
227	0xbd038eed	-0.032118727
228	0xbd40568d	-0.04695754
229	0x3c824515	0.015902082
230	0xbd24e611	-0.04025847
231	0x3cf32143	0.029678946
232	0x3d0db4a4	0.0345961
233	0x3a57c4a1	0.0008230899
234	0x3c6b8bb9	0.014376574
235	0x3c0dc0ed	0.008651954
236	0x3c8d031a	0.017213393
237	0x3d069d4d	0.032864857
238	0x3c1818ae	0.009283228
239	0x3d08718f	0.033311423
240	0x3d53ddc7	0.051725175
241	0xba87716f	-0.0010333488
242	0xba81cbe5	-0.0009902684
243	0x3ce24fb8	0.027625903
244	0xbcd60295	-0.026124278
245	0x3c68d8f2	0.01421188
246	0xbc4621f7	-0.012093059
247	0xbc33f623	-0.010983977
248	0x3caaee56	0.0208656
249	0xbb8c97b6	-0.0042905463
250	0xbb5078ac	-0.0031810207
251	0x3d0c27df	0.03421771
252	0x3b58a700	0.0033058524
253	0x3b10ac3a	0.0022075311
254	0x3d51d9f6	0.051233254
255	0x3d1c6618	0.0381833

model.0.bias f4 [30]
0	0xbc30d666	-0.010793304
1	0x3c3d3cc7	0.011550135
2	0xbd429644	-0.047506586
3	0xbc64cb80	-0.013964534
4	0xbd53243f	-0.05154824
5	0x3d3cac46	0.04606273
6	0xbbfd8d5d	-0.007737799
7	0x3d087143	0.03331114
8	0xbd78fb0f	-0.060786303
9	0x3d366d48	0.044537812
10	0x3d204783	0.0391307
11	0xb977144e	-0.0002356332
12	0x3b52faa8	0.003219286
13	0xbd2e7f47	-0.04260185
14	0x3d430374	0.047610715
15	0xbb132e89	-0.0022458157
16	0x3cf0904a	0.029365677
17	0xbca12355	-0.019670168
18	0x3d09e104	0.033661857
19	0x3c929019	0.017890977
20	0xbd89b4c6	-0.06723933
21	0xbbe8151b	-0.007082594
22	0x3a1d354b	0.0005997016
23	0x3d336ecc	0.043806836
24	0x3c214343	0.009842697
25	0xbcebf1df	-0.028801857
26	0x3d2a0a1a	0.04151354
27	0xbccf8197	-0.025330348
28	0x3cfd7c46	0.030943047
29	0xbc97e6d5	-0.018542686

model.3.weight f4 [1, 30]
0	0x3d228a39	0.0396826
1	0x3db8c05e	0.09021066
2	0x3f92c679	1.1466819
3	0xbd14a831	-0.036293212
4	0x3db4e71b	0.08833142
5	0x3c331186	0.010929471
6	0x3dd54126	0.10412817
7	0x3ead8983	0.33893976
8	0x3e9c7e6d	0.30565205
9	0x3e0e023a	0.13868037
10	0x3ca675da	0.020319868
11	0xc02d50d3	-2.708058
12	0x3dddc680	0.108288765
13	0x3d9017c9	0.07035787
14	0xbe0f4f6c	-0.13995141
15	0x3fab76cb	1.3395628
16	0x3df99637	0.12186854
17	0x3f99dd6d	1.2020699
18	0xbe01dcc2	-0.12681869
19	0xbd8d8d95	-0.0691177
20	0xc02338bf	-2.5503385
21	0xbda316f7	-0.079633646
22	0xbda1347e	-0.0787134
23	0x3e18f80d	0.14938374
24	0x3b3af563	0.002852761
25	0x3b2709c1	0.0025487992
26	0x3d3d21dc	0.04617487
27	0xc019539f	-2.3957288
28	0x3fede737	1.8586186
29	0x3fd5abf4	1.6693101
