model_save2/v2-30-1e-06-280.pth (torch, 40784 bytes, 3 tensors)

model.0.weight f4 [30, 320]
000000 85 b3 76 3d d6 ce 2c bb bd 06 10 bd c8 f0 04 bd
       0.060229797 -0.00263684 -0.035162676 -0.03245619
000010 40 f6 e3 3c b6 b8 11 bd 24 9a be 3c ca e4 4f 3b
       0.027827382 -0.035576545 0.02326686 0.0031722062
000020 ab 4b 38 3d 03 d4 15 3c 6c b6 2e bd ff 8d d7 bc
       0.044994038 0.009144786 -0.04265444 -0.026312826
000030 8a 81 23 3d ef af 50 3d 5c 93 3b 3d f3 9f 42 bd
       0.03991846 0.050949033 0.04579483 -0.04751582
000040 1c 73 7e bc 6e 46 f2 3c e8 8c 33 3c 2c 8e 2d bd
       -0.015530374 0.0295746 0.010958888 -0.042371914
000050 e8 97 26 3c 93 42 f4 3c f8 a1 9f bc 09 9f d3 bb
       0.010168053 0.029816901 -0.019486412 -0.0064581675
000060 b7 ee 21 bc a0 5c 76 bd f5 13 8f 3c 2b 18 9f 3c
       -0.009883574 -0.060146928 0.017465571 0.019420704
000070 61 89 8a bc e6 fb 9b bc 6c d2 bb 3c 83 82 26 3c
       -0.01691121 -0.019041013 0.022927485 0.010162952
000080 17 92 a5 bc 16 f2 c4 bc b1 4b 1b 3d c7 07 95 bc
       -0.020211263 -0.024041217 0.03791398 -0.018192185
000090 2d d8 96 bc 66 b3 76 bd 7a 3c bf bc 1f 29 c5 bc
       -0.018413628 -0.06022968 -0.023344267 -0.02406746
0000a0 85 a4 a2 bc 5f 80 4e 3d bc 54 27 39 10 99 df 3c
       -0.01985384 0.050415393 0.00015957927 0.027294666
0000b0 6a 4c 20 bd 50 1e ae bc 00 c9 3b 3d 49 5f b1 bb
       -0.039135374 -0.021254689 0.045845985 -0.00541297
0000c0 f3 a0 22 3d 05 af be 3c 2e b0 7f bd 4a 56 c3 3c
       0.039704274 0.023276815 -0.062423877 0.023844857
0000d0 f7 0e 05 bd 66 ad 29 3c 65 f8 79 3d 36 60 13 3c
       -0.032484975 0.010356283 0.061027903 0.008995106
0000e0 5e 7c 58 bd 01 13 3e bd e0 d2 06 bd cc b4 69 3d
       -0.05285298 -0.046404842 -0.03291595 0.057057187
0000f0 d8 9c 81 bd 51 ec 39 3c 76 12 39 bd c5 40 45 bc
       -0.06328744 0.011347846 -0.04518362 -0.012039368
000100 44 79 b4 bc 81 fd 21 bd 13 f9 0f bd 40 de 10 3d
       -0.02203048 -0.0395484 -0.035149645 0.035368204
000110 c8 c8 b8 3c df eb 80 bb 9d 0d 34 3d eb 58 b2 bc
       0.022556677 -0.003934368 0.043958295 -0.021770915
000120 31 f8 c2 3c 13 9e c6 3c e2 e4 8d bd 75 45 27 bd
       0.023799988 0.024245298 -0.069284216 -0.040837724
000130 0b 1a 8d bc 26 3a d8 bc b9 43 af 3c f8 b7 fa ba
       -0.017224332 -0.026394915 0.021394597 -0.0019128313
000140 c0 5a da 3c 2e 24 98 bc 67 2d a6 3c 7b 2e d9 bc
       0.026654601 -0.01857194 0.020285321 -0.026511421
000150 f6 30 17 bd 11 25 8a bc 40 55 02 bd 77 d9 55 3c
       -0.036911927 -0.016863378 -0.031819582 0.013052336
000160 56 08 55 3d e4 90 6e bd 8e a2 35 3d fa 49 88 bc
       0.052009903 -0.058243647 0.044344477 -0.016636837
000170 b3 da c6 3c 79 95 17 bd 6a 88 22 3c 01 f2 c1 bc
       0.024274206 -0.037007783 0.009920219 -0.023674967
000180 e2 26 d4 3c 45 d8 04 bd 80 14 22 bd e4 09 4a 3c
       0.025897447 -0.032432813 -0.03957033 0.01233146
000190 e1 ef 1e bc a1 59 c8 bc 8b de ba 3c 98 12 dd bc
       -0.009700746 -0.0244568 0.022811195 -0.026986405
0001a0 a8 bc b7 bc 94 9f 43 bd 3c 3d 96 3d 60 e8 22 bd
       -0.022428825 -0.047759607 0.07335898 -0.03977239
0001b0 bf d6 10 bd 8f b4 31 3d 03 21 bc 3c 76 b0 df bc
       -0.035361048 0.043385085 0.02296496 -0.027305823
0001c0 1a 7f 0b bb 68 38 a0 ba 90 99 ed 3c 95 5b 0f bc
       -0.0021285475 -0.0012223842 0.029003888 -0.008749862
0001d0 91 39 35 3c 0c 68 70 bd c9 c8 02 3d 94 fd d3 bc
       0.011061088 -0.058692977 0.031929765 -0.025877751
0001e0 bb cd 5c bd e3 db 24 3d 65 74 4c bc b1 d3 26 3d
       -0.053907137 0.040248763 -0.0124789225 0.04072923
0001f0 a4 59 86 3c 64 5d 2b 3d 25 04 03 bc 07 bf 54 3d
       0.016400166 0.04183711 -0.007996594 0.05193999
000200 85 bf 5f 3d 54 d7 0a bd a9 0c 48 3d 1e 78 93 3c
       0.054626007 -0.03389676 0.0488402 0.018001612
000210 0a 61 32 bd bf 87 20 3d 83 36 0c 3c 93 52 1f 3d
       -0.043549575 0.039191958 0.0085579185 0.03889711
000220 71 e7 28 bd 1e b0 13 b9 d4 70 f1 bc 20 4d cf 3a
       -0.041236345 -0.00014084621 -0.029472746 0.0015815832
000230 f5 85 d7 bc 31 a5 cf 3c 93 7c 35 3c 8a 0d 29 3d
       -0.026308993 0.025347324 0.011077064 0.041272677
000240 53 5b 6a bb e1 98 2f 3d 76 0d c0 bc f0 b4 95 3b
       -0.003576 0.042870406 -0.023443919 0.0045686886
000250 b7 b4 82 ba ca df 3f 3d fa b8 22 bd ca 4b 41 bd
       -0.000997207 0.04684428 -0.03972719 -0.04719142
000260 8b 97 9c bb a4 40 e0 3c 06 15 93 bc 18 bc c8 bb
       -0.0047788075 0.027374573 -0.01795436 -0.006125938
000270 3d 10 e4 3c f0 80 4d bc 2a b0 ff 3c 55 fb 8a bb
       0.027839774 -0.012542948 0.031211931 -0.004241387
000280 fb bc cb 3c cf 02 57 bd c0 7f 16 bd f6 99 d1 3c
       0.024870386 -0.052492913 -0.036742926 0.02558611
000290 ee a5 c0 bc 36 97 18 3c 89 05 85 3c e8 7a a7 3c
       -0.023516621 0.009313395 0.01623799 0.020444348
0002a0 31 2b b3 bc b4 64 72 ba c3 41 df 3b 48 df c6 3b
       -0.021871181 -0.00092465733 0.0068132593 0.0060690977
0002b0 6a 06 f1 3c 1f 66 56 bc f7 30 b0 bc 16 5a 49 bc
       0.029422004 -0.013085871 -0.021507723 -0.012289545
0002c0 22 0b 1f 3d dc eb b5 3c c8 95 44 3d f2 d0 6d 3d
       0.038828976 0.022207193 0.047994405 0.058060594
0002d0 04 85 12 3d fa fa 52 3c f5 3d 56 bc 95 0c 36 3c
       0.035771385 0.01287722 -0.013076295 0.011111398
0002e0 84 a9 aa bc fa 80 a6 bc c0 27 ba 3c fc 5c 4c bd
       -0.020832784 -0.020325173 0.022724032 -0.049893364
0002f0 99 57 07 3d 9b db c6 bc 31 1d 17 bc e4 ea c9 bc
       0.033042524 -0.024274638 -0.009223268 -0.024648137
000300 5d b4 59 bd bb f7 e3 bb ce 97 ed bc e7 c8 43 3d
       -0.053150523 -0.006957022 -0.02900305 0.047799017
000310 c1 01 2b bd ac ad 6c bc f5 f8 76 3c 6f dd 9b b9
       -0.04174972 -0.0144457035 0.015074004 -0.00029728885
000320 f7 69 59 3d 99 00 68 bb c1 3d d2 3b b2 39 fb 3c
       0.05307957 -0.0035400747 0.006416053 0.03066716
000330 50 9c 80 ba 1b db 2c bd 6d 3e c3 3c 26 7e 1f bc
       -0.000981221 -0.042201143 0.023833478 -0.009734666
000340 0c 84 d3 bc 99 c4 42 3c ba bd 0a bd 8c 9a ed 3b
       -0.0258198 0.011887693 -0.033872344 0.0072510894
000350 01 64 0c bc 91 78 c1 bc 8b df 9b 3c 45 8f 06 bd
       -0.008568765 -0.02361706 0.019027492 -0.032851476
000360 41 75 cb bc 1e 0c 2f bc 65 f3 68 3d 2a 8e 74 bc
       -0.024836184 -0.010684041 0.056872744 -0.014926473
000370 93 a3 00 bd 24 51 86 3d f0 cb 33 3c a9 1d 29 3d
       -0.031405997 0.06558445 0.010973915 0.04128805
000380 1a 1d df bc bf a0 cc bc e2 23 68 3d 87 a3 72 3b
       -0.027235556 -0.024978993 0.056674846 0.003702374
000390 0c ef ae 3c 07 aa 37 3c 77 c2 04 bc 7e 91 3b 3d
       0.02135422 0.011209971 -0.008103005 0.04579305
0003a0 64 7a 47 3d 66 58 16 3d e6 a9 0d bb a1 70 e3 bc
       0.048700705 0.036705397 -0.002161616 -0.027763667
0003b0 c1 1d b8 bc 98 b6 2f 3d ba e2 19 3d c6 71 44 3d
       -0.022475125 0.042898744 0.03756974 0.047960065
0003c0 32 2b 11 bd 52 c4 b3 bc 4e 7f 04 3c 6c 75 1f 3d
       -0.035441585 -0.021944199 0.008086992 0.03893034
0003d0 ca 46 90 bc 5e c7 ba bc 75 ff 26 bd 82 59 2f 3d
       -0.01761188 -0.022800144 -0.040770967 0.04280997
0003e0 70 ae 1d bc 2e 47 0f 3d 46 95 ec 3b 41 d5 19 bd
       -0.009624109 0.03497999 0.007219943 -0.03755689
0003f0 3e 0c 04 3d a7 1b 51 bc 3e 76 bd bc 7e 8b 33 bd
       0.032238238 -0.0127629405 -0.023127671 -0.043834202

model.0.bias f4 [30]
000000 f2 df d4 bc ce 69 bd 3c 25 50 0a bd e1 e5 3c 3d
       -0.025985692 0.02312174 -0.033767838 0.046117667
000010 1b 67 0e 3c 2b fd a2 3a 4c 1f 25 3d fd 3b cb 3c
       0.008691574 0.0012435069 0.04031305 0.024808878
000020 0b 2f 04 bd ef ac 28 bc da 1b b0 bb 8d 1f 2d 3c
       -0.032271426 -0.010295137 -0.005374414 0.010566604
000030 25 f9 a3 bc c2 79 ba 3c 16 17 3a 3d 0c c9 ce bc
       -0.020016262 0.022763137 0.045432173 -0.025242351
000040 0f 95 49 bd c1 1a 20 bd 86 aa 5a bd 0c 7b 4e bd
       -0.04921442 -0.039088015 -0.05338528 -0.050410315
000050 1f dd 28 bc 50 48 c3 bb 6f 67 5e bd 1f d1 f0 3c
       -0.010306626 -0.005959548 -0.05429786 0.029396592
000060 dd 31 f1 3b 74 25 18 bc fd 3e 19 bd 76 9d c9 ba
       0.0073606805 -0.009286273 -0.037413586 -0.001538201
000070 e2 a7 b1 bc fd 62 55 bc
       -0.021686498 -0.013024089

model.3.weight f4 [1, 30]
000000 2b ff 32 be 61 5d 14 3e 6d 38 27 be 45 5b 07 3e
       -0.17480151 0.14488746 -0.16330118 0.1321841
000010 33 35 6a 3d 0e 28 3e 3d f3 67 18 3e 7d 8f d6 bd
       0.05717964 0.046424918 0.14883403 -0.10476587
000020 c5 36 a6 3d 92 21 77 bd e6 a0 4d bd 78 69 3a 3c
       0.08115915 -0.06033475 -0.050202273 0.011377685
000030 74 f0 53 be 34 76 12 3e 16 09 10 be 54 74 21 be
       -0.20697194 0.14302903 -0.14065966 -0.15767032
000040 9a e7 32 3e fb 1f 56 be be 67 ab 3d d7 24 fe bd
       0.17471161 -0.20910637 0.083693966 -0.124093704
000050 94 32 ed 3d 22 b6 9b 3d 66 2f 76 3d f8 17 93 3c
       0.11581913 0.076030985 0.060103796 0.017955765
000060 97 80 73 bd 0d 7b 8f bd 60 9f b7 3b 65 58 17 be
       -0.059448805 -0.07005892 0.005603716 -0.14779814
000070 a1 f7 16 3e 38 9d 38 be
       0.147429 -0.18028724
