model_save2/v2-30-1e-05-230.pth (torch, 40784 bytes, 3 tensors)

model.0.weight f4 [30, 320]
0	0x3db316cf	0.08744585
1	0x3bd7f42c	0.006590387
2	0x3d0b01da	0.033937313
3	0xbca6d640	-0.020365834
4	0xbd259d53	-0.04043324
5	0x3d197f37	0.037474837
6	0x3c9efda7	0.01940806
7	0x3c988c9c	0.018621735
8	0xbca0a25e	-0.019608673
9	0x3c76869b	0.015046741
10	0x3b293675	0.0025819812
11	0xbd482a6f	-0.048868593
12	0x3db9a422	0.09064509
13	0x3d73d9ae	0.059533767
14	0xbd17829e	-0.0369898
15	0x3c3bb3ba	0.011456424
16	0x3c9bb77a	0.019008387
17	0xbb0b7cd3	-0.0021284118
18	0x3cc5c50c	0.02414181
19	0xbcdbd8f1	-0.026836844
20	0x3d26aad7	0.04069027
21	0x3d82da04	0.063892394
22	0xbb72976a	-0.003701652
23	0x3c8439f4	0.016140915
24	0x3d33712f	0.043809112
25	0xbd634a23	-0.055490624
26	0xbd566a96	-0.052347742
27	0x3dbc38bb	0.09190508
28	0x3d565f4c	0.052336976
29	0xbd61ce59	-0.05512843
30	0xbd40a322	-0.047030576
31	0xbcf0f20d	-0.029412294
32	0xbd1ce32f	-0.038302597
33	0xbc424f69	-0.011859753
34	0xbc41eb55	-0.011835893
35	0xbd0fb692	-0.035086222
36	0x3d7a0234	0.061037257
37	0xbde4dcfa	-0.111749604
38	0xbd23cdc8	-0.03999117
39	0xbcae30db	-0.02126353
40	0x3c9cf97b	0.01916193
41	0x3c33f932	0.010984706
42	0xbd814e5f	-0.06313776
43	0xbce655cd	-0.028117085
44	0xbd876405	-0.06610874
45	0x3d2f961e	0.042867772
46	0x3d370b19	0.044688318
47	0xbcb2bbc8	-0.021818057
48	0xbd20b550	-0.039235413
49	0x3c265c29	0.010153809
50	0x3bf83432	0.0075745815
51	0x3cf3a8c4	0.02974356
52	0x3d8d4f24	0.068998605
53	0x3d8d1309	0.06888396
54	0xbc12b808	-0.008955009
55	0x3cd86232	0.02641401
56	0xbc954fae	-0.01822647
57	0x3d93ed3f	0.072229855
58	0x3c8441c2	0.016144637
59	0x3c8a15a3	0.01685602
60	0xbdbd10d2	-0.09231724
61	0x3c26bfd4	0.010177571
62	0xbd281ebd	-0.04104494
63	0xbc270b38	-0.010195546
64	0xbd0033f4	-0.031299546
65	0xbd16e873	-0.036842775
66	0x3d76adc9	0.06022433
67	0xbd61782c	-0.055046245
68	0x3cd930df	0.026512561
69	0x3d1b79f4	0.0379581
70	0xbb82515a	-0.003976983
71	0x3b994e74	0.004678542
72	0xbd3bb8db	-0.04583059
73	0xbc176c39	-0.009242111
74	0xbd75a11a	-0.05996809
75	0x39dccfbe	0.0004211645
76	0xbce5cd85	-0.0280521
77	0x3cb27e57	0.02178876
78	0x3d1b0d35	0.037854392
79	0xbc513f53	-0.012771445
80	0xbd7218c9	-0.05910567
81	0xbc2ea707	-0.01065994
82	0xbd5806a2	-0.0527407
83	0x3d27d55e	0.040974967
84	0x3d2fb493	0.04289682
85	0x3d1d520a	0.038408317
86	0x3ce97490	0.028497964
87	0xbcd7d872	-0.026348326
88	0x3d80d1b5	0.062899984
89	0xbce350a8	-0.02774842
90	0xbd3d11e0	-0.046159625
91	0x3d549f15	0.051909525
92	0x3cfd2903	0.030903345
93	0x3d6afffb	0.05737303
94	0xbcb02e82	-0.021506552
95	0x3d0f9887	0.03505757
96	0xbc6922a6	-0.014229452
97	0x3c85fbe1	0.016355457
98	0x3c8fac91	0.01753834
99	0x3d1195c4	0.03554322
100	0x3ab0bac3	0.0013483394
101	0xbcad428e	-0.0211499
102	0x3d1afc36	0.037838183
103	0xbda36b52	-0.07979454
104	0xbd314eea	-0.04328815
105	0xbd106e0d	-0.035261203
106	0x3dcdb9ab	0.10045179
107	0x3d5b1614	0.053487852
108	0xbce9d686	-0.028544676
109	0xbc3702e2	-0.011170121
110	0x3b06dfe8	0.0020580236
111	0x3cb3edeb	0.021964034
112	0x3d2ecf62	0.042678244
113	0xbcf4ee07	-0.029898657
114	0xbcadbed4	-0.021209158
115	0xbced16df	-0.02894157
116	0xbd697521	-0.05699647
117	0xbdaed47d	-0.08536623
118	0x3d5f2abf	0.054484125
119	0xbd5fd572	-0.054646917
120	0xbc8d2bfb	-0.017232886
121	0xbd962d80	-0.07332897
122	0x3baa7923	0.005202429
123	0x3ca6f9ed	0.020382846
124	0xbd91304e	-0.070892915
125	0x3dd8b237	0.10580867
126	0x3c97f3a4	0.018548794
127	0x3d16060f	0.03662687
128	0xbd45267d	-0.04813241
129	0xbd8166db	-0.06318446
130	0x3d345568	0.044026762
131	0x3da1d0a9	0.07901127
132	0x3c706714	0.014673013
133	0x3d26cf7e	0.040725224
134	0xbb8f06ce	-0.004364825
135	0x3d4e512d	0.050370384
136	0xbc4a2813	-0.012338656
137	0xbd5895ff	-0.052877422
138	0xbd60c640	-0.054876566
139	0x3bafaddf	0.005361303
140	0x3d1a531f	0.037676927
141	0xbd5ca822	-0.05387128
142	0x3d9f242b	0.0777057
143	0xbd9fea60	-0.07808375
144	0x3d818523	0.06324222
145	0x3cf12c11	0.029439958
146	0x3cc588f5	0.024113158
147	0xbd088ae4	-0.03333558
148	0xbd552dd8	-0.052045673
149	0x3c93ab0a	0.018025894
150	0xbcb5ed25	-0.022207806
151	0xbd03699d	-0.032083143
152	0xbb014c6e	-0.0019729394
153	0x3d548583	0.05188514
154	0x3d9af102	0.075655
155	0xbc934fac	-0.017982326
156	0x3d2e829f	0.04260504
157	0x3d417d3a	0.047238566
158	0xbd898df3	-0.06716528
159	0x3d44dd33	0.048062515
160	0xbd098008	-0.033569366
161	0xbd55ebe7	-0.052226927
162	0xba40c021	-0.0007352848
163	0x3cc09885	0.023510227
164	0x3d712765	0.05887546
165	0xbcc1e35c	-0.023667984
166	0xbd4ca4cc	-0.04996185
167	0x3cd661bf	0.026169656
168	0xbd2daec3	-0.042402994
169	0xbd503a80	-0.05083704
170	0xbd094c80	-0.03352022
171	0xbd14fd2a	-0.03637425
172	0xbd8e91f5	-0.06961433
173	0x3b8e2eec	0.0043390896
174	0x3ce59dac	0.028029285
175	0xbb9687b7	-0.004593815
176	0xbd1a6513	-0.037694048
177	0xbc255222	-0.010090383
178	0x3bbba02f	0.0057258825
179	0x3d6d785b	0.057976108
180	0xbcd1b63f	-0.025599597
181	0x391571b2	0.00014252102
182	0x3d36c4ca	0.044621266
183	0xbdd4bbab	-0.10387357
184	0xbd48a15d	-0.048982013
185	0x3ce3ee3b	0.027823558
186	0xbc6a209b	-0.01429
187	0xbd85d074	-0.065339
188	0x3da5ec52	0.08101715
189	0x3d5cd433	0.053913306
190	0x3d80ca0a	0.06288536
191	0x3ca8b477	0.020593865
192	0x3c95248f	0.018205909
193	0xbbfe0d41	-0.007753045
194	0xbaf3a077	-0.0018587251
195	0xbcb51570	-0.022104949
196	0xbcb64621	-0.022250237
197	0xbbd8436e	-0.006599835
198	0xbcbebabf	-0.023282407
199	0x3d03bde3	0.032163512
200	0xbcc0aeb8	-0.023520812
201	0xbc9a59cc	-0.018841647
202	0x3b5a8d13	0.0033348247
203	0xbb4202e3	-0.0029603771
204	0x3d0d2b87	0.03446534
205	0x3ccd670d	0.025073553
206	0x3dd21f70	0.102599025
207	0x3bf8001c	0.0075683724
208	0xbcc03f8f	-0.023467807
209	0x3d44a2f1	0.048006956
210	0xbc61966a	-0.013768772
211	0x3cc54506	0.024080765
212	0xbd53b51a	-0.051686384
213	0xbb851d4b	-0.00406233
214	0x3d327ca8	0.043575913
215	0xbcf688e5	-0.030094573
216	0xbd4b6b34	-0.049662784
217	0xba3e57f1	-0.0007261029
218	0x3b526ef6	0.0032109595
219	0x3cddd289	0.02707793
220	0x3ba5995e	0.005053683
221	0xbccdc85f	-0.025119958
222	0xbcb4af26	-0.022056174
223	0x3d3517c4	0.044212118
224	0xbd3494fb	-0.04408739
225	0x3e20b2fa	0.15693274
226	0xbc94b1ac	-0.018151127
227	0xbbf58c58	-0.007493537
228	0x3d8ac207	0.06775289
229	0x3af22fb4	0.0018477351
230	0xbcc2d3b4	-0.023782589
231	0x3c06f1f9	0.008236402
232	0xbc3bd999	-0.011465454
233	0xbbce993f	-0.0063048895
234	0xbca617ef	-0.020275084
235	0xbd551d54	-0.052029923
236	0x3de2c25a	0.11072226
237	0xbbfb443a	-0.0076680453
238	0xbc8c94d2	-0.017160807
239	0x3d3b69cf	0.045755204
240	0x3d4c3ce3	0.049862754
241	0xbc9e064b	-0.01929011
242	0xb9b54e19	-0.00034581198
243	0x3d05d080	0.032669544
244	0x3d56d079	0.05244491
245	0x3d4d13f0	0.050067842
246	0x3d4f09e8	0.050546557
247	0x3bdf3203	0.006811382
248	0x3d0b440c	0.03400044
249	0x3d51a7e4	0.051185504
250	0x3d89ff91	0.067381985
251	0x3d85e4e0	0.06537795
252	0xbd320b7a	-0.043467976
253	0xbd0eedc1	-0.03489471
254	0x3caf96e6	0.021434259
255	0xbd0dcfd9	-0.034622047

model.0.bias f4 [30]
0	0x3c292bd3	0.01032539
1	0x3cdb2353	0.026750242
2	0xbcac69b4	-0.021046497
3	0xbd273723	-0.040824067
4	0x3ce6bd70	0.028166503
5	0xbcead26c	-0.02866479
6	0xbd063aea	-0.03277103
7	0x3c0042b8	0.007828407
8	0xbc36a602	-0.011147978
9	0xbcef087d	-0.029178852
10	0x3d102987	0.035195854
11	0xbd337402	-0.043811806
12	0x3c84b3b7	0.016198976
13	0xbd393309	-0.045214687
14	0xbc4b306c	-0.012401681
15	0x3c9c92c3	0.01911295
16	0xbd0c007c	-0.03418015
17	0xbc8efec5	-0.017455468
18	0xbbdf190b	-0.0068084053
19	0x3c6dbbb9	0.014510089
20	0xbd16efd9	-0.03684983
21	0xbcbe1cd8	-0.023207113
22	0xbbb10dfe	-0.0054032793
23	0xbd3f0c80	-0.04664278
24	0xbd4dd0e1	-0.05024803
25	0xbca6fd41	-0.020384433
26	0xbd08c4f9	-0.033390973
27	0xbd519362	-0.051165946
28	0xbce0815c	-0.027405433
29	0xbd3a9f01	-0.045561794

model.3.weight f4 [1, 30]
0	0xbf1c8695	-0.61142856
1	0x3e067c70	0.13133407
2	0x3e1830b0	0.14862323
3	0xbeb214cc	-0.34781492
4	0xbf76a4f2	-0.96345437
5	0xbdae3e83	-0.08508017
6	0xbf90e7be	-1.1320722
7	0xbf1f6228	-0.6225915
8	0xbf5fd818	-0.8743911
9	0x3ee31684	0.44353116
10	0xbf299f50	-0.66258717
11	0xbf475b0e	-0.77873313
12	0xbe2e285a	-0.1700758
13	0xbdfda2e9	-0.12384588
14	0x3ef227bb	0.47295937
15	0x3e01bdb4	0.12670022
16	0x3ed71326	0.42006797
17	0xbf0091f9	-0.50222737
18	0xbf32d538	-0.69856596
19	0xbf8b0c95	-1.0863215
20	0xbfa1f29f	-1.2652167
21	0x3e8279ab	0.2548345
22	0x3da8f023	0.082489274
23	0x3d67bf41	0.05657888
24	0x3ec81464	0.39078057
25	0xbe9aad29	-0.30210236
26	0xbd78d167	-0.060746577
27	0x3e357106	0.17718896
28	0xbdd24e00	-0.102687836
29	0x3ea8e3d4	0.3298632
