model_save2/v2-30-1e-06-230.pth (torch, 40784 bytes, 3 tensors)

model.0.weight f4 [30, 320]
000000 cd e8 3a 3d cd 1f f1 bc 6f 72 76 3d a7 f8 3b 3d
       0.045632172 -0.02943411 0.060167726 0.04589143
000010 8c d9 9d 3c f3 d8 cb bc 52 e2 4e bd f1 04 53 bd
       0.019268773 -0.024883723 -0.050508805 -0.051518384
000020 c2 f4 18 bd d3 c5 03 bc 34 3f 44 3d 58 65 03 3c
       -0.037342794 -0.00804277 0.047911838 0.008019768
000030 57 d6 4f 3c fc d2 14 bd 80 86 18 3d 0f 01 b3 bc
       0.01268538 -0.036334023 0.037237644 -0.02185109
000040 00 89 1e bd fe 37 22 3d 95 a7 c4 bc a2 03 2b 3d
       -0.038704872 0.03960418 -0.02400569 0.04175151
000050 88 cb 26 3c 37 c4 93 3c a2 68 13 3d f9 71 40 bd
       0.010180362 0.018037898 0.035988458 -0.046983693
000060 ca 5a 69 3c 67 53 a9 bc fa 29 06 3b f6 53 04 3d
       0.014242837 -0.020669652 0.0020471797 0.032306634
000070 40 3c e5 bb e2 ee 81 3c 98 c2 a4 bc 53 a4 ec 3c
       -0.0069957078 0.015860979 -0.02011232 0.02888695
000080 8f 32 53 bc c0 28 05 3b 2b 73 da 3a c1 50 52 3d
       -0.012890472 0.0020318478 0.0016666403 0.051346544
000090 c3 90 0d 3d 39 6f 13 bc b1 4b 8d bc a5 49 6b bb
       0.034561884 -0.0089986855 -0.017248007 -0.003590205
0000a0 3d 52 53 bc 30 2c 2c bd 97 d1 33 3d 17 7b 4d 3d
       -0.012898025 -0.042034328 0.043901052 0.050166216
0000b0 ae cb 5f bd ec 4d 37 bd 1f 2b 32 bc 44 2b 57 bc
       -0.054637603 -0.044752046 -0.010874539 -0.013132874
0000c0 02 a9 e5 3c 1a 88 11 bc 7f 96 ca bc 78 68 f6 bc
       0.02803469 -0.008882547 -0.024729965 -0.030079111
0000d0 d9 c6 0e bc 4d 37 0c bc 90 6c 14 3d 4e 28 c4 bc
       -0.008714401 -0.008558107 0.036236346 -0.023945
0000e0 0e f3 00 3d 7a 65 21 3d 2e 93 5e bd 01 84 77 3c
       0.031481795 0.039403416 -0.05433958 0.015107156
0000f0 b5 44 23 3d fb a6 26 3d 45 97 4f bd 25 17 2e bd
       0.039860446 0.04068659 -0.05068137 -0.04250254
000100 3d e9 8f 3c c4 f7 a4 3b 93 40 5f 3d a2 83 2e bd
       0.017567271 0.005034419 0.054504942 -0.042606004
000110 e8 ac e2 bc f1 50 6b 3d c2 a0 67 3c ba 8b 19 ba
       -0.027670339 0.05745024 0.014137449 -0.00058573077
000120 ca 88 88 bd 90 6b 58 3d 47 c8 6e 3c 6b 98 93 bc
       -0.066667154 0.052836955 0.014574117 -0.018017014
000130 ce a3 4f bd 6e 1d a6 bc ec d7 08 bd 8f 96 18 bd
       -0.050693326 -0.020277705 -0.033409044 -0.03725296
000140 d5 40 0f 3d 8e 3e fb bc 28 62 22 bd 68 18 5d 3d
       0.034973938 -0.030669477 -0.03964439 0.053978354
000150 d1 2d fd 3c b5 ef 49 bc 9b 04 5b bd 4e 6f 9c bc
       0.030905636 -0.012325217 -0.05347119 -0.019096043
000160 3a 13 17 bd 95 a9 59 3d ea 6a bf bc b5 ed 95 3c
       -0.03688357 0.05314024 -0.02336641 0.018301824
000170 44 aa 61 3c a0 f9 70 bc a8 ed 16 3d 99 54 ec 3b
       0.013773505 -0.014707953 0.03684774 0.0072122333
000180 27 6f 5a 3c bb 14 64 3c cd ff 9e bc 1c 44 e5 bc
       0.013332165 0.013920958 -0.019409085 -0.027986579
000190 19 37 2a bd d5 4c 21 3d a5 93 2d bd b2 1e 9a 3c
       -0.04155645 0.039379913 -0.042377133 0.018813465
0001a0 a0 00 43 3d a9 d4 2b bc 29 5f 48 bd 2c bf 2a 3d
       0.047608018 -0.010487714 -0.048918877 0.041686222
0001b0 68 45 c2 bc e0 a2 d1 bb 08 c0 4c bd 58 ef 4b bd
       -0.023714736 -0.00639759 -0.049987823 -0.049788803
0001c0 70 51 2e bd a4 e6 08 bd 3c 16 9f ba 3a fc 70 bc
       -0.042558134 -0.03342308 -0.0012137364 -0.014708573
0001d0 7d 96 2e bc 39 44 b3 bc 18 fc 62 3c 9c 6c 24 3d
       -0.010655996 -0.021883117 0.013854049 0.04014264
0001e0 74 71 b0 3c 12 1b 61 bd 70 77 18 3d 10 ed 39 bd
       0.021538474 -0.054957457 0.03722328 -0.045392096
0001f0 14 e4 c1 3c 76 e9 82 bb 58 31 c6 3b 73 f3 4a 3d
       0.023668326 -0.003995116 0.0060483627 0.049548578
000200 60 86 c2 bc 83 f1 99 3c 4b e8 30 bd 47 7e 06 3d
       -0.023745716 0.01879192 -0.04319028 0.03283527
000210 ab 7d 56 3d c2 b8 bf bc 6f ca 30 3d 86 6d 40 bd
       0.05236594 -0.02340353 0.043161806 -0.04697945
000220 72 73 af 3c b1 3d 2a 3d ec e9 fe bc ab 7b 2a bd
       0.021417353 0.04156274 -0.031117402 -0.041621845
000230 89 09 4d 3d 63 5d f1 3b 4d fc 3d 3d c9 1b 59 bd
       0.05005792 0.007365869 0.04638319 -0.053005014
000240 a4 e1 82 bc 8c 62 ee 3c 7e a3 4e 3d 54 a2 17 3c
       -0.015976734 0.029099725 0.050448887 0.009255011
000250 19 3e dd 3c 78 e5 13 bd d8 eb 70 3c 9d 40 8a 3c
       0.02700715 -0.03610751 0.014704667 0.016876513
000260 b6 4d 7d bc 16 5d f4 bc 40 66 5a 3d c9 a6 1d bd
       -0.015460422 -0.029829543 0.05332017 -0.038489137
000270 6a 97 11 bd e3 b0 1a bc d8 5e ba bc 1d 0d 22 3d
       -0.03554479 -0.009441587 -0.022750303 0.039563287
000280 80 66 fc 3c 80 8c 17 3d 05 e8 8b 3c 9f 43 a1 3c
       0.030810595 0.036999226 0.017078409 0.019685565
000290 d4 c0 61 3a ef 61 17 bd ea 0c 13 bd e1 be a6 bc
       0.00086118025 -0.03695863 -0.035900988 -0.02035469
0002a0 d5 ac 19 bd 63 cf b8 bc c6 1c e0 bc 1d b4 61 bc
       -0.03751834 -0.022559827 -0.02735747 -0.0137758525
0002b0 37 13 ba bc 05 0a 06 3d ea 39 5e 3c 3f 76 40 bd
       -0.02271424 0.0327244 0.0135636125 -0.04698777
0002c0 50 27 7e 3b 31 5c fb bc c1 e2 b8 bc 84 50 00 3d
       0.0038780756 -0.030683609 -0.022569062 0.031326786
0002d0 2b 34 39 bb cb 0f 52 bd 84 78 1e bd 7f 2f 5b bd
       -0.0028259854 -0.051284593 -0.03868915 -0.053512093
0002e0 77 4b 41 3d 88 5a 9c 3c b8 48 ed bc b3 e4 9e bc
       0.04719111 0.019086137 -0.028965339 -0.019396162
0002f0 ca 22 59 3d 2d df 0e bd 84 1b 92 3b 81 c7 1e bc
       0.053011693 -0.034880806 0.0044588465 -0.00969112
000300 55 c6 dc 3a 82 d0 82 3b 92 79 01 3d c2 02 06 3d
       0.0016843776 0.003992141 0.03161008 0.032717474
000310 bd 76 65 bd fe 9a 98 3c c8 1b 27 3c 59 db e5 bc
       -0.05602144 0.018628594 0.010199495 -0.028058695
000320 a2 e1 50 bd 31 f4 22 3c 39 b2 4d 3d be ee 34 3c
       -0.05099643 0.009945915 0.050218794 0.011043249
000330 6e ee 2f 3d 90 b3 25 bd 9a 92 04 bd ce 2e 14 3d
       0.042951994 -0.040454447 -0.032366373 0.03617745
000340 a9 70 2c bd 49 98 bc 3c ac 55 38 3d f3 21 5a bd
       -0.04209963 0.023021834 0.045003578 -0.053255033
000350 11 8f 40 bd 61 6e ac bb a3 fc 4f 3c 53 cd 51 bb
       -0.04701144 -0.0052621816 0.012694511 -0.0032013252
000360 48 f6 22 3d e3 f5 95 3c ab 24 9f 3c ae 18 02 bc
       0.039785653 0.018305724 0.019426664 -0.007940454
000370 1c 53 06 3a 0a c4 88 3c d2 45 e8 bc ea 20 f7 3c
       0.00051240786 0.016695041 -0.028353605 0.030167062
000380 fc be bb bc a7 67 bd 3c 65 04 ba bc 8c d0 0f 3d
       -0.022918217 0.023120714 -0.022707174 0.035110995
000390 91 c4 19 bd 6f 24 1e ba ba 2e 50 bc 3d 0d 51 3c
       -0.037540976 -0.00060326507 -0.012706453 0.012759504
0003a0 51 5c 84 3a ba f2 39 3c 83 cb 73 bc 97 08 23 3d
       0.0010098313 0.011349374 -0.014880064 0.039803114
0003b0 0f d4 75 3d 71 33 98 3c 64 eb ec 3c 0b 67 aa bc
       0.060016688 0.018579217 0.028920837 -0.020801088
0003c0 8d 0d 37 3d 29 a9 1d 3d bb 1e b5 bb d2 32 ee bc
       0.044690657 0.0384914 -0.005527345 -0.029076967
0003d0 02 4f 83 3c b1 e9 42 3c 30 cc 29 3d 1d a4 57 bd
       0.016028885 0.011896537 0.041454494 -0.052646745
0003e0 fe e7 c2 3c d2 3f 8a bc 41 c9 be bc 3f af d6 bc
       0.023792263 -0.016876135 -0.023289325 -0.02620661
0003f0 40 ea dd 3c ef d4 04 3d 9c 03 06 3d fc f0 0e bd
       0.027089238 0.03242963 0.032718286 -0.03489779

model.0.bias f4 [30]
000000 c9 95 08 bd ac 07 d8 bc 89 2c 1e bd ca 2f 80 bc
       -0.03334597 -0.026370846 -0.03861669 -0.015647788
000010 02 bc d3 bb d3 29 61 bb 98 8c 41 bd ef 04 df 3c
       -0.0064616213 -0.0034357205 -0.04725322 0.027224032
000020 68 6d 95 3c 8c 8f 32 3d 08 18 ec bb f1 ef 08 3d
       0.018240646 0.04359393 -0.007205013 0.03343195
000030 b0 34 cb ba 0e ff bc 3c ed cd 20 3d 00 3f 35 3d
       -0.0015503373 0.023070838 0.039258886 0.044249535
000040 18 ca b5 3b 0a f6 df bb a1 62 a3 3c 56 35 33 bd
       0.005547773 -0.00683475 0.01994449 -0.043752037
000050 6b 82 28 3d 38 b3 36 bd 6e 48 0e bb ce 99 72 3c
       0.04114 -0.04460451 -0.0021710652 0.014807178
000060 a0 7b 2e bd 73 7d 01 3d 79 7b 4e 3c 21 40 53 3d
       -0.042598367 0.03161378 0.01260268 0.05157483
000070 2c 2b 5e 3c 23 e2 c1 3c
       0.013560098 0.0236674

model.3.weight f4 [1, 30]
000000 a3 fa 12 bd c2 60 99 3d bd da f1 bb 96 0f c2 bc
       -0.035883557 0.07489158 -0.007380812 -0.023689073
000010 d7 17 85 bd 65 7e 88 bd e1 a2 fd 3c ce e5 39 3e
       -0.06498688 -0.06664733 0.030961456 0.1815407
000020 5a b2 1b 3e 1c 3c 54 3d af 31 ac bd c2 1f ac 3c
       0.15204754 0.051815137 -0.08407914 0.021011237
000030 21 c8 45 bd b0 0a fd bd 6c a5 15 3e 66 17 2f bc
       -0.04828656 -0.12355554 0.14613885 -0.010686731
000040 0c 8c 22 3e cd 65 23 3e 82 17 89 3d 90 23 ca bc
       0.15873736 0.15956803 0.06693937 -0.02467516
000050 46 bb c3 3d d7 5b 08 3d 38 3e f5 bd 7f ab 13 3e
       0.09557204 0.03329071 -0.11974758 0.1442089
000060 4c 60 e5 3d 5e 93 84 bc 3a be b6 bd c0 5c 2a 3e
       0.11200008 -0.016183551 -0.089230016 0.16636944
000070 65 8a 9c bd 34 6a cd 3c
       -0.07643584 0.025075056
