model_save2/v2-60-1e-05-180.pth (torch, 79440 bytes, 3 tensors)

model.0.weight f4 [60, 320]
000000 b0 7e 4a bd c3 a0 2a 3d 71 b3 64 bc 03 b6 26 3c
       -0.049437225 0.04165722 -0.013958798 0.010175231
000010 9b 45 61 bd 9c de 21 3d 0f ad 09 3d 78 a3 08 bd
       -0.05499802 0.039518937 0.033612307 -0.03335902
000020 32 2b 1f 3c 6a c5 00 bd e4 41 3c 3c e4 ac ee 3c
       0.009714888 -0.03143827 0.011490319 0.029135175
000030 d0 d4 e9 bc b6 a2 07 bd 4b c6 45 3d 35 9d 9f bc
       -0.02854386 -0.033114158 0.04828481 -0.019484142
000040 3e 05 a1 3a b3 9f 41 3b 7d 43 2c bd 82 c5 43 3d
       0.0012284887 0.002954465 -0.04205655 0.04779578
000050 7d 9a 60 3d f0 b3 14 bc ec 05 87 3b 7c 58 71 bc
       0.05483483 -0.009076104 0.004120579 -0.014730569
000060 49 88 26 bd 0d c4 57 bd b8 cc ff 3c 29 e4 00 3d
       -0.040657315 -0.052677203 0.031225547 0.03146759
000070 37 ae 5b bd d3 74 4d 3d fd b7 03 bc 79 9f 6c 3c
       -0.05363294 0.05016024 -0.008039472 0.014442318
000080 c1 8e cb 3c b3 49 46 bd 9c 3b 58 bd 98 96 38 bd
       0.024848344 -0.04841013 -0.052791223 -0.045065492
000090 5b 80 04 bd 6c 09 d0 bc d8 4a 05 bb df 19 7d 3c
       -0.03234897 -0.025395118 -0.00203388 0.015448063
0000a0 00 fd 13 bc 17 56 30 bd e5 2f 92 3b a3 70 03 3d
       -0.009032488 -0.04305085 0.004461276 0.03208984
0000b0 cb 89 1e 3d 0a b4 ea b8 2a da 47 bd 5e 22 2d 3d
       0.03870563 -0.000111915244 -0.04879204 0.042269103
0000c0 b9 1a b9 bc 84 25 41 bd 5e 7e 53 3d b5 1f 58 bd
       -0.02259575 -0.04715492 0.051634185 -0.052764613
0000d0 ac 36 a0 bc 30 72 3b 3d 24 d2 b2 3c ff 3f 04 3c
       -0.01955732 0.045763195 0.021828718 0.0080718985
0000e0 5b 0f d3 bc 89 af 2a bc cd 30 dd bc 0a 57 5e bd
       -0.025764158 -0.010417827 -0.02700081 -0.054282226
0000f0 f8 4b 4d 3d 6c 78 9f 3c 9a 79 53 3d 38 91 c7 bc
       0.050121278 0.019466601 0.05162964 -0.024361238
000100 73 e5 47 bd 0f 5d bd ba 8a a5 33 bd b8 42 56 bd
       -0.048802804 -0.0014447289 -0.043859042 -0.05230972
000110 75 94 36 3d 0c bc 05 3d fd 25 b9 bb b8 11 36 bc
       0.044575173 0.03265004 -0.0056502805 -0.011112623
000120 7b cf c7 bc 7a 76 95 bb 67 99 03 bd c7 b2 5b bd
       -0.024390927 -0.0045612426 -0.032128718 -0.053637292
000130 ed 4e a3 bb 49 f7 2f 3d e3 48 aa 3c d1 87 36 3d
       -0.004983774 0.04296044 0.020786708 0.04456312
000140 a7 fb ad bc 14 78 16 bd 19 70 35 3d bf c1 85 bc
       -0.021238161 -0.03673561 0.044296358 -0.016327737
000150 06 7f 0b 3d 5f 3e 6c 3c 13 82 59 3d c0 5c 40 3d
       0.034056686 0.014419167 0.053102564 0.046963453
000160 99 5d 41 bd 69 e5 f7 3c 7b de 3b 3d 69 ee 41 bc
       -0.047208402 0.030260758 0.04586647 -0.011836627
000170 09 86 3d bd 3d c9 a3 3b a0 b7 56 3d f1 c7 cb bc
       -0.046270404 0.0049983547 0.052421212 -0.024875613
000180 55 7e 29 3d 46 47 45 bc 96 e2 0b bd 85 12 8b 3c
       0.041380245 -0.012040919 -0.034151636 0.016976604
000190 1d d8 81 bc c5 97 64 3c f3 63 73 bc 18 ba 07 bc
       -0.015850121 0.0139522 -0.014855373 -0.008284114
0001a0 c5 b9 2c 3d a5 d7 a3 3c a1 9e 25 bd 6f ff 9b bc
       0.04216935 0.020000288 -0.040434483 -0.019042699
0001b0 5c 38 81 bc 20 14 37 3d 59 20 5b bb 97 ee e5 bc
       -0.015773945 0.044696927 -0.0033436029 -0.02806787
0001c0 da 52 56 bd b8 01 7d 3c 7d 29 80 bc ac 2a 51 3d
       -0.052325107 0.015442304 -0.015644783 0.051066086
0001d0 5b 7a ee bb b5 a3 dc bc 68 2a b3 bc a3 2f fa 3c
       -0.0072777695 -0.02693353 -0.021870807 0.030540293
0001e0 f7 e5 02 3c 6f 19 b6 bb 83 e3 02 3d 39 38 cd bc
       0.007989398 -0.005557231 0.031955253 -0.025051223
0001f0 d9 83 17 bd ca d0 80 bc 1b f8 01 bd 5e 18 e1 3a
       -0.036990974 -0.015724558 -0.031730752 0.00171734
000200 65 b0 55 bb 8a a5 cf bb 54 fc 83 bc 96 4f 54 bd
       -0.003260636 -0.0063368725 -0.01611153 -0.05183371
000210 52 7d b2 3c 79 3c 11 3d 0e f4 3d 3d 1e 97 56 bd
       0.021788273 0.03545806 0.046375327 -0.05239021
000220 74 58 57 bd af c6 06 3d 8c 7d f0 bc e8 cf 19 bd
       -0.05257459 0.032904323 -0.02935674 -0.03755179
000230 ea 28 bc 3c f9 32 d8 3c d1 e4 bd bc 7b 15 83 3c
       0.022968728 0.026391493 -0.023180397 0.016001454
000240 1d 10 d6 bc 83 40 4c 3d dd 64 16 3d 5c 3a 8f 3c
       -0.02613073 0.04986621 0.036717284 0.017483883
000250 75 dd b1 3c 67 81 ee bc 16 ba 45 3d 1d 79 62 3d
       0.021712044 -0.029114438 0.04827317 0.055291284
000260 2e 39 0d 3d 5b 70 0d bd 48 05 e4 bc 51 0e 3e 3d
       0.03447836 -0.03453098 -0.02783455 0.046400372
000270 3d 52 9c 3a 04 d8 17 bd 30 e0 f1 3c 65 41 94 bc
       0.0011926364 -0.037071243 0.029525846 -0.018097589
000280 37 24 32 bd 98 8e c9 bc 94 94 51 bd 7a c2 db 3c
       -0.04349157 -0.024604127 -0.051167086 0.026826132
000290 d7 0a d3 bc 55 02 89 3c c7 be 10 3d 46 c7 2a 3d
       -0.025762005 0.016724745 0.03533819 0.04169395
0002a0 17 99 b8 3c 40 98 f5 3b 5c 32 4a 3d ed 5c e7 3c
       0.022533936 0.0074949563 0.049364433 0.028242553
0002b0 d2 07 9d bc 7f e2 3a 3d 22 2d 2b bd eb af c5 3b
       -0.019168768 0.04562616 -0.04179109 0.006032934
0002c0 3c c5 a0 bb 6d 7b d4 bc 35 07 97 bc 80 23 3d 3d
       -0.0049063247 -0.02593776 -0.018436054 0.046176434
0002d0 b9 72 dc 3b 35 8f df bb 91 64 a7 bc ad 70 5a 3d
       0.006727543 -0.0068224915 -0.020433696 0.053330112
0002e0 ee ff f4 3c 4e 36 45 bd e3 1a a6 3c 30 f6 35 bd
       0.029907193 -0.048147492 0.020276492 -0.044424236
0002f0 99 9b bd bc 3a 96 a4 bb ee dd 4b bd 16 21 a3 3c
       -0.023145484 -0.005022791 -0.049772196 0.019913238
000300 55 81 48 3c c0 ba cc 3c 57 95 65 bc 7e 19 3f bd
       0.012237866 0.024991393 -0.014012656 -0.04665517
000310 08 31 a4 bc 4d ef e4 bc 75 76 40 3d 5f e9 45 3d
       -0.020042911 -0.027946139 0.04698797 0.048318263
000320 23 37 c0 ba f9 16 26 bd 0b 85 98 3b 5c f4 02 3b
       -0.001466487 -0.040549252 0.004654532 0.0019982075
000330 b4 62 9d 3b e6 86 ea 3c ed 08 1d 3c 04 5e aa bc
       0.004803026 0.028628778 0.009584648 -0.020796783
000340 72 4e c8 3c b2 60 fb 3c 1b 70 f9 3c 47 6e 5f bd
       0.024451468 0.030685756 0.030448964 -0.054548528
000350 d2 24 cc 3b a8 42 34 bd bf 2e 23 bd 5f 29 2d bd
       0.0062299753 -0.04400888 -0.039839502 -0.042275783
000360 00 16 f5 bc d6 b7 32 bd 4a 07 0d 3d b1 fe 9a 3b
       -0.029917717 -0.04363235 0.03443078 0.0047300686
000370 b6 d3 1f bc fa bc 0b 3c 88 ab 81 3c c8 8d 8a bc
       -0.009755066 0.008528942 0.015828863 -0.01691331
000380 9c 29 18 bd 36 d4 35 bd 4b a4 2b bd 7e 58 20 bd
       -0.037149057 -0.044391833 -0.04190473 -0.039146893
000390 16 56 90 3c 1c 1b 41 3d 7c 61 60 3d 16 26 13 bc
       0.017619174 0.047144994 0.05478047 -0.008981248
0003a0 62 50 27 3d ba 22 98 3c d6 30 42 bd 68 32 42 bd
       0.040848143 0.018571246 -0.047409855 -0.047411352
0003b0 f5 59 33 bd a7 e5 37 3d b6 aa fd 3b 81 69 2a 3d
       -0.04378696 0.044896748 0.0077412976 0.041604523
0003c0 64 8f 8b bb 80 dd b2 bc 40 09 c6 bc a0 71 11 3d
       -0.004259037 -0.021834135 -0.024174333 0.035508752
0003d0 19 56 eb bb 55 e6 58 3d 7b ce 5d bd 6b e9 40 bd
       -0.0071818945 0.052954037 -0.054151993 -0.047097605
0003e0 e2 e9 2a bd d1 f3 0a bc f3 88 0f 3d 8a 2f 80 3c
       -0.041726954 -0.008480982 0.035042714 0.015647668
0003f0 d3 c3 c0 3c 33 1c 59 bd 28 25 d4 bc 9b fd 06 3d
       0.023530876 -0.05300541 -0.025896624 0.0329567

model.0.bias f4 [60]
000000 73 a1 55 bd fb 24 7a bd 6e ad 43 3d fc f8 13 3d
       -0.052155923 -0.061070424 0.047772817 0.036126122
000010 1c 0a 0a 3d d4 0f 01 bd 0b 4d bc 3b 3e 82 f4 3b
       0.033701047 -0.031509236 0.005746489 0.007461815
000020 44 98 94 bc cd f2 c2 3a 33 87 f5 3c f3 a0 0d bd
       -0.018139012 0.0014873386 0.029971695 -0.03457732
000030 f1 9e 82 bb b2 9f 3d bb fe da dd bc 0c 3d e8 bb
       -0.0039862324 -0.0028934297 -0.027081963 -0.0070873555
000040 77 2f c4 3b e1 20 76 3c df 9e 0b 3c 97 9e 77 3c
       0.0059871036 0.015022487 0.008521765 0.015113494
000050 3a be 25 3d 14 d8 e0 bc b8 e6 4b bd bb a1 07 bc
       0.040464617 -0.027446784 -0.049780577 -0.008278306
000060 de ae da 3c 53 39 3a 3d 60 a6 14 bd 75 19 94 3c
       0.026694711 0.045464825 -0.03629148 0.018078545
000070 b0 87 fd bc 3f 3c 50 3d 06 72 58 3d d1 2b 57 bd
       -0.03094849 0.050838705 0.052843116 -0.05253202
000080 b3 de dd bc 37 e0 db bc 51 30 8b bc 14 37 4e bd
       -0.02708373 -0.026840312 -0.016990812 -0.050345495
000090 9f 48 c1 bc d0 a4 8b bc e1 8c 17 bd 1d 4d 4e bd
       -0.023594199 -0.017046362 -0.036999587 -0.05036651
0000a0 7c e6 8b 3c b6 d2 6f bc e5 68 09 bd af 93 30 bd
       0.017077677 -0.01463764 -0.0335473 -0.043109592
0000b0 3f 7a 49 3d 98 87 ba 3c 8a 7f 13 bd 51 19 3e 3d
       0.04918885 0.022769734 -0.036010303 0.046410862
0000c0 a6 d0 d4 bc 66 d3 30 bc f7 3d 38 3c 90 59 78 3b
       -0.025978398 -0.010792589 0.011245242 0.003789518
0000d0 e3 32 58 bd a2 4d 13 3d 5c ad 72 bd 59 4e 06 bb
       -0.052782904 0.03596271 -0.05924736 -0.0020493476
0000e0 ed 24 8c 3b b4 b1 46 bd 84 f6 af bb 3e 08 16 3c
       0.004276863 -0.048509315 -0.005369963 0.0091572385

model.3.weight f4 [1, 60]
000000 06 43 ae bc 7b 4f 72 3e 7a d3 17 3d 79 3e f9 bd
       -0.021272194 0.23663132 0.037066914 -0.12170119
000010 3c b2 b7 be 29 da 4d be 4a fa 72 bd b5 07 cb bd
       -0.3587817 -0.20102753 -0.059320726 -0.099135794
000020 6b 94 df 3e fc c0 79 bd 60 cf 9b be 36 5e fa 3d
       0.4366792 -0.06097506 -0.30431652 0.122250006
000030 6b 5d 72 3d 32 72 ff bc 0a 14 ec 3d 87 a5 67 bd
       0.05917112 -0.031182382 0.1152726 -0.056554344
000040 ef 3f 91 be 1e de 4b be 78 c0 a6 be 4a 5d 34 be
       -0.2836909 -0.1990895 -0.32568717 -0.17613712
000050 fc c5 85 3e 46 bf 79 bd 9d 3c b3 be e2 0f d3 3e
       0.26127613 -0.06097343 -0.35007182 0.41223055
000060 48 df 93 3e 3a cb aa bd 3c ba cb 3e c8 0d a1 be
       0.28881288 -0.08339544 0.39790523 -0.31455827
000070 61 0d c2 3e 42 b0 02 be 86 81 20 bd c6 74 de bd
       0.37900832 -0.1276255 -0.039186023 -0.108621165
000080 08 50 aa 3e f5 31 3d 3e 81 f3 1a bd 1e 7c d8 bd
       0.33264184 0.18476088 -0.03782988 -0.105705485
000090 a9 79 ee bd 03 fb d2 3d 59 07 cc 3e 43 39 e1 bd
       -0.116442986 0.10301783 0.39849356 -0.1099725
0000a0 bf cc d7 3e 88 1a 6f 3d 40 c2 a8 3e aa 7b 02 be
       0.42148396 0.05837491 0.329607 -0.12742487
0000b0 ae 35 14 be 83 e9 89 be 62 89 52 be ff ac 02 be
       -0.14473602 -0.26935968 -0.2056022 -0.12761305
0000c0 ed 55 ca 3c 39 9e 96 be c4 a3 87 3c 50 83 01 be
       0.024699176 -0.2941759 0.016557582 -0.12647748
0000d0 52 1a ae 3b 81 79 a4 be a1 fe c0 3e 74 41 32 be
       0.005313196 -0.3212395 0.37694266 -0.17407781
0000e0 36 64 19 3d bc 2f e5 3d b2 fe 88 be 4e 9c 99 bd
       0.037449084 0.11190745 -0.26756817 -0.07500516
