model_save2/v2-60-1e-06-150.pth (torch, 79440 bytes, 3 tensors)

model.0.weight f4 [60, 320]
00000000: 3f52 25bc 1148 54bd 5905 0c3d fe62 02bd
00000010: 05c7 42bd 72ba 46bd 26c0 9abc f594 2cbc
00000020: 76d5 29bd 2e29 1fbc 6f36 45bd c6a0 0bbd
00000030: 6cfa 94bc 98ef 37bd bfa3 6d3d 4152 96bc
00000040: aeb5 0cbd 59a6 0cbc 170b eb3c 877c 27bd
00000050: 857b 5abc fbd6 903c c598 2cbd 8e0d 773c
00000060: 4f16 62bd c971 50bd 0290 283d f3cd a7bc
00000070: 3be2 3cbd 17c0 25bc 1207 e4b9 55f6 f23c
00000080: f79f 183d 3941 fbbc 35cb 95bc 84fd 35bd
00000090: 192f 7fbc 8adc 773c de58 89ba 7d49 b4bc
000000a0: 1d60 0ebd 9522 313d 3226 473d f020 52bd
000000b0: f78a 843c 52f6 1ebd b16f 8ebc 946b 4dbd
000000c0: 8b10 19bd f746 2cbd 716a f7bc 3c4b b3bc
000000d0: d41f 2e3d 058a 423d a7dd 3f3d 9790 503d
000000e0: 0ca7 56bd 7eb4 da3c 1d0f 1fbd 0de4 913c
000000f0: a4b5 12bc 58f7 fcbc 6fe7 69bc 0fdd 96bb
00000100: f4e8 c83c bb36 46bc 4d81 973c db31 f53c
00000110: ee43 1c3d 070c 79bc 3d19 e1bc 4f50 cfbc
00000120: 6c00 5b3d 5834 04bd d280 323c 6168 2d3d
00000130: 4ac0 30bd 4485 72bb 0e58 96bb 77cf 1c3d
00000140: a57d 7b3c 5ab2 98bc d468 8639 8454 093c
00000150: 2f6e ec3c b133 0e3d edb6 efbb 44fa ee3c
00000160: e10e a6bc 9a20 ecbc 6995 08bd 0839 93bc
00000170: 1acb d5bc fb5c 88bc 6b8c 5dbd 7150 9f3b
00000180: 015d 44bd ac35 4c3d aa59 dd3c a1a8 2abd
00000190: 8b39 373d 24d0 083d abb2 14bd f810 473c
000001a0: b289 b3bc c833 2fbd 9e46 04ba cfff e1bb
000001b0: 983a f5bc dd5d c6bc 1c39 033d 80fe 31bd
000001c0: 1d8d 4cbd 6b20 1f3b 7765 4bbd eaed 373d
000001d0: e56a 2bbd 48ae 19b9 3d7f 943b 6fed 55bd
000001e0: 31e0 e13c 3542 433d 6324 453c 82e5 c2bc
000001f0: 4b3f 663c e4bc 1d3d b6d4 0dbd 5650 6ebd
00000200: 3e29 dd3c 7fd4 d03b 0bed 22bd 4c6e 543d
00000210: 9e2e f33c 9e2e c4bc 786c 153d 94a2 e4bc
00000220: 4bbc 23bc e521 793b 7e41 b23b 60d6 2cbc
00000230: 8346 7b3c 06e5 b83c 49a5 fc3c f73a 5d3d
00000240: 8ca6 e93c c361 8fbb ce7a d4bc c71f 4cbd
00000250: 49c2 52bd e8ab 2d3d ba1a 53bd 38a5 0c3d
00000260: b72d c7bc 7272 1bbd 3a3e abbc 6a54 6fbc
00000270: 086b 45bd a3fe a7bc 7ac7 87bb 3e5a 463d
00000280: a73f a0bb ceef 7cbc 339f b7bc 6770 e0bc
00000290: 09da ddbc fbb3 ba3c b9da 243c 6702 c1bb
000002a0: 3b8c 713d 6838 9f3c 0b71 143d d0fb af3c
000002b0: 21f8 c2bc 0032 5f3b 5fdf e3bc f5e3 2fbd
000002c0: 68b3 2b3d 80ea ef39 6719 293d 7f28 3a3d
000002d0: 4a47 4a3d bc91 0dbd 8467 2337 6d93 4c3d
000002e0: 21ab 473d ef8a d63c 868d 493d 0cef 6abc
000002f0: 4a1f f73c 5e51 6a3b 23fb 133d 58f2 fcbc
00000300: 741c 3d3b 4d4d 653c cada 113a 21f0 3dbd
00000310: 0601 143d 1b39 84bc 17f7 933b 9d9d 503d
00000320: 9a5a 64bc 0483 34bc 7610 113d 7984 1f3d
00000330: f63d 403d fbb6 6abd d00b 9ebc 16a9 2f3d
00000340: e67b 203d dfc2 c83b a634 00bd 8fe0 0dbd
00000350: 26f8 b3bc 3633 593c 54a4 2ebd 5298 983c
00000360: a4d6 db3b 3904 3ebc c4b5 273d dc7e d03a
00000370: b3aa 4abd ebe0 91bc 499b 5c3d f7d5 1d3d
00000380: 7ecd 413c e673 e93c dedc 553d 0f3b 4a3d
00000390: 43b0 68bc 57dc 90bc 5b77 2d3d c4df 5b3d
000003a0: bf07 6bbd b4b8 61bc 523e dd3c af8e 533c
000003b0: ad91 b6bc e742 a3bc 3c13 9b3c e00a ee3c
000003c0: 2e72 163d 39ac a1bb ccde 40bd 2868 383d
000003d0: baa4 aa3c f1c1 323d 38ef 68bc c2b9 07bd
000003e0: 8e70 cb3c f6b8 10bd eaa1 273d ac8a ff3c
000003f0: c6af d13c d6c7 96bb 86e3 463d 5d4c 233d
-0.01009041 -0.05182654 0.034184787 -0.031832688 -0.04755308 -0.04851765 -0.018890452 -0.010533561
-0.041463338 -0.009714408 -0.048147615 -0.034088872 -0.018185817 -0.04490623 0.05801749 -0.018349769
-0.03435295 -0.008584582 0.028691811 -0.040890243 -0.013335113 0.017680636 -0.04213788 0.015078915
-0.055197056 -0.050889764 0.04115296 -0.020483946 -0.046114188 -0.010116599 -0.00043492817 0.029658476
0.03726193 -0.030670749 -0.018285373 -0.044431224 -0.015575194 0.015128264 -0.0010478755 -0.022007698
-0.03475963 0.04324587 0.04862041 -0.051300943 0.016179545 -0.038809128 -0.017387243 -0.050151423
-0.037369292 -0.042059865 -0.030202122 -0.02188646 0.042510822 0.047494907 0.046842244 0.05091914
-0.052405402 0.026697394 -0.038832773 0.017808938 -0.008954439 -0.030879661 -0.0142763695 -0.004603989
0.024525143 -0.01209801 0.018494273 0.029931 0.03815072 -0.015200621 -0.027477855 -0.025306849
0.0534672 -0.03227648 0.010894971 0.04233587 -0.04315213 -0.0037005702 -0.0045881337 0.03828379
0.01534978 -0.018639732 0.00025636575 0.0083819665 0.028861133 0.034717266 -0.0073155076 0.02917207
-0.020270767 -0.02882414 -0.033345614 -0.01797153 -0.026097823 -0.016645899 -0.05408899 0.0048618843
-0.047940258 0.049855873 0.027020294 -0.041664723 0.04473261 0.033401623 -0.036303204 0.012150042
-0.021916244 -0.04277399 -0.0005045923 -0.00689695 -0.029935166 -0.02421468 0.032036886 -0.0434556
-0.049939264 0.0024280797 -0.04965731 0.044904627 -0.04184999 -0.00014656142 0.0045317695 -0.052228387
0.027572723 0.04767056 0.012032601 -0.023791078 0.014053176 0.03851022 -0.034626685 -0.058182083
0.026997205 0.0063729878 -0.039776843 0.051863 0.029685315 -0.02394801 0.036480397 -0.027909555
-0.009993623 0.0038014587 0.005439936 -0.010549158 0.0153366355 0.022570144 0.030840533 0.05401131
0.028521799 -0.004375668 -0.025937464 -0.049834993 -0.051454816 0.04240027 -0.05153916 0.034337252
-0.02431379 -0.03795094 -0.020903695 -0.014607528 -0.048197776 -0.020507162 -0.0041436525 0.048425905
-0.0048904005 -0.015438033 -0.02241478 -0.027397348 -0.027081506 0.0227909 0.010061913 -0.005890179
0.058971625 0.019436076 0.03624062 0.021482378 -0.023799958 0.0034056902 -0.027816473 -0.042942006
0.041919142 0.00045760348 0.04128399 0.045448776 0.049384393 -0.03456281 9.739659e-06 0.049945284
0.048747186 0.026189296 0.049207233 -0.01433922 0.030166287 0.0035754065 0.036128175 -0.030877277
0.002885607 0.013995481 0.0005563913 -0.046371583 0.03613379 -0.016140511 0.0045155394 0.05093156
-0.013937617 -0.011017565 0.03541609 0.038944695 0.04693409 -0.05730341 -0.019292742 0.042885862
0.03918066 0.006126746 -0.03130021 -0.034637984 -0.021968912 0.013256839 -0.042637184 0.01862732
0.0067089368 -0.011597686 0.04094483 0.0015906948 -0.049479198 -0.017807445 0.05385903 0.03853413
0.011828778 0.028497647 0.05221259 0.04937273 -0.01420218 -0.017683191 0.042350154 0.053680196
-0.057380434 -0.013776947 0.027007256 0.012912436 -0.02228626 -0.019929362 0.01893007 0.02905792
0.036729984 -0.0049338606 -0.047087476 0.045021206 0.0208305 0.04364199 -0.01421719 -0.033136137
0.024833944 -0.035332642 0.040925898 0.031194054 0.02559651 -0.004601459 0.048556827 0.039867748

model.0.bias f4 [60]
00000000: bc61 483d 680f ed3c eb09 1a3d 092a dbbc
00000010: 1384 e9bc afa6 b43c 9652 353d 596e f33c
00000020: 0139 7bbc f4ae 09bc 8c9d 403b 7056 e23c
00000030: e91e 96bc a93e d23c 03d9 1a3d eef7 503d
00000040: 94f7 213d 5c3b 5cbd 15a1 9cbc c824 7f3c
00000050: 5a25 8ebc c6d6 b33c ed9b 313d 8b96 153c
00000060: 5675 2fbd ea1a 3bbd a364 89bc 039c db3c
00000070: 54d3 193d 433d c63c 2e84 3cbc 19fb 1bbc
00000080: 0904 04bd 9e93 8ebb 34ca f1bc 87bf aebb
00000090: 939f 1abd 7bc8 38bd e054 cf3c f722 3a3d
000000a0: 41a0 103c 6b4a 4a3d 54b8 463c 0e15 0d3d
000000b0: 708f 0d3d ac1c c43c c9ae f2bc be95 233d
000000c0: bc66 533d afb7 cb3c 89b6 723c f050 61bd
000000d0: 15a5 953c 3203 06bd 7d12 c93b 65a0 5b3d
000000e0: 58a0 d83c 23ad 34bd e85b 7b3b ef22 343c
0.04892133 0.02893801 0.037607115 -0.026753442 -0.02850536 0.022052137 0.044268213 0.029715704
-0.015333415 -0.0084035285 0.002939078 0.027629107 -0.018325286 0.025664644 0.037804615 0.051017694
0.03954275 -0.053767547 -0.019119779 0.015572734 -0.017351795 0.021952998 0.043361593 0.0091301305
-0.04283651 -0.045679964 -0.01677162 0.02680779 0.037555054 0.024199134 -0.0115061235 -0.009520316
-0.03223041 -0.0043510934 -0.029515363 -0.0053328904 -0.037749838 -0.045113068 0.025309026 0.0454435
0.00882727 0.049387377 0.012128908 0.034443907 0.03456062 0.023939453 -0.02962436 0.039937727
0.051611647 0.02486786 0.014814028 -0.05500883 0.018267194 -0.03271789 0.006136237 0.05361976
0.026443645 -0.04411043 0.003835434 0.010994657

model.3.weight f4 [1, 60]
00000000: 40eb c13d 1282 0bbe fbc9 a03b 863e d5bd
00000010: 8646 8fbd ad5e 5dba 72fc debd 9f0b 423d
00000020: dcc1 37bd 874a a6ba 4a0c fe3d 9d0f f43d
00000030: 1378 a43c 2b5c c43d 4668 f3bd 70f8 93bc
00000040: e401 24bd 3a79 d4bd 061a 22bd 5033 223d
00000050: 5889 dd3d de12 44bd e0bf a2bd aa80 dcbc
00000060: 1274 673d 0384 66bd 1ea4 5bbd b5f8 cb3d
00000070: 904f 84bd 2915 fd3d a963 123d 6690 1bbd
00000080: 4207 633d db55 d8bb ded8 953c 47db ae3c
00000090: 4b09 923c 9cff 7439 2593 bb3d aed8 af3d
000000a0: 4a8d ba3d 6378 e43b 5647 eebc c178 a03d
000000b0: 18a3 c7bd 834e 023e dcdc ed3d 0c6c bebd
000000c0: 0024 9a3d 0e74 80bd 30b6 fb3d f5c5 e73d
000000d0: dd0d 47bb dbfa a8bd cfc7 453d b5e7 cc3c
000000e0: cdbe 6c3d f6f5 833d 3eea 923c d2f1 e3bd
0.094686985 -0.13623837 0.0049068904 -0.10412316 -0.06995873 -0.0008444589 -0.10887994 0.047374364
-0.044862613 -0.0012687006 0.12404688 0.119170405 0.020076787 0.09587892 -0.11885123 -0.0180628
-0.040040866 -0.10374685 -0.0395756 0.039599717 0.10817212 -0.047869556 -0.079467535 -0.02691682
0.056507178 -0.05627824 -0.05362331 0.099595465 -0.06460488 0.123575516 0.035739575 -0.037979506
0.055426843 -0.0066020316 0.018291887 0.021344794 0.017826697 0.00023364875 0.09158925 0.0858625
0.0910898 0.006972359 -0.02908675 0.07835532 -0.097479045 0.12725262 0.11614391 -0.09297952
0.07526398 -0.06272136 0.12290609 0.11317054 -0.0030373253 -0.08250972 0.048286255 0.02501283
0.05779915 0.06443398 0.017933961 -0.11130108
