model_save2/v2-60-1e-05-230.pth (torch, 79440 bytes, 3 tensors)

model.0.weight f4 [60, 320]
0	0x3c420380	0.011841655
1	0xbd14b32f	-0.036303695
2	0xbd5bc1ff	-0.053651806
3	0x3be7e97c	0.007077394
4	0x3d32945e	0.043598525
5	0x3c9087f6	0.017642956
6	0xbcc518b2	-0.024059627
7	0xbd1811df	-0.03712642
8	0x3ca4e7b8	0.020130023
9	0x3cfab602	0.030604366
10	0xbc9b5129	-0.018959599
11	0xbd49df8f	-0.049285468
12	0xbda01e4b	-0.07818278
13	0xbd18048f	-0.037113722
14	0x3c152ec2	0.009105386
15	0x3ca05b46	0.019574773
16	0x397232f2	0.00023097897
17	0xbd0758af	-0.03304356
18	0xbc15809b	-0.0091249
19	0x3cf54550	0.029940277
20	0x3cccd929	0.025005894
21	0xbd0d8311	-0.034548823
22	0xbbd0135c	-0.006349964
23	0x3d41f17c	0.047349438
24	0xbd2a4452	-0.04156906
25	0xbdb6ffcc	-0.08935508
26	0xbd22a5e7	-0.039708998
27	0xbd671f99	-0.05642662
28	0xbc7072c4	-0.0146758
29	0x3c8e5d42	0.017378453
30	0x3ccc4b9d	0.024938399
31	0x3ccd8036	0.02508555
32	0xbd6e46f9	-0.058173154
33	0xbd1d1863	-0.038353335
34	0xbda9d1dc	-0.082919806
35	0xbd62a2b0	-0.055330932
36	0x3d284fb1	0.041091625
37	0x3cdc1038	0.026863202
38	0xbdb09811	-0.08622754
39	0xbd4462e8	-0.047945887
40	0x3d636acb	0.055521768
41	0xbd376e87	-0.04478314
42	0x3d29c703	0.041449558
43	0xbd8a7b84	-0.0676184
44	0x3cfb5f1d	0.030685002
45	0x3d88f34a	0.06687029
46	0x3ba91ed5	0.005161146
47	0xbd1df61e	-0.038564794
48	0x3dc383c9	0.095466204
49	0x3cc3dfb3	0.023910379
50	0x3ccecfce	0.025245573
51	0x3cbcc73f	0.023044227
52	0xbc6d4ec2	-0.014484109
53	0xbc0b67f1	-0.008508668
54	0xbd775347	-0.060382154
55	0x3bef8e84	0.0073106904
56	0xbd43d293	-0.04780824
57	0xbd5b3f94	-0.05352743
58	0xbd63e9e0	-0.055642962
59	0x3cd410e3	0.025886958
60	0x3ba64115	0.0050736764
61	0x3d4ca2db	0.04996
62	0x3d3a7910	0.04552561
63	0xbd05ab5e	-0.03263413
64	0xbd2b074e	-0.041755013
65	0x3cb14481	0.02163911
66	0xbd908da5	-0.070582666
67	0xbb665b9c	-0.0035149818
68	0x3c8e1a28	0.017346457
69	0xbdcd1722	-0.10014178
70	0xbd5cf7e7	-0.053947356
71	0x3d292372	0.04129357
72	0x3d0794fe	0.033101074
73	0xbd456ec1	-0.048201326
74	0x3e10527e	0.14093968
75	0xbd1d1d98	-0.0383583
76	0xbd94b3fe	-0.07260893
77	0x3db034e2	0.086038366
78	0xbd9c3074	-0.07626429
79	0x3bbd5178	0.005777534
80	0xbca59ce4	-0.020216413
81	0x3c853cf0	0.016264409
82	0x3d6d0434	0.057865337
83	0x3b834850	0.004006423
84	0x3d36fe31	0.04467601
85	0x3d3e22ec	0.046420023
86	0xbb360feb	-0.0027780484
87	0x3d1fa884	0.03897907
88	0xbd71c9e0	-0.059030414
89	0xbd3e4b1f	-0.04645836
90	0xbcdb990f	-0.026806382
91	0xbd1ff4e8	-0.03905192
92	0xbd4cd535	-0.050008018
93	0xbcb195d2	-0.021677885
94	0xbbe388db	-0.0069438047
95	0x3d6a4d6c	0.05720274
96	0xbd2fe7d5	-0.0429457
97	0xbd39396e	-0.045220785
98	0x3cc0e4f4	0.023546673
99	0x3c447050	0.011989668
100	0xbc4eb819	-0.0126171345
101	0xbd516ea3	-0.051130902
102	0xbd4872ac	-0.048937485
103	0x3cad7eb7	0.021178586
104	0x3d1dc18e	0.038514666
105	0x3d3aaced	0.04557507
106	0xbd4b5125	-0.049637932
107	0xbdd1ad7a	-0.10238166
108	0x3cfe43ea	0.031038243
109	0xbd088e20	-0.033338666
110	0xbd3cebe6	-0.046123408
111	0x3cb28033	0.021789646
112	0xbd3ee57d	-0.046605576
113	0xbd26cb03	-0.04072095
114	0x3cad6018	0.021163985
115	0xbc5c598a	-0.013449082
116	0x3d18cc20	0.037304044
117	0x3cc1d0d7	0.023659153
118	0x3c87c1d7	0.016571922
119	0xbd21201d	-0.039337266
120	0xbd6b52bc	-0.05745195
121	0xbd4f54e8	-0.050618082
122	0x3b4b4d29	0.0031021333
123	0xbcf42dae	-0.029806938
124	0x3bf09b08	0.0073427
125	0x3c9ff25a	0.019524742
126	0xbd38d403	-0.045124065
127	0xbd3a2266	-0.04544296
128	0xbbb1c64a	-0.005425249
129	0xbca08beb	-0.019597968
130	0xbc0f9a67	-0.00876484
131	0x3d005c36	0.03133794
132	0x3d3b6876	0.04575392
133	0x3cc79a9f	0.024365721
134	0xbc84acc8	-0.01619567
135	0x3d8d5717	0.06901377
136	0xbd37cf3e	-0.044875376
137	0xbcbb782e	-0.022884455
138	0x3d15b135	0.03654595
139	0xbce7a288	-0.028275743
140	0xbd315060	-0.043289542
141	0x3cec2f65	0.028831193
142	0xbc8be273	-0.017075753
143	0xbd52207f	-0.051300522
144	0x3d1bd8f2	0.038048692
145	0xbd5538a0	-0.052055955
146	0xbd204db2	-0.039136596
147	0x3c989aad	0.018628443
148	0x3caf8ce8	0.021429494
149	0x3d342562	0.043980964
150	0x3a947387	0.0011325934
151	0x3bd7c7e6	0.006585109
152	0x3c5bc043	0.013412538
153	0x3d3c2543	0.045933973
154	0xbc39e21a	-0.011345411
155	0xbd187056	-0.037216507
156	0xbd27f475	-0.041004617
157	0x3d04e1c3	0.032441866
158	0xbb27c7eb	-0.0025601338
159	0xbc8e39e9	-0.017361598
160	0x3d63d2d0	0.05562097
161	0x3cf2b040	0.029625058
162	0x3b400c87	0.0029304342
163	0xbd46e524	-0.04855837
164	0xbd023d22	-0.031796582
165	0xbccdd30f	-0.025125055
166	0x3c28e011	0.010307328
167	0xbc7171b4	-0.014736582
168	0x3d735734	0.059409335
169	0xbbe25d02	-0.00690806
170	0x3daaa380	0.083319664
171	0xbcd96559	-0.026537584
172	0x3ce7683c	0.028247945
173	0xbca945c7	-0.020663155
174	0xbc784a2e	-0.015154405
175	0xbd311971	-0.043237153
176	0x3c3e3007	0.01160813
177	0xbd1d6a7c	-0.03843163
178	0xbda0c67e	-0.078503594
179	0xbd023717	-0.03179082
180	0xbd83f21f	-0.06442665
181	0xbcd85655	-0.026408354
182	0x3d1a36bc	0.037649855
183	0xbc703f57	-0.014663539
184	0x3d73f1fc	0.059556946
185	0x3cfcdd84	0.030867346
186	0xbd751eda	-0.059843875
187	0x3d27736a	0.04088155
188	0x3c3be3c3	0.011467877
189	0xbc4ca377	-0.012490145
190	0xbc1a44ee	-0.009415848
191	0x3c1a7967	0.009428359
192	0x3aa87a32	0.00128538
193	0x3d2ea32d	0.042636085
194	0x3c8d1c62	0.017225448
195	0xbcc61d21	-0.024183812
196	0xbc607865	-0.013700579
197	0xbcf06488	-0.029344812
198	0xbcea2361	-0.028581323
199	0x3cbea6ee	0.023272958
200	0x3dc623cb	0.09674796
201	0xbd776ee0	-0.060408473
202	0x3cae38b8	0.02126728
203	0xbcaa132b	-0.020761093
204	0xbc9a7427	-0.018854214
205	0xbd21af56	-0.039473854
206	0xbaa5c059	-0.0012645825
207	0xbd63a960	-0.05558145
208	0x3d0fd443	0.035114538
209	0xbe185c0e	-0.14878866
210	0x3cc867ba	0.024463523
211	0x3d2af374	0.04173608
212	0x3cfbde6d	0.03074571
213	0xbc123d22	-0.008925708
214	0x3cfaaffd	0.030601496
215	0x3cf43242	0.029809121
216	0xbc36cfc2	-0.011157932
217	0x3d1f0a66	0.038828276
218	0x3b893416	0.0041871173
219	0x3d3fb98c	0.04680781
220	0x3cea69dc	0.02861493
221	0xbd5cb8e0	-0.053887248
222	0x3d233009	0.03984073
223	0xbc2e1edf	-0.010627477
224	0xbcb66322	-0.022264067
225	0x3c2a0325	0.010376726
226	0xbd5fe03d	-0.05465721
227	0xbcfb15cd	-0.030650044
228	0xbc90f369	-0.017694192
229	0xbd3beccd	-0.045880128
230	0x3baa9784	0.0052060504
231	0x3c873bf2	0.016508076
232	0xbd1ab5d6	-0.03777107
233	0x3d1c57ec	0.038169786
234	0x3d135b2b	0.035975616
235	0xbbf3737b	-0.007429538
236	0xbbdf3c78	-0.0068126284
237	0xbcaf91bb	-0.021431794
238	0xbd95b22c	-0.07309374
239	0x3cac2f2d	0.021018589
240	0x3d54088a	0.051765956
241	0x3c4285b8	0.011872701
242	0x3cbcd76c	0.02305194
243	0x3d06e548	0.032933503
244	0xbce2fa71	-0.02770731
245	0xbd88b19b	-0.066745006
246	0x3b2c0172	0.0026245979
247	0x3d580c80	0.052746296
248	0xbc5bd322	-0.013417037
249	0xbba04ef2	-0.0048922235
250	0xbc8fd5ec	-0.01755806
251	0xbced18ae	-0.028942432
252	0xbd4d5d46	-0.05013778
253	0x3d7c6106	0.061615966
254	0x3d81f34a	0.06345232
255	0xbb266e94	-0.00253955

model.0.bias f4 [60]
0	0x3d0811a8	0.033219963
1	0x3d0403c0	0.03223014
2	0x3c8bcc40	0.017065167
3	0xbc8460fe	-0.01615953
4	0x3cf14313	0.029450929
5	0x3d4ebe3c	0.05047439
6	0xbc300f79	-0.0107458765
7	0x3cc5f9e8	0.024167016
8	0xbcb73d93	-0.022368228
9	0xbd6865a3	-0.056737553
10	0xbc288aea	-0.010287026
11	0x3d01d073	0.031692933
12	0xbc772482	-0.015084388
13	0xbcc91f21	-0.024550976
14	0xbc77b18b	-0.015118013
15	0x3c4eba45	0.012617652
16	0xbd15ce4f	-0.036573704
17	0x3d0b638f	0.034030493
18	0x3c8f250f	0.017473726
19	0x3cc8c84f	0.024509577
20	0xbb913831	-0.0044317474
21	0xbce63f4c	-0.028106354
22	0xbd56d065	-0.052444834
23	0xbcfe04ec	-0.031008206
24	0xbc28b3a5	-0.010296737
25	0x3af9dc4a	0.0019062844
26	0x3d4fb00f	0.050705012
27	0x3cf4350c	0.029810451
28	0xbceffddd	-0.029295856
29	0xbd274d64	-0.04084529
30	0x3c87fe8f	0.016600875
31	0x3cc2b40a	0.02376749
32	0xbc49c7c7	-0.012315697
33	0x3d2d5f3b	0.042327147
34	0x3c952bf2	0.018209431
35	0x3ca78539	0.020449268
36	0xba1c5eab	-0.00059650344
37	0x3bd2f675	0.0064380714
38	0xbbfb14ec	-0.007662406
39	0xbbba3891	-0.005683013
40	0xbd5db228	-0.05412498
41	0xbd39f7fc	-0.045402512
42	0xbd5546e5	-0.052069563
43	0xbd4d1471	-0.050068323
44	0x3cffd847	0.031231059
45	0xbd4fb552	-0.05071003
46	0xbc9f953e	-0.019480344
47	0xbd587353	-0.052844357
48	0xba957b9f	-0.001140464
49	0xbc9d6a57	-0.019215746
50	0x3d2c1ac6	0.04201772
51	0xbca33568	-0.019922927
52	0xbcfd0d85	-0.030890236
53	0x3ce93d8e	0.028471734
54	0x3d256111	0.040375773
55	0xbbb0faee	-0.005401007
56	0xbcf93267	-0.030419542
57	0xbc8961a2	-0.016770188
58	0x3d0de2c4	0.03464009
59	0x3b188e8f	0.002327833

model.3.weight f4 [1, 60]
0	0x3e851f4f	0.2600045
1	0xbd66df04	-0.056365028
2	0xbf2a0dae	-0.66427124
3	0xbf8f0131	-1.1172239
4	0x3d6afd11	0.05737025
5	0xbdca6580	-0.09882641
6	0x3dc2b13b	0.0950646
7	0x3e8f250a	0.27957946
8	0xbd7ed098	-0.06221065
9	0xbded5776	-0.115889475
10	0xbdba57ff	-0.09098815
11	0x3eb05e6c	0.34447038
12	0xbc92b2a4	-0.017907448
13	0x3ddf6dfc	0.1090965
14	0x3dbc3b13	0.09190955
15	0xbd760114	-0.060059622
16	0xbf44f788	-0.769402
17	0xbf6ccd21	-0.925005
18	0xbd3327fb	-0.0437393
19	0x3ea57a9e	0.32320112
20	0x3e8b441d	0.27200404
21	0xbf543795	-0.8289731
22	0x3e788649	0.24269976
23	0xbf01a1e6	-0.5063766
24	0x3d60f45c	0.05492054
25	0x3dc74823	0.09730556
26	0xbdde7ede	-0.10864042
27	0x3dcdff11	0.10058416
28	0xbf33d67b	-0.70249146
29	0xbf046aec	-0.5172565
30	0x3d6cd983	0.057824623
31	0xbf626cdd	-0.8844736
32	0x3ef969c2	0.487135
33	0xbf4a8b94	-0.7911923
34	0xbd86867b	-0.06568619
35	0xbe733d99	-0.23753966
36	0xbf459aaa	-0.77189124
37	0x3eca72e3	0.39540777
38	0xbf9097c8	-1.129632
39	0x3e9dc3ae	0.30813354
40	0x3d6563d6	0.056003414
41	0x3e13ac7f	0.14421271
42	0xbf7228ea	-0.9459368
43	0xbf0ab37a	-0.5418011
44	0xbec66f99	-0.38757017
45	0xbdf4b8af	-0.11949288
46	0x3e3af17d	0.18256183
47	0x3eca954e	0.39567035
48	0x3cdef5ee	0.027216878
49	0xbf636e34	-0.8884003
50	0xbeda5871	-0.426456
51	0x3df69f53	0.120421074
52	0xbf0bf081	-0.54663855
53	0x3dc6c499	0.09705467
54	0xbf6f0ada	-0.93375933
55	0x3d435e94	0.04769762
56	0x3ec75fc7	0.3894026
57	0x3d8e08ea	0.06935294
58	0x3f06a515	0.52595645
59	0xbf1ae67d	-0.6050795
