model_save2/v2-60-0.0001-100.pth (torch, 79448 bytes, 3 tensors)

model.0.weight f4 [60, 320]
000000 6d 61 07 be 13 de 21 bd 5d 04 bc bd 99 f6 23 3d
       -0.13220759 -0.039518427 -0.0918052 0.040030096
000010 64 54 73 bc 67 78 da bd af d4 4e bd 08 97 9e bd
       -0.014851663 -0.10667496 -0.0504958 -0.07743651
000020 82 33 9b bd 04 d4 92 3d 39 0f 09 3e 89 35 e2 3a
       -0.07578184 0.07169345 0.13384713 0.0017258386
000030 5b d3 e1 bd 25 64 bb bd 65 04 e5 3c 18 d6 61 3d
       -0.11026641 -0.091499604 0.027956197 0.055135816
000040 80 68 1b 3d fa 9e 85 3d 08 5d a9 bd 18 66 7d 3d
       0.037941456 0.06524463 -0.082696974 0.061864942
000050 81 5a 8d 3d 3c 95 35 be 11 9d 8f 3d 42 12 2a bd
       0.06902028 -0.1773271 0.0701238 -0.04152132
000060 8b 9c e9 3b 53 3b 04 be f7 f7 db 3c 68 3c 5c 3d
       0.007129257 -0.12913255 0.026851637 0.053768545
000070 d7 9c dc bd de 14 85 3d 8d be 3e 3b 9a 7e a2 3d
       -0.10772102 0.06498121 0.0029105276 0.079343036
000080 10 7f 1b 3d 55 78 db bb 8f 6f 02 be 12 32 ef 3c
       0.037962973 -0.0066976943 -0.12737869 0.02919868
000090 52 ac 3e bd f8 2a 4c 3e 27 9a 47 3c 89 65 81 bc
       -0.046551056 0.19938266 0.012182749 -0.015795486
0000a0 a8 f5 46 3d 21 d0 3d 3d 0a 6b a3 3c 4e ae 58 bc
       0.04857412 0.046341065 0.019948501 -0.013225151
0000b0 76 7b b0 3d 3c 92 99 3c e3 b0 bc 3c c6 7e d5 3c
       0.08617298 0.018746488 0.023033565 0.026061427
0000c0 66 71 06 3e 26 08 94 3c 30 5f 2d 3e 88 1e 6e 3b
       0.13129196 0.018070292 0.16930842 0.0036334116
0000d0 4a f7 01 be 50 53 1a be 98 52 13 3e 50 0f 89 3d
       -0.1269199 -0.15070844 0.14386976 0.06692374
0000e0 4d 86 fa 3c af c1 07 be 41 01 4c 3c 2b 0a 6b bc
       0.030581618 -0.13257478 0.012451471 -0.014345686
0000f0 3e 38 8d 3e 85 b3 d8 3c 41 48 80 3c 9c 85 7f bc
       0.27581972 0.02645279 0.015659453 -0.01559582
000100 38 90 c4 3c dc 7d 2d bd a3 bd 0f bd 63 b3 aa 3d
       0.02399455 -0.042356357 -0.03509296 0.083349966
000110 45 61 79 3d fe 48 da be 91 80 f4 bb 52 cf 68 3c
       0.06088378 -0.42633814 -0.0074616154 0.014209585
000120 57 40 d0 3e 33 5f 1d bd 78 cf 32 3e d9 02 d7 bd
       0.40674087 -0.038420867 0.17461956 -0.1049859
000130 4b e3 b3 bd 4c aa c5 3d d8 f7 b2 bd c5 c9 9f 3c
       -0.08783587 0.09651622 -0.08738679 0.01950539
000140 4c 49 8a bc 09 f0 62 3d 4d 29 5f bb 53 12 df bd
       -0.016880654 0.055404697 -0.0034051717 -0.10892167
000150 14 eb 2a 3e 7a 3a 5e bc 16 63 91 3c 5c bc f4 3c
       0.16691238 -0.013563747 0.017747443 0.029874973
000160 1b 12 9f 3d 9b 52 1c 3d 22 69 d1 bc d4 04 0a bd
       0.07767125 0.038164716 -0.025562827 -0.03369601
000170 1c b6 e6 3c 01 52 90 bd cb 2a f2 39 9d 9f 4b 3c
       0.028163008 -0.07046891 0.0004618972 0.0124281915
000180 e4 49 7d bc 91 c4 bd bb 26 07 85 bd dd 54 4e 3d
       -0.015459511 -0.005791255 -0.06495504 0.0503739
000190 74 ac f5 bc 27 d1 ab 3c 92 47 ee 3c 88 db c9 3d
       -0.029989459 0.020973755 0.029086862 0.098563254
0001a0 d3 55 13 3d 24 b0 02 3d 40 0c 03 be f6 e4 c2 bd
       0.03597052 0.031906262 -0.12797642 -0.09516327
0001b0 4d cd bc bd 01 e6 5d 3e a7 cd 8b be f0 2d 53 bd
       -0.092188455 0.21669771 -0.27305338 -0.05155748
0001c0 5c 2e 3e be c4 be c5 3c 02 d0 d2 bd 4e b2 68 be
       -0.18572372 0.024138816 -0.102935806 -0.22724268
0001d0 7d 91 a9 3d 99 37 85 3d 14 99 df bd 70 80 b3 3c
       0.08279703 0.06504745 -0.10917869 0.02191183
0001e0 b1 5c 11 3e 9d 20 65 3d bd b6 ef bb 45 e7 6c 3c
       0.14195515 0.055939306 -0.0073154853 0.014459436
0001f0 8c 6e 2b ba 26 6d 84 bd e7 12 86 bc c4 9c 0e be
       -0.0006539605 -0.06466131 -0.016366435 -0.13926989
000200 e3 c8 88 bc b5 b4 0e 3e 2f 21 ae 3c 12 e0 6b 3e
       -0.016697353 0.13936122 0.021256058 0.23034695
000210 b4 de f2 bd 29 55 0d be fb 87 37 3c f6 21 66 bc
       -0.118588835 -0.13802017 0.011201854 -0.014046183
000220 10 a9 91 bd 1b ed ae 3b a2 a1 ef 3d aa c8 3c 3d
       -0.07112324 0.005338324 0.11700751 0.046089806
000230 0b 29 36 be 50 32 9b bc 86 88 63 be b0 4b d0 3d
       -0.17789094 -0.01894489 -0.22220048 0.10170686
000240 ef 6e d3 bd f6 97 62 be f0 8a 9c bd be 9f a1 3c
       -0.10323893 -0.22128281 -0.07643688 0.019729491
000250 81 5a be 3d d6 38 bf bd e9 26 3e 3d 7b 45 36 3e
       0.09294606 -0.093370125 0.046423826 0.17799942
000260 66 e8 1d 3b 4b 47 e3 3d 0a 99 1c bd b8 c9 de 3c
       0.002409482 0.110975824 -0.038231887 0.027195796
000270 87 bf ef bd 56 a0 80 3d b8 fa 91 3d 7b 24 54 bd
       -0.11706453 0.06280582 0.07127899 -0.051792603
000280 8f 07 7b 3d f6 a9 de 3d b9 83 3b 3d 28 03 75 3d
       0.061286505 0.10872261 0.045779917 0.059817463
000290 b7 f3 6d be 2d 3b f5 3d 41 13 d7 3c eb 60 a0 bc
       -0.23237501 0.119741775 0.026254298 -0.019577464
0002a0 7a c9 2b 3e 93 49 34 3b 60 f7 b7 3e e3 5e 6c bc
       0.16776076 0.0027509674 0.3593092 -0.01442692
0002b0 28 f5 fa 3c 7d 33 ef 3c 0f bb f2 bd 69 5c 17 be
       0.030634478 0.029199356 -0.11852085 -0.14781345
0002c0 d6 f1 45 3d 5d 99 28 bd 3f 6b 61 bd 0f 2f fd 3c
       0.048326336 -0.041161884 -0.05503392 0.030906228
0002d0 a8 81 5a be ad 51 20 3e a0 08 6e bd 77 be 79 bc
       -0.21338522 0.15656157 -0.058113694 -0.015243164
0002e0 ef c5 72 3c 29 00 2b bd 27 ba 5c bc e4 38 06 3d
       0.014817699 -0.0417482 -0.013472117 0.0327691
0002f0 ce eb c7 be 55 bd a9 bb f5 f5 df bd d4 d6 b4 bb
       -0.39047092 -0.005180041 -0.109355845 -0.0055187736
000300 64 c6 3e 3b 88 86 c0 3d 10 6e 0f 3e 58 68 37 be
       0.002910995 0.0940066 0.1400683 -0.17910898
000310 d5 b8 4a 3e 12 34 59 bd ea c2 19 3d fa 81 bd bb
       0.1979707 -0.053028174 0.0375394 -0.0057833167
000320 1a d1 4d 3e 97 db 2f bd 85 dc 01 bd 0f 00 19 bb
       0.20099297 -0.042934027 -0.031704444 -0.0023345982
000330 ef 57 3d be 21 0e b5 bd 6a 38 ad bd 61 a5 65 bd
       -0.18490575 -0.088405855 -0.08458026 -0.05606592
000340 57 c1 23 3c b6 34 f2 be 9a a1 f9 3d ab 8c d1 3c
       0.009994826 -0.4730584 0.12189026 0.025579771
000350 f5 e4 0a 3d 00 00 0c bc e0 a8 27 3e 22 6a a2 bc
       0.033909757 -0.008544922 0.16373014 -0.019825999
000360 c2 d9 2f 3e 15 4e 4b be b6 91 cb 3c 1f 9f 04 3e
       0.17172912 -0.19854005 0.024849754 0.12951325
000370 62 46 0e bc 6a ca 7e 3d 96 f8 14 bd 2f 2f b1 bd
       -0.008683773 0.062204756 -0.036369883 -0.08651578
000380 2e 91 94 bd dd 5c 81 be 32 89 4d bd b5 75 a3 3c
       -0.07254253 -0.25266162 -0.050179668 0.019953588
000390 91 a4 c4 bd 1b cb 3a bd b3 08 85 3b e9 14 c8 bd
       -0.09601701 -0.045603853 0.004059875 -0.09769613
0003a0 27 6b 01 be da e1 cf 3d 03 bf 3f 3e 9a 1e 3a bd
       -0.12638532 0.101505 0.18725209 -0.04543934
0003b0 52 1b 52 be 1d 5a bc bc b4 d1 e2 bd 11 ab b9 bd
       -0.20518234 -0.022992188 -0.11075154 -0.090658315
0003c0 58 8a 59 bd 75 3e 17 bd 4d 80 a2 bd d8 74 89 bc
       -0.05311045 -0.036924798 -0.07934628 -0.016779348
0003d0 7d 1a bc be 11 5a 6f be 8a 60 6a bd 1c 46 8e 3d
       -0.3673896 -0.23374201 -0.057220973 0.06946966
0003e0 06 99 73 bd b8 49 67 bd 4d 7d 00 bd 1d 1c cd bd
       -0.059472106 -0.056466788 -0.031369496 -0.10015128
0003f0 c6 0d bf 3d 9e 49 d3 3c 3c e1 fb bc 4a e8 04 bd
       0.09328799 0.02579194 -0.030747049 -0.03244809

model.0.bias f4 [60]
000000 a6 16 2e bd ed 69 15 3d 94 b6 75 bd 67 15 c3 bc
       -0.042502068 0.03647797 -0.059988573 -0.023813916
000010 29 61 26 bd e5 05 2d bc 11 c5 ae bc bf 74 e6 3c
       -0.040620003 -0.010560487 -0.021334203 0.02813184
000020 74 4e 20 bc 3d 97 56 bd 74 73 39 3d 96 1b 1d 3c
       -0.00978433 -0.052390326 0.04527612 0.0095890965
000030 4e 99 3c 3c 65 ee df 3c 35 9a 8a bc 70 2f 21 bc
       0.01151116 0.027335355 -0.016919235 -0.00983797
000040 20 1c 86 bb 3c 9e 4d 3d 94 43 86 3c 8f b7 bb 3b
       -0.004092708 0.050199732 0.016389646 0.005728669
000050 75 00 34 bd d9 e3 7d bd 4c 71 6b bc 57 03 a1 bc
       -0.04394575 -0.06198487 -0.014370274 -0.019654913
000060 ec c1 2f 3d 22 22 6f 3b a9 0c 97 bb 6d 2b 69 bd
       0.042909548 0.003648885 -0.0046096635 -0.05692618
000070 2e 24 0d 3d d9 9c be bc 5b 54 51 3d 12 46 04 3d
       0.03445833 -0.02326815 0.05110584 0.032293387
000080 f2 e2 18 bd 62 d6 dc bc 45 9a 51 bd 2d 17 45 3d
       -0.037325807 -0.026957694 -0.051172514 0.048117805
000090 96 88 7e bc bb 06 36 3d d0 69 0d 3c 03 e6 ec 3a
       -0.015535494 0.044440012 0.008631185 0.001807392
0000a0 27 73 be bc 5f 0a a7 3c d3 9d bf bc b9 a6 37 bd
       -0.023248268 0.020390688 -0.023390686 -0.044836733
0000b0 5a ac 05 bd e9 13 ac 3c 94 f3 7d 3c 0b 77 41 3d
       -0.03263507 0.021005588 0.015499968 0.04723267
0000c0 c9 3c 06 3d e5 d9 01 3d cc 68 41 3d 88 8d ae bc
       0.032772813 0.03170194 0.047219083 -0.021307722
0000d0 3b bd 42 bd c0 48 89 bc c7 45 50 bd 79 d9 ed 3a
       -0.047543745 -0.016758323 -0.050847795 0.0018146477
0000e0 d1 86 bb ba d4 07 a2 3c 35 72 58 b9 49 0e 1f bd
       -0.0014307146 0.019779123 -0.0002064191 -0.038831983

model.3.weight f4 [1, 60]
000000 bc 4b 59 3f c8 e0 ca 3e a9 74 d9 3c 61 36 c3 3d
       0.84881186 0.3962462 0.026544886 0.09531856
000010 f7 bc b2 3d 7d 76 0f 3d 55 ae 71 3f 75 c1 8c bf
       0.087274484 0.03502511 0.94406635 -1.0996538
000020 3e 8a e6 3d 65 72 9e 3c 42 8d 68 bd c1 19 de 3d
       0.11256836 0.019341657 -0.05677534 0.10844756
000030 c1 6d b9 bf 05 2a 52 3e a9 37 13 bd 11 59 d8 bd
       -1.4486619 0.20523842 -0.035941754 -0.10563863
000040 c3 ed d2 bd f9 37 8e bd 3b a7 6a 3d f1 1d 08 3d
       -0.10299256 -0.0694427 0.05728839 0.03323168
000050 4c 5e c7 3c c6 b3 8e 3f 57 bf 7d 3d 91 bf 48 bd
       0.024336956 1.1148612 0.061950054 -0.049010817
000060 c1 3c a4 bd 2f a0 c1 bf 2a 2b ae bd 76 ad 98 bd
       -0.080194004 -1.5127009 -0.08504327 -0.0745496
000070 c9 cc df 3d e0 30 ed bf d6 2e 5f 3c af 8d 45 3d
       0.109277315 -1.853054 0.013622006 0.048230823
000080 13 4b 77 3d 57 38 47 3f 77 fd f3 bd b8 e1 2e bf
       0.06037433 0.7782034 -0.11913579 -0.6831317
000090 03 06 e9 bd 02 c4 c0 3d 38 d9 18 3f f6 c4 91 bd
       -0.113781 0.094123855 0.5970645 -0.071176454
0000a0 9f 64 06 bc fa be 5a 3f ef 5b 8e 3d 4b 7b 50 3b
       -0.008202701 0.8544766 0.06951129 0.003181177
0000b0 47 9d aa 3d 9d 23 12 bd ad df b0 3d af 1e dc bd
       0.083307795 -0.035678495 0.08636413 -0.1074804
0000c0 f5 51 95 38 32 aa 58 3e a6 39 a2 3d cf 76 86 3a
       7.120139e-05 0.21158674 0.07921152 0.0010258796
0000d0 cd 25 b6 bf a7 fa 49 3f 0f c0 ba bd 60 e9 6d bc
       -1.4230286 0.7889809 -0.091186635 -0.014520973
0000e0 c8 6c 0b c0 00 4b a1 3d 41 fe 8f bc d6 a8 a4 3d
       -2.1785145 0.07875633 -0.017577292 0.080400154
