model_dsm11rmcov/v2-30-0.0001-1280.pth (torch, 40928 bytes, 3 tensors)

model.0.weight f4 [30, 320]
000000 f6 f0 16 3c 20 3b 57 3d 61 33 a4 bc 25 62 8e bc
       0.009212723 0.05254662 -0.02004403 -0.017380783
000010 6a f1 5c 3d 5f 2b 8d 3c d5 5a c3 bb 9f 0d f9 bb
       0.053941168 0.017232595 -0.0059617558 -0.0076005007
000020 04 19 4a 3d cb 37 0c bc c9 b3 fe 3c f8 8c b6 bc
       0.049340263 -0.008558224 0.031091588 -0.022284016
000030 c2 53 13 3c 1d 2e 26 bc b0 2c 35 3d 30 f2 f1 3b
       0.008992137 -0.01014283 0.04423207 0.0073836073
000040 b6 da 1b 3d d3 c1 34 bd 52 3f 8f 3c 26 fb 3c 3d
       0.038050376 -0.044130158 0.017486248 0.04613795
000050 b1 98 63 3d 39 b9 23 bd 75 ed 91 3c 23 07 b5 3c
       0.05556554 -0.039971564 0.017813424 0.02209813
000060 f0 3e 06 3d 66 3c 08 ba ac de 03 bc 48 ca 0b 3c
       0.032774866 -0.00051969883 -0.008048695 0.008532114
000070 cc 68 35 bd 12 3d 81 3c 7f 22 c2 bc 3b a9 02 bc
       -0.044289395 0.01577619 -0.02369809 -0.007974918
000080 97 b6 cf 3c 71 c5 27 bc b9 0e 7f 3c 6b c1 08 3c
       0.02535562 -0.010239945 0.015567475 0.008346896
000090 f3 dc 8f 3c 69 df e4 bc 67 f6 82 bc c5 20 0f 3b
       0.017561411 -0.027938562 -0.015986634 0.00218396
0000a0 85 89 f5 bc 7a 6b 68 bc c8 84 30 3c 1f b5 1d 3d
       -0.029972801 -0.014185781 0.010773845 0.03850281
0000b0 58 04 00 bd fb e4 53 3d 1e 8c e5 3c a1 31 1e 3d
       -0.031254143 0.051732045 0.028020915 0.03862155
0000c0 a6 4b 20 bd 54 e2 53 3d 46 e1 ba 3c 21 c8 b8 bb
       -0.039134644 0.051729515 0.022812497 -0.0056390916
0000d0 49 e1 16 3d 89 60 52 bd af 25 1f 3d 65 5f 37 bc
       0.036835942 -0.051361594 0.038854297 -0.011192177
0000e0 67 0b 09 3c 97 4c 93 bc b4 3a 36 3d 95 27 d0 bc
       0.008364535 -0.017980857 0.044489577 -0.0254095
0000f0 0f 6d 12 3d 04 44 14 bd f7 f3 ad 3c 50 7a 3a bd
       0.035748538 -0.036197677 0.021234496 -0.045526803
000100 9b 63 e7 3c f0 c0 e8 bc 57 11 6b bc 53 6d e2 3c
       0.028245738 -0.028412312 -0.014347396 0.02764002
000110 ed a3 0d bd 0a 81 c1 bc aa 7a 31 ba bc ec 4c 3d
       -0.03458016 -0.023621101 -0.00067702925 0.050030455
000120 66 35 dc bb d4 60 f8 ba 2e 1e 71 3c 8f b8 f3 3b
       -0.006720233 -0.0018949755 0.014716668 0.0074377726
000130 6c f2 b1 3c 3e 26 56 bd 12 6d 9c bc 27 0c d3 bb
       0.021722041 -0.052282564 -0.019094978 -0.0064406577
000140 98 10 33 3d 73 e6 e9 3c b0 5b 34 3d 49 e1 31 bd
       0.043716997 0.02855227 0.044032753 -0.04342774
000150 b7 50 42 3d 94 54 42 3d 08 54 ad 3b cc 0c 07 bc
       0.047440257 0.04744394 0.0052895583 -0.008242797
000160 6a 1d 7a 3c 6c d7 93 bc 51 ac e5 3c aa 61 e7 3c
       0.015265802 -0.018047057 0.028036268 0.028244812
000170 ad b4 07 bd 13 62 cb bc 29 81 06 3d 39 7c 4b 3b
       -0.03313129 -0.024827039 0.03283802 0.0031049384
000180 cc 89 59 3d 0c c9 f3 3b 00 e3 01 3d 26 6c 0a 3d
       0.05310993 0.007439738 0.031710625 0.033794545
000190 bb 1e 82 bc 08 d4 49 3d 12 27 3d 3d 78 69 bd 3b
       -0.015883794 0.049274474 0.04617984 0.005780395
0001a0 18 67 1e bc 4b c2 9d 3a d0 9f e7 bc 20 ab 22 bd
       -0.009668134 0.0012036053 -0.028274447 -0.03971398
0001b0 20 0c e9 3c 79 49 22 3d b1 a7 ce bc 16 8d 84 bc
       0.028448164 0.03962085 -0.025226446 -0.016180556
0001c0 bc b2 93 bb 15 16 1a 3c e3 2e 4e bd ad 3a 1c 3d
       -0.004507391 0.009404679 -0.050337683 0.038141895
0001d0 1a 1c 26 3d ba 09 dd 3c 18 aa 42 bd bd 76 50 3d
       0.040554143 0.026982177 -0.047525495 0.050894488
0001e0 57 f8 17 3d 55 22 43 bd ec 38 47 3d 71 53 95 bc
       0.03710207 -0.047640163 0.04863827 -0.018228265
0001f0 8b df 71 bc de 03 4d 3c c4 81 4d bd 22 81 11 bd
       -0.014762769 0.012513129 -0.050172582 -0.03552354
000200 f1 a3 2d bd e7 4b b0 3a fa d8 1a bd 46 24 ea 3c
       -0.042392675 0.0013450355 -0.03780458 0.02858175
000210 ae e3 7f bc 00 ab 2e 3d 0a 6d 39 b8 b1 48 f0 bc
       -0.015618248 0.042643547 -4.4208988e-05 -0.029331537
000220 16 9d 8b bb 30 61 d7 3a 6c 05 98 ba f8 73 0a 3d
       -0.0042606695 0.0016432162 -0.0011598296 0.033802003
000230 c1 2d dd bc 9b 11 26 3c 4f 9e 8f 3c ad 41 42 3c
       -0.026999356 0.010136033 0.017531542 0.011856479
000240 f9 0c 8b bb 91 21 64 3d da 6f 42 bc 5d 99 59 3d
       -0.00424349 0.055696074 -0.011867488 0.053124774
000250 d3 8f df 3b b9 31 e5 bc af 26 fb bc 07 a4 32 bd
       0.006822565 -0.027977811 -0.030658094 -0.04361346
000260 21 c9 40 bd af cd 03 3d 14 dc ff bb d0 92 40 3b
       -0.04706681 0.032178577 -0.007808218 0.0029384382
000270 5d 7c 41 bd c0 93 3f 3d fc a2 9b 3c 26 22 05 bd
       -0.047237743 0.046771765 0.018998615 -0.03250327
000280 ec a6 2c 3d c6 17 34 bd 2e 69 ce bc bd 7c 16 3c
       0.042151377 -0.043967985 -0.025196638 0.009185013
000290 36 01 3d bc 3a fb 10 3d 71 43 26 3c 9a 91 bb 3c
       -0.011535933 0.03539584 0.010147915 0.022896577
0002a0 dc f2 47 3d 3a 33 28 bd e0 d4 0d bd 6b 2a 13 bd
       0.048815593 -0.04106448 -0.03462684 -0.035929125
0002b0 b4 2f 9b 3c 98 b6 fe bc e0 a8 35 bc 0d 47 92 bc
       0.018943645 -0.031092927 -0.011087626 -0.017856145
0002c0 60 f2 4d 3c 8c 33 59 bd 9b 94 4e bd 22 ff d4 3c
       0.012569994 -0.053027675 -0.05043469 0.026000563
0002d0 f3 12 4d bd 6a 4a 69 3c b0 eb 42 bd a3 78 28 bd
       -0.0500669 0.014238933 -0.04758805 -0.041130673
0002e0 ee d3 06 bd 69 97 21 bd 0c cc 46 bd 63 3b 5c 3d
       -0.032916956 -0.039451037 -0.048534438 0.053767573
0002f0 e7 30 19 3d f4 a9 45 bd c5 6a 31 bd 13 4a 5f 3d
       0.037400153 -0.048257783 -0.043314714 0.054514002
000300 60 0b 98 3c 3c 39 2f bd 15 5c 6b 3b 6c 42 7b bc
       0.018560112 -0.042779192 0.003591304 -0.01533566
000310 ad 4d 59 bd 9a e2 f0 3c c8 df 3c bc 64 43 40 bd
       -0.053052593 0.029404927 -0.011527963 -0.04693927
000320 ea 0e fd bb 29 dc 11 3d 64 fe 23 bd 55 ee 41 bd
       -0.007722725 0.03561035 -0.040037528 -0.04734643
000330 8a 85 60 3d a0 c6 f7 bc 90 30 90 3c 2d 6d b0 3c
       0.054814853 -0.030246079 0.017601281 0.021536434
000340 33 9b 3d bd 33 28 56 3d ec b4 e2 bb 5a df 41 3d
       -0.046290588 0.05228443 -0.00691854 0.047332145
000350 e4 6f 36 bd 61 72 3e 3d 8b d5 1b 3d 70 69 3e bd
       -0.0445403 0.0464958 0.038045447 -0.04648727
000360 8f 1c a4 3c 57 87 57 bc 4c 83 49 3d b8 e9 31 3d
       0.020033149 -0.013154826 0.04919748 0.043435782
000370 ad 8b 3b 3d 2d 71 32 3d b3 fe dc 3c cd 78 d4 3a
       0.045787502 0.043564964 0.026976919 0.0016210318
000380 67 d7 ce 3c 85 9a 79 bc 50 fe 4f 3c f1 a4 3a bc
       0.025249196 -0.015234594 0.01269491 -0.011391864
000390 fb d9 32 bc 0e 00 a8 bc 9e 39 9f bb 2d 7c 58 bd
       -0.010916228 -0.020507839 -0.0048591634 -0.0528528
0003a0 2c 57 4f 3d 44 f4 f7 bb 88 99 fb bc 89 29 e6 bc
       0.050620243 -0.0075669605 -0.030712858 -0.028095977
0003b0 ee 98 97 3c ca 5d 18 bd 2c 48 e0 bc 6f a3 5d bd
       0.01850554 -0.03719882 -0.027378164 -0.05411094
0003c0 1f 9d 1e 3c 09 77 4b bd 76 19 1f 3d 5f f2 eb 3c
       0.009681015 -0.049674068 0.03884264 0.028802095
0003d0 f4 a1 3f bd 15 2b 04 3d bc 55 87 3c df 7b d9 3c
       -0.04678531 0.03226765 0.016520374 0.026548324
0003e0 4e 48 c5 bc f9 7c 17 3d 92 1a 5c 3d bd c7 b1 3c
       -0.02408233 0.036984418 0.053736277 0.021701688
0003f0 45 fc e4 bc 9f af 49 3d 9c 35 0a bc 1b 52 dd bc
       -0.027952323 0.04923975 -0.008435633 -0.02701669

model.0.bias f4 [30]
000000 c1 67 57 bd 8f 85 17 bd 76 7e 36 3d 24 d8 d3 3c
       -0.05258918 -0.036992606 0.044554196 0.0258599
000010 f0 62 91 3c 6d db 8f bc 5a 07 9a bc 13 e4 2a bc
       0.017747372 -0.017560685 -0.018802334 -0.010430354
000020 f4 d1 34 bd c9 75 1d 3d b9 75 40 3d c0 ed 41 bd
       -0.04414554 0.038442407 0.04698727 -0.047345877
000030 c2 8b 18 3d 82 95 1c bd fc c7 7b bd db 1e 68 be
       0.03724266 -0.03822852 -0.061470017 -0.2266802
000040 b7 c4 1f 3d b8 43 96 bc 34 80 3a 3d 41 b5 15 3c
       0.03900596 -0.018342838 0.04553242 0.009137453
000050 29 c4 10 bb 01 b7 c6 bb 7e 81 91 3c 4d 5b c3 bd
       -0.0022089577 -0.0060642962 0.017761942 -0.095388986
000060 79 17 d5 3c b5 0d b0 bd d2 4e b3 bc c4 52 22 bd
       0.02601217 -0.085963644 -0.02188817 -0.039629713
000070 0d ae 57 bd 22 4a 0b be
       -0.052656222 -0.13602498

model.3.weight f4 [1, 30]
000000 c4 7e 15 be c6 d6 29 3e 77 14 39 3c 2c 9e cf bc
       -0.14599138 0.16585836 0.011296383 -0.025343977
000010 24 4e 87 3d 0f a9 ab bd 9d 20 9b bd cb a5 27 3e
       0.06606701 -0.08381855 -0.0757458 0.16371839
000020 08 23 1e 3e af be 9e bd 0d 69 c2 bd 70 6b ce 3d
       0.15443051 -0.07751214 -0.09492693 0.10079086
000030 cb 91 08 3e 19 00 84 3c 88 02 1b 3e 63 22 94 c0
       0.13336866 0.016113328 0.15137684 -4.6291976
000040 88 e0 69 3d b5 5b 02 be 94 69 0b 3e bd 9a 2f 3d
       0.057098895 -0.12730296 0.13614494 0.04287218
000050 cb ad f3 3b 56 53 1b 3e 80 51 e1 bd 3a 61 e5 c0
       0.007436489 0.15168509 -0.11001873 -7.1681185
000060 e2 d5 7d 3d 3d 3a 9d c0 03 06 d5 3d 4d 60 ae bb
       0.061971553 -4.913359 0.10401537 -0.0053215385
000070 bd 6e b9 3d 03 d5 e7 c0
       0.09054325 -7.2447524
