model_dsm11rmcov/v3-[90, 60, 30]-0.0001-280.pth (torch, 148452 bytes, 7 tensors)

model.l1.weight f4 [90, 320]
00000000: 6cc3 da3d 9ca2 9bbe 06ba 23be 3b17 04be
00000010: df47 69bd 3487 1ebe f54c 45be df51 023e
00000020: f9d4 76bd 4305 133e 9bf7 aabd b3cc e33d
00000030: 47a7 35bd be88 26bb e99d 6a3d ba9f 513d
00000040: 80d7 c53c ecfe 9abc 22e2 97bc 40f8 b7bc
00000050: d723 543d f3b1 b73d 4529 1ebe ccaf b6bd
00000060: ee5d 253d 640a b8bd 2f4f afbd a5bf fb3d
00000070: 00c8 22bd 28e9 a9bd 0ca8 ff3c 4211 cd3c
00000080: 6ef3 55bb cee9 003d eb6c 80bc cbe4 52be
00000090: e9d1 bebc cff4 1e3f 550f 8e3d be0b bf3d
000000a0: 9d8f a43d a2e8 553d 0714 21be 8b63 00bd
000000b0: 18a1 c4be c5b2 69bd a33e 5c3d 6f9a 5c3e
000000c0: e705 63bd 4652 9b3c 7c66 f93c f171 77bd
000000d0: 2d0c c33d b839 38be 8424 863e 6fae be3e
000000e0: 76ed 88bd 3320 1fbc ab94 e5bd 8c59 023f
000000f0: a9ae b73c ca72 6b3d d819 7a3d 7288 1b3e
00000100: 5601 873d cf74 c3bd 06f3 f13c 26f7 9d3d
00000110: ea05 593d 49b5 c5bd 1a15 b63c f5a1 eabd
00000120: d59a 343e 7de7 ea3c 8695 123c 12ca 503e
00000130: afb8 a9be 5c9f ed3d 8102 153d b3be 83be
00000140: 5752 803c 72a8 6a3d 86b2 1a3f 7064 39be
00000150: e0b0 54bc c7ad 913d 20b5 ff3d 4063 403d
00000160: 7011 fd3d da8e 473c b30f 813d f09e b1bd
00000170: 875c 063d 9f34 7dbd 1980 f03c 5a41 a5bf
00000180: 790f a8bd 70c5 65bd 6fd5 dbbd 1fa4 223e
00000190: 3692 623d 02cc b4be 6cb6 db3d fb8c 233e
000001a0: d8eb 023e 8e35 52bd ab4c 06be 73a6 8c3c
000001b0: de7d 93bd b2f6 363e 1128 7abd 744c 053e
000001c0: 90ce 773e f36c 7dbd 5c41 6a3e 63c2 02be
000001d0: 3dba 1c3e d54f af3c 7d84 7b3d 7c0b 583d
000001e0: 6626 963c 267c 133d c745 bebc e563 a63d
000001f0: 39e7 42bc 2864 a3bc eb82 4fbd a6a8 18bc
00000200: 6861 8cbe 2235 973d d1e6 8dba caf5 113d
00000210: d9a4 d6bc 3b27 e13c 729c 063d 5c58 27bd
00000220: f944 03bd d041 a03c 94ee 4b3a e197 b43d
00000230: 7357 3f3e f3f5 27bd db0b 12bd 413e 6d3c
00000240: 54d7 5ebe 8800 c03d 3c12 a53d 452b c73d
00000250: 3ae9 ce3e 820b 073c 0b1d 663c 0dd9 813e
00000260: 8877 0fbf 6a0b 11bd c6dc 7cbd 0925 cc3d
00000270: b0a6 41bd dab4 0f3e 117b 08bb f410 b13e
00000280: 3f2b 20be a70e afbd beef 6bbd 207b afbc
00000290: cf1a 9ebc 411e 04bc a38c 3fbd d844 683d
000002a0: fbc6 7b3d f288 11bb 10ff 933e 8d5a 303b
000002b0: ae48 d5bb b2b8 d93b 397a a0bd a803 21bd
000002c0: 6d9e 77bd b942 43bd 5d3a d1bd fdd0 f7bc
000002d0: e1a1 8ebd 6b91 893c 61f0 8abd a0b3 a5bd
000002e0: 8eba c6bc f03d 923c ff97 b33e d2ac a9bd
000002f0: d3a8 693e ca1a 69bd 5019 0abd 35e0 2ebd
00000300: f507 9bbb fded 56be 4d45 a7bc 36a0 b43d
00000310: 3159 04be 1d82 50bc ca78 323e 538d b53b
00000320: 1cb1 88bb 625d 55bd afd5 a8bc 1b3c 27be
00000330: d247 89bd 53f8 d4bd 375e 0c3e 774b e9bc
00000340: 4ede c7bd 70bd 11be e925 e93d f020 dabd
00000350: 945f 0bbf badb e43c 04f4 8c3d 1803 52be
00000360: 3f99 5f3f 03a2 7b3d 004d b4be c29f 1e3e
00000370: 332d 4cbd b9b8 153e 08d1 093f 306b e03d
00000380: 32ae 27be 1836 9dbd 6f29 ffbd e5a9 443e
00000390: 1a3a 9bbe 3ec6 47be 43a5 b5be 0642 22bd
000003a0: 0362 663d 102a acbd 0d2b e23e 0f99 a1bd
000003b0: a2f9 0e3f c6e2 7ebd 66e3 bfbd 97fe 15bd
000003c0: b710 46be cbaa d33a 3e9f 513e 98bf 97bd
000003d0: 117e e9bb 9be0 d8bd d77f e9bc 6191 60bd
000003e0: 3380 7cbd 3e83 983d 61ea 073d 1445 13bd
000003f0: 4091 be3d cd25 50bd 0a13 ecbe 7373 c83d
0.10681805 -0.303975 -0.15988931 -0.12899487 -0.056953307 -0.15481263 -0.19267638 0.12726544
-0.0602617 0.14357476 -0.08348008 0.11123028 -0.04434898 -0.0025411095 0.0572795 0.051177718
0.02415061 -0.018920384 -0.018540446 -0.022457242 0.051791992 0.08969488 -0.1544543 -0.08920249
0.04037278 -0.08986357 -0.08560025 0.12292413 -0.039741516 -0.08296424 0.03120806 0.025032643
-0.0032646316 0.031472974 -0.015676936 -0.2059509 -0.023293452 0.620923 0.06936518 0.093284115
0.080352046 0.05222381 -0.15730296 -0.03134493 -0.38404155 -0.057055254 0.053770673 0.21543287
-0.05542555 0.01896013 0.030444376 -0.060411397 0.09523807 -0.17990768 0.26199734 0.37242457
-0.06685917 -0.009712267 -0.11209997 0.5091789 0.022422152 0.05748252 0.061059803 0.15188769
0.06592052 -0.09543764 0.029534828 0.077131554 0.052984156 -0.09653718 0.022226859 -0.11456672
0.17637189 0.028674835 0.008946782 0.20389584 -0.33148715 0.11602661 0.03637934 -0.2573143
0.015664263 0.05728955 0.60428655 -0.1810472 -0.012981623 0.071132235 0.12485719 0.046969652
0.123568416 0.012180055 0.063018225 -0.08672893 0.032803085 -0.06181776 0.029357957 -1.2910569
-0.08206076 -0.056096494 -0.107340686 0.1588292 0.05531522 -0.35311896 0.107281536 0.15971749
0.1278528 -0.051320605 -0.13115184 0.017169213 -0.07201742 0.17867544 -0.061073367 0.13017446
0.24199891 -0.06187148 0.22876495 -0.12769465 0.1530542 0.021400372 0.061405648 0.052745327
0.018328857 0.03600707 -0.023226632 0.08124522 -0.011895948 -0.01994522 -0.050661962 -0.009317553
-0.27418065 0.07383181 -0.0010826235 0.035634793 -0.026201652 0.027484527 0.03286404 -0.04085575
-0.0320482 0.019562632 0.00077793864 0.08818031 0.18685703 -0.04100604 -0.035655838 0.0144801745
-0.21761829 0.09375101 0.080601186 0.0972505 0.40412313 0.00824249 0.01404501 0.2536091
-0.56041765 -0.035411276 -0.061733983 0.099680014 -0.047278106 0.14033833 -0.0020825306 0.34583247
-0.15641497 -0.085477166 -0.057601683 -0.021421015 -0.019299893 -0.008063854 -0.04676498 0.05670628
0.06146906 -0.002220687 0.28905535 0.0026909441 -0.0065089082 0.006644332 -0.07835812 -0.039310127
-0.06045382 -0.047671054 -0.1021621 -0.03025102 -0.0696447 0.016792974 -0.0678413 -0.080909014
-0.024258878 0.0178518 0.350769 -0.08284916 0.22818308 -0.056910314 -0.033715546 -0.04269429
-0.004731173 -0.20989223 -0.020418787 0.0881962 -0.12924649 -0.012726334 0.1742889 0.005540529
-0.0041715037 -0.05209101 -0.020609705 -0.16331522 -0.06703152 -0.103989266 0.13707815 -0.028478367
-0.09759198 -0.14232421 0.11384184 -0.106508136 -0.54442716 0.027936805 0.0688248 -0.20508993
0.8734321 0.061433803 -0.35214996 0.1549063 -0.049847793 0.14621247 0.5383458 0.109579444
-0.16375044 -0.07676333 -0.12459075 0.19205435 -0.30317765 -0.19509217 -0.35477647 -0.039613746
0.056245815 -0.0840646 0.4417347 -0.07890522 0.5584966 -0.062227987 -0.09369545 -0.03661975
-0.19342314 0.0016148923 0.20470902 -0.074095905 -0.007125624 -0.10589715 -0.028503342 -0.054826144
-0.061645698 0.074469075 0.033182506 -0.03595455 0.09305048 -0.0508173 -0.46108276 0.09787645

model.l1.bias f4 [90]
00000000: 1890 80bd e12a 2bbd 9530 4abc 91fa 47bd
00000010: b856 72bc aeb0 7d3c 6b4f 0bbd b61c bfbc
00000020: a006 513d f397 14bd 53fe 9dbc f123 793c
00000030: 3a6b 3bbd 9625 7b3c 6379 82bb 8033 efbb
00000040: 2845 383c 3d12 84bd 2c95 913b 8e7e 76bd
00000050: a11e 20bd e7c6 70bd c06a 84bd ea46 92bd
00000060: d1f3 0fbd 6229 573c ee88 51bd 0828 40bd
00000070: 4a3d 79bd 046f 4fbd d6bf bdbd b99e dcbc
00000080: 954c a63c cee4 f4bc dbe2 23bd 7d79 80bd
00000090: e1aa 74bc 5f3b f539 dd3c 643c 1211 f93c
000000a0: fed9 5ebd 1a7a 06bd fcf6 f8bb f769 94bd
000000b0: a015 2ebd 6eb8 b23c f552 6dbd 6942 1abc
000000c0: bea2 82bd 1082 f9bb b808 a03c 645a 823c
000000d0: 8536 8f3c 4a33 f93c beaf 5abd 13b7 0fbd
000000e0: af64 3fbb 0589 3abc 25d0 23bd c914 6dbd
000000f0: b9e7 49bd ce19 f1ba 274b 85bd e8d0 6abd
00000100: c9bf 76bc 1110 0cbd 7d52 f0bc 10b0 52bd
00000110: 38bb b9bd 8ed6 aa3b d4e6 7dbd da5e 22bd
00000120: 7de4 a0ba 6f1f 673c e5fa 1b3c bc58 813c
00000130: 481f 26bd 8f41 acbc 2911 a5bd a7a1 e8bc
00000140: f95b 9439 0d3f e6bc 2940 8ebd f78e e33b
00000150: 194c 80bc 9a45 4dbd e692 56bd 61b8 d5bc
00000160: 8145 89bd 03d7 ab3c
-0.06277484 -0.04178894 -0.012340684 -0.048822943 -0.014791183 0.015484018 -0.034011286 -0.02332912
0.05103171 -0.036277723 -0.01928631 0.015206323 -0.045756556 0.015328785 -0.0039817556 -0.0072998405
0.011246957 -0.06448791 0.0044428315 -0.060179286 -0.03909171 -0.058783438 -0.064656734 -0.07142432
-0.03514463 0.013132425 -0.051155977 -0.046913177 -0.060849465 -0.050642982 -0.092651054 -0.026931154
0.020300189 -0.029894259 -0.040011268 -0.06273172 -0.014933319 0.00046774276 0.013930527 0.030403648
-0.054407112 -0.03283129 -0.007597802 -0.07246774 -0.042501092 0.021816459 -0.057940442 -0.0094152475
-0.06378697 -0.0076143816 0.019535407 0.015912242 0.017482052 0.030419964 -0.053390257 -0.035086703
-0.00292043 -0.011385207 -0.039993424 -0.05788115 -0.049293254 -0.0018394531 -0.06508475 -0.057328135
-0.015060374 -0.03419501 -0.029336208 -0.051437438 -0.09068912 0.005213565 -0.061987713 -0.03964124
-0.0012275126 0.014106615 0.009520267 0.015789382 -0.040557176 -0.021027355 -0.08059914 -0.028397394
0.00028297285 -0.028106237 -0.06945831 0.006944533 -0.015661286 -0.050115205 -0.052386187 -0.026088895
-0.0670271 0.020976549

model.l2.weight f4 [60, 90]
00000000: 9c5e cb3e 1148 d1bd 02d7 0c3e 2e17 06be
00000010: 3548 22be b2b2 1abd 943f 9c3d 8563 0d3e
00000020: d706 ed3d 7940 49bd 103b 43bd 43a4 67be
00000030: a1fd 98bd 42c8 90bb 43f8 223d 920d 38bd
00000040: 37b6 29bd 5929 9abd ed8a 3dbe 9910 bfbc
00000050: 13c7 46be d2e4 603c 8696 07bd 3188 98bd
00000060: 4f90 a1bb 4a3f 433d 268d ffbc 80f8 f7bc
00000070: b9d0 5f3c d7a4 033e 5010 b5bc 8f35 29be
00000080: 1f00 17bd dd22 a63d f3a0 93bc 14e2 1ebe
00000090: f332 e5bc 50c6 dcbd 4281 01be 4c71 b6bd
000000a0: 67df 903c 94da a23b 620b a33e c367 ec3b
000000b0: 0b36 8b3e 5c44 e7bc dcaf b23e 1c40 80bd
000000c0: f912 4abd 6f23 f1bc 10d8 0cbc 59ee 593f
000000d0: 05e8 033d 2483 893d bb08 dc3e c992 de3d
000000e0: a140 973d 0d4d 07be dce1 07bd b847 283c
000000f0: e914 813c 5cd1 c33c f8ef 10be 445f 87bd
00000100: 75b0 e63d aa78 2bbe 1d3b cebd 7bb0 963d
00000110: 8234 2b3d 6230 03be bdbf d1bd dd7b 62bc
00000120: 448b e3bc 2020 a83d 04f2 043d 294a 29be
00000130: d413 2bbd e0bc f53b bbc0 883c 0b1a 613e
00000140: c392 6fbe 9b1c dbbd 5e73 6abf 8b50 76bd
00000150: 4c37 88bd a200 923e 5ac7 92be 33a9 2b3c
00000160: 5f92 0c3d 7f81 8cbd 348c 65be c190 afbc
00000170: b800 d8be d116 e33d 8a64 a93d ba00 803d
00000180: ad64 3fbe b405 8dbe 566c 96bc 668e d43e
00000190: 7303 bfba b9ed 1c3e 58c7 a33d c2a4 2e3b
000001a0: ffd9 70bd 149a f93c 3bfd 12bc db61 493e
000001b0: fce6 093e 77f4 0d3c 27ee 493d cf7e 97bc
000001c0: 1a4b eebd 5563 443c 219e 473c a08d 2ebd
000001d0: a5ca 213e 18e2 423d bcde 58bd b720 53be
000001e0: 4923 b03c 76cc 113d e684 34bd b547 ea3c
000001f0: ff85 a1bb a861 a23e 518c 543d fe6e 4cbc
00000200: 24da 1ebd e32c 37bc 480a 0d3d 7a51 b73d
00000210: 75cc 82be b73c 4dbc 2f5b 52be f077 1d3d
00000220: 50f5 56be 65d3 013d 8259 93bc 9d42 d8b9
00000230: 0465 a03d fc40 1ebf 7b02 bc3e 7ddf a5bd
00000240: bfd3 11bf c028 86be caa7 7cbd 3949 f1bb
00000250: 0710 1bbc 317f 1e3d 1f22 f23d 9543 f3bb
00000260: 80d1 d8bc 8cdb cb3c da11 f63d 4d70 2abd
00000270: cbb9 fa3d d145 b03d 4e63 8cbd ccd7 633d
00000280: b35d 94bb 9047 6c3d 8f29 55be 86b3 383e
00000290: 96d5 253e 0e2c e0bd 6932 49bd 23d3 bc3b
000002a0: 78cb 1a3d 1db1 a8be d6cd 8f39 b86e b1bd
000002b0: 1f7f aa3e 97b0 d23d e597 cabc 521e 37be
000002c0: 6251 2ebd 7834 38be 6c0c 6fbe 97a3 403d
000002d0: abc1 a7be 819c 023c 3b57 35bd 33a6 14bc
000002e0: 1c39 e83b c314 773a 8f8c 22bd 5841 933d
000002f0: 0bf6 0e3d 15ca 07bf f57e 963c f2af c93b
00000300: 9797 fb3c 2f1e a8bd 2ec8 05bc 9e0c 2f3d
00000310: 98f0 c43b 531c 11bd 4d1e 26be 689b e1bb
00000320: 671a 943e 533c 8bbc 7239 caba 832b 823c
00000330: aa42 87bc 8548 6abe d806 453e bd00 77bd
00000340: 75d8 c73b ae2d 5dbd 4379 b23c 9052 4cbe
00000350: 4670 d1bc f91f b83d c2c2 d83d e9e7 f3be
00000360: 76bd ddbd dc0e b5bc c74e a63d ba72 093e
00000370: ae59 193d a8b8 b4ba 1b4d a9bc 7edb 473d
00000380: 0559 b73d 38d8 753e fa69 d3bd ff2f 4ebd
00000390: 32aa 9fbd dff2 3f3d 66b1 013e bf9c e83e
000003a0: 4cf4 50be 9ba5 56bd 986e 76be edb8 3abd
000003b0: dd5a 37bc 7fe0 353c 7fa1 6abb 2df6 f83c
000003c0: 9550 cb3d b252 76bc be86 f4bc 2553 543c
000003d0: ec68 48be f819 90bc 55a4 e93d 7e50 383c
000003e0: ecbe b1bc 63f9 8b3d 2607 dd3c 2bbb e73d
000003f0: bc2f aa3e 7017 f93c 7f71 57bc 12d0 e43c
0.3972062 -0.10218824 0.13753894 -0.1309478 -0.15847857 -0.037768073 0.07629314 0.13807495
0.1157357 -0.04913375 -0.04766375 -0.22621255 -0.07470251 -0.004418404 0.039787542 -0.044934817
-0.04143354 -0.07527418 -0.18510027 -0.023323344 -0.19411878 0.01372643 -0.033102535 -0.074478514
-0.004930533 0.04766778 -0.031195235 -0.030269861 0.013660603 0.1285585 -0.022102505 -0.16524337
-0.03686535 0.081121184 -0.018021083 -0.1551593 -0.027978396 -0.107800126 -0.12646964 -0.089083284
0.017684652 0.004969904 0.31844622 0.007214518 0.2718967 -0.028230838 0.34899795 -0.06262228
-0.0493345 -0.029435841 -0.008596435 0.85129315 0.032203693 0.06714466 0.4297541 0.10867841
0.07385374 -0.13212986 -0.03317438 0.010271005 0.015757041 0.023903541 -0.14154041 -0.06609967
0.11264125 -0.16745248 -0.10069869 0.0735788 0.041798122 -0.12811425 -0.10241649 -0.013823477
-0.027776368 0.08209252 0.032457367 -0.16532196 -0.041766956 0.0074993223 0.016693464 0.21982591
-0.23395829 -0.106988154 -0.91582286 -0.060135406 -0.06651172 0.28516108 -0.28667718 0.010477352
0.034319278 -0.06860637 -0.22416764 -0.021431329 -0.42188048 0.11088336 0.082711294 0.062501386
-0.18690749 -0.27543414 -0.018362205 0.4151489 -0.0014573172 0.15325059 0.07997006 0.0026648496
-0.058801647 0.030468978 -0.008971508 0.19666235 0.1346702 0.008664242 0.049299385 -0.018493084
-0.11635418 0.011986573 0.012183697 -0.042615533 0.15799959 0.0475789 -0.05294679 -0.20617948
0.0215012 0.03559538 -0.044072054 0.028598646 -0.0049293037 0.3171513 0.05189163 -0.0124776345
-0.038782254 -0.011180135 0.034433633 0.08951087 -0.25546613 -0.012526683 -0.20542596 0.03844446
-0.20992017 0.031695742 -0.017987017 -0.0004124836 0.07831767 -0.6181791 0.36720642 -0.08099268
-0.56963724 -0.26202965 -0.061683454 -0.007363465 -0.00946427 0.038695518 0.11822914 -0.007423828
-0.026467085 0.024884962 0.12015124 -0.041611005 0.122424684 0.086070664 -0.06854878 0.05562572
-0.0045277714 0.057685435 -0.20816635 0.18037233 0.16194758 -0.10945903 -0.04912034 0.005762474
0.0377917 -0.32947627 0.00027428445 -0.08663696 0.3330011 0.10287588 -0.024730632 -0.1788266
-0.04255808 -0.17988765 -0.23344582 0.04703101 -0.32764944 0.007971884 -0.044272643 -0.009072828
0.007086886 0.0009425396 -0.03968483 0.07190198 0.034902614 -0.5304273 0.018371085 0.0061550075
0.030711932 -0.08208882 -0.008165402 0.042736642 0.0060101263 -0.035427403 -0.16222496 -0.006884981
0.28926393 -0.016996538 -0.0015428497 0.015889889 -0.01651128 -0.22879227 0.19240892 -0.06030344
0.0060988017 -0.05399864 0.021786338 -0.1995337 -0.025566231 0.08990473 0.10584022 -0.4763787
-0.108271524 -0.022101812 0.08120494 0.13422671 0.03743904 -0.0013787942 -0.02066665 0.04879331
0.08952526 0.24008262 -0.10322948 -0.05033874 -0.07796134 0.04686248 0.12665328 0.45432088
-0.20405692 -0.052404027 -0.24065626 -0.045586515 -0.011191097 0.011100887 -0.0035801826 0.030390823
0.09927479 -0.015034365 -0.029849406 0.012959276 -0.19571275 -0.017590508 0.11408297 0.01124966
-0.021697484 0.06834676 0.026980948 0.11314996 0.33239543 0.030406684 -0.013149618 0.027931247

model.l2.bias f4 [60]
00000000: 9e3a a83c 7da9 0d3c 4774 73bd 8fb6 323c
00000010: 7e08 95bd 050d 173d 259a cbbc 2719 113d
00000020: 9bf4 f6bd 34c7 22be f0ba 4ebd 51cd 6ebd
00000030: 70ce 9eb9 63b8 093d 7a0f b73b 210f 1e3d
00000040: 8765 cc3c 2b2e 8ebc 67ae b93b cdb2 f8bb
00000050: 5fc2 b23c c34a 8a3b 2919 cdbc 4fde 4a3d
00000060: 8726 683c 3ac4 183d 911c 2abd 8e93 493b
00000070: a578 a23d 9365 3e3d bf5f f13b e0da 8c3c
00000080: b83c d5bd ed67 053c e922 78bd f4e3 85bd
00000090: 88af cabd f9d4 743d 6c86 d7bc 2f4c 1dbd
000000a0: ef88 5bbc 8582 dcbd c7f7 88bb 51dd d5bd
000000b0: a8b5 113d 185e 0d3d bbaf 743b 3d4b 993c
000000c0: 1a57 35bc 2bd3 61bc d77c e0bc f09c c53d
000000d0: 75fc d73c fccd 05bd ccd4 2ebd 6151 8c3c
000000e0: d302 63bd 9144 79bb 6d98 5eba 5494 923d
0.020535763 0.008646366 -0.059437063 0.010907783 -0.072770104 0.03687765 -0.024853775 0.035424378
-0.120583735 -0.15896302 -0.050471246 -0.058301274 -0.00030289916 0.03362311 0.0055865617 0.038588647
0.024950756 -0.017355999 0.0056665423 -0.007589674 0.021821199 0.004220338 -0.025036411 0.049528416
0.014169342 0.03729651 -0.04153115 0.0030758115 0.07933167 0.046483587 0.00736615 0.017194211
-0.10411972 0.008142454 -0.060580168 -0.06537619 -0.09896761 0.05977342 -0.026309215 -0.038402732
-0.013399347 -0.10767082 -0.004179928 -0.104426034 0.03557363 0.034513563 0.0037336189 0.018712634
-0.01106813 -0.0137832565 -0.027403278 0.09649074 0.026365498 -0.032667145 -0.042683408 0.017128648
-0.055422615 -0.0038035254 -0.0008491341 0.071571976

model.l3.weight f4 [30, 60]
00000000: 7dbf 1bbe 9c01 903c 52c5 d4be 7abe 983e
00000010: 1efb 883d c71a 103e 27a9 893e 4548 aabc
00000020: 7859 923e 17fd 06bf 1dc1 09be bb7a c23e
00000030: 8f8f 01bf f51b 963e bbda 603e efa0 2abe
00000040: b616 943e e370 153e db5f b73c 0acb 0abf
00000050: fd1f c2be 5b85 30be 3ce5 fa3c 754e e1bd
00000060: 66c8 223e 1605 5d3e b071 f3be 0a98 c43b
00000070: 28e0 983e a5d5 2e3e 1fed 11be 14e5 c7be
00000080: c28e 1a3e 2cd1 b4be d2a2 813d 8cd3 b63e
00000090: 049d e33e a10b fabc 451a fa3d 1365 4dbf
000000a0: fa12 66be 31ca 383c ecfe 3e3e 23a8 1dbf
000000b0: d748 033e 4aaf 6cbd cd69 8e3e 3a25 8dbc
000000c0: 82d1 0fbe ad85 bfbe cdee 53bd befb a63c
000000d0: 1980 80be 7f1d 2b3e a4ef c0bb 67c3 ab3e
000000e0: f23b 63be 7b9c 4c3e f529 70bd bb30 053e
000000f0: 3d92 c6bc c984 e2bb 9293 213f e5ad 4dbf
00000100: 530b e9bd 0359 733e de92 c3be 65f3 883d
00000110: c7f4 6abf 9a50 913d 26db ef3e 1002 71be
00000120: e73c 6f3e 59bd 6d3d f975 4bbe 18db 4d3e
00000130: 1d26 d0be 4229 263d d996 513e f41c 0d3e
00000140: 504c b3bd fe57 a6be 07f2 583d cffc 803d
00000150: fa10 1cbe 4bce ea3d 876d 723e eed5 163e
00000160: 988a 23bf 9e53 4e3e 4e85 36bd 59ad 54be
00000170: e238 b1bd 0a6a a73e 29c6 95bd dbdc 8fbe
00000180: b12e 78bf c5eb ac3d 6ea4 933e ad21 933d
00000190: db2b 55bd d470 d5be fa60 003e 51e4 56bd
000001a0: f682 633e 8f57 113e 6b3f 72bd 5ea0 20be
000001b0: b1f3 5e3e ea34 393e a2b4 f13e 877f ed3d
000001c0: 1d76 9cbe 5ba7 723e 4f0b 99bd 9633 cabd
000001d0: f38b 11be 4caa 593d 867d 9d3d 0993 ef3d
000001e0: f9ba 71be 239f b3bc 46ab 5dbe 507f 883d
000001f0: 910a 3fbe efd8 7b3e 2589 9d3e 4ecf 573d
00000200: 3eea 9d3e fe84 04bf 9806 ccbd ac31 de3e
00000210: fe4c 0cbf 4289 e93d b039 1d3e 638f 1abe
00000220: 148f de3d 9270 763e 1742 dabc 3a0d 2fbf
00000230: 939d debe 110a 883d 7c5c 993d 81bc 2bbe
00000240: 0e7b fe3d 915c a03e 0b39 28bf d355 8d3b
00000250: e46e 213f 8e87 6d3e 6779 0e3e b5de 2fbe
00000260: 6e5a 393e c7cc 6cbe a01a abbd a701 a23e
00000270: 797e d53e 8668 4e3d de6b 373d 2eb7 06bf
00000280: 32b7 c63c 07ab c7bd 970d f8bc f2e3 18bf
00000290: 2462 a9bd bee2 183d dad8 633e 87fa bebd
000002a0: 32e1 4c3c 8458 01bf 05d6 2abe e667 023e
000002b0: a303 11bd 3dcd 48bd 56d8 00be fd56 a73e
000002c0: 85ab b8be f669 c93d e486 3fbd 0d58 4f3e
000002d0: eed5 7abe 33e5 893d 4a84 adbe a43b 943d
000002e0: 4bf1 003e 08bf de3d fb61 073f 39ac 043e
000002f0: d9e4 3d3e 7626 f0be b0c1 653e 3e22 7c3e
00000300: 4899 91be dc9e 393e 2b22 2e3e 064c fcbe
00000310: efbf 5f3e 8dfa 97bc 9aac a73c d721 0cbf
00000320: f250 c9be 28a7 ea3d fd23 c5be 9a3b acbe
00000330: 2e07 893e 0b70 0f3e 2b99 7ebe 3ed6 7abe
00000340: 815d 433e 95f7 233d 6ae4 e5be eddc 95bd
00000350: 062b 8a3e 6cd0 c0be 8393 8abe aac1 943e
00000360: 1af5 4f3e e8c5 d3be 41fc 2bbe 0b56 99be
00000370: 2153 82bd 20d9 273e 4514 563c 3916 0fbf
00000380: cc5f d43b 8efd 0ebf 2e72 a9be 7190 f53d
00000390: 8384 cb3d ccad ddbe 8c50 04be d6f3 d63d
000003a0: 24d1 693e 11ae 63bc 47b1 e4be b034 ddbe
000003b0: 936f 223d 5c74 c53e f2ce b4bd e0b5 bf3d
000003c0: fcff 3fbe 2840 23be f2dc fc3e e511 2abf
000003d0: 90ed d9be 0e12 ce3d 0a8e c9be 8e4a 7f3e
000003e0: 1cf5 4dbf 0b94 a43d 4bf0 833e cd1f 80be
000003f0: 5374 2d3e 63c7 743d f195 6d3d 693e ba3c
-0.15209766 0.017578892 -0.41556793 0.29832822 0.06688522 0.14072715 0.26886865 -0.020786414
0.28583884 -0.52729934 -0.13452573 0.3798426 -0.5060968 0.29318205 0.21958439 -0.16662954
0.28923577 0.14593844 0.022384575 -0.54216063 -0.3791503 -0.17238371 0.030626886 -0.110012926
0.15896758 0.21583971 -0.47547674 0.00599957 0.29858518 0.17073686 -0.14250611 -0.3904196
0.1509352 -0.35315835 0.06329884 0.35708272 0.4445573 -0.030523123 0.12212042 -0.8023235
-0.22468176 0.011278675 0.18651932 -0.6158468 0.12820755 -0.057784356 0.27815095 -0.017229665
-0.14044765 -0.37406674 -0.05174141 0.020383712 -0.2509773 0.1671047 -0.0058879424 0.33547518
-0.22190836 0.19981568 -0.058633763 0.1300687 -0.024239654 -0.006912802 0.631158 -0.80343467
-0.11379113 0.23764424 -0.38197988 0.06687049 -0.9177975 0.07095452 0.46846884 -0.23535943
0.23363076 0.058041904 -0.19869222 0.20103109 -0.40654078 0.04056669 0.204677 0.13780576
-0.0875479 -0.32489008 0.05296519 0.062982194 -0.15240851 0.114651285 0.23674594 0.14730045
-0.6388335 0.20149085 -0.044560723 -0.20769252 -0.08653428 0.3269809 -0.07313187 -0.28098187
-0.96946245 0.08443407 0.28836387 0.071841575 -0.052043777 -0.41687644 0.12536994 -0.052463833
0.22217926 0.14193557 -0.05914251 -0.15686175 0.21772648 0.18086591 0.47208124 0.115965895
-0.30558863 0.23696654 -0.0747286 -0.098731205 -0.14213543 0.053140923 0.07689957 0.116979666
-0.2360648 -0.021926468 -0.21647367 0.06664908 -0.18656375 0.24594472 0.30768695 0.052687936
0.30842775 -0.5176543 -0.09962195 0.43397272 -0.5480498 0.11403133 0.15354037 -0.1509376
0.10867134 0.2406638 -0.026642842 -0.6837956 -0.43479595 0.06642545 0.07488343 -0.16771127
0.124258146 0.31320623 -0.6571204 0.0043132096 0.6305983 0.23196241 0.13913499 -0.171748
0.18100902 -0.23124991 -0.08354688 0.31641886 0.41698053 0.05039265 0.044780605 -0.5262326
0.024257276 -0.09749418 -0.030279918 -0.59722817 -0.08270672 0.037325613 0.22250691 -0.09325128
0.012504863 -0.5052569 -0.16683204 0.12734947 -0.03540386 -0.049023855 -0.12582526 0.32683554
-0.3606836 0.098346636 -0.0467595 0.20248432 -0.2449567 0.067331694 -0.3388999 0.07237938
0.12592046 0.1087628 0.5288388 0.12956323 0.1854433 -0.46904343 0.22437167 0.24622437
-0.28437257 0.18127006 0.17005222 -0.4927675 0.2185056 -0.01855209 0.020468045 -0.54739136
-0.3931957 0.11457664 -0.3850402 -0.33639222 0.2676329 0.14007585 -0.24863116 -0.2449579
0.19078638 0.040031034 -0.4490083 -0.07317529 0.2698595 -0.37659013 -0.27065668 0.29054004
0.20308343 -0.41361928 -0.16795446 -0.29948458 -0.06363512 0.1639142 0.013066356 -0.55893284
0.0064811464 -0.55855644 -0.33094925 0.11990441 0.09937384 -0.4329666 -0.12921351 0.10495727
0.22833687 -0.013896481 -0.44666502 -0.4320426 0.039657187 0.38565338 -0.08828534 0.09360862
-0.18749994 -0.15942442 0.49387318 -0.66433555 -0.42564058 0.100620374 -0.3936618 0.24930784
-0.8045213 0.080360495 0.25769266 -0.25024262 0.16938905 0.059760462 0.058004323 0.022734838

model.l3.bias f4 [30]
00000000: f71d 4b3d 8b00 29bd 01fa 2fbd fa08 04bd
00000010: 21a5 4bbb 3f4a 68bd cec8 ca3d cefc 5ebc
00000020: fb19 073d d94f 963d c1d1 8c3c 71ef db3d
00000030: 854f d33d e595 913d 3bcd 983c 42ca da3d
00000040: 19e8 eb3d 0bff 023e d3dd 423d 7649 02be
00000050: b49f 8c3c aa25 e0bd dd89 a3bc 0bbb 5b3d
00000060: adc6 59be 0353 ef3c 3396 fdbb aea5 85bc
00000070: 4c01 b93d 3c62 b2bb
0.049589124 -0.041260283 -0.04296303 -0.032235123 -0.0031073766 -0.05671143 0.09901582 -0.013610078
0.03298376 0.073394485 0.017189862 0.10739029 0.103179015 0.07108668 0.018652549 0.10683109
0.115188785 0.12792604 0.04757483 -0.12723336 0.017165996 -0.10944684 -0.0199632 0.053645175
-0.21267195 0.029214388 -0.0077388524 -0.016314354 0.090334505 -0.0054438394

model.l4.weight f4 [1, 30]
00000000: 6add 72be b0f8 f73e 4ca4 a3be 57a9 13bf
00000010: d419 003f 4abc ecbe d04f 6cbe 434c 01bf
00000020: 3a3c 85be c3fd b93e 419f 1cbe e93f 9e3e
00000030: adf9 453e bcfa 103f 911d 5abe ff8d fbbd
00000040: fab2 673e d284 9b3e 58a6 29be 8876 2f3f
00000050: 45d5 f53e 0908 203e f715 03bf 51bc 1ebe
00000060: f59c 443f c9d0 89be 9b1c 52be 3575 bbbe
00000070: ceff fe3e e5dc b43e
-0.23717275 0.4843192 -0.31961286 -0.5768027 0.5003941 -0.46237403 -0.23077321 -0.5050699
-0.26022512 0.36326417 -0.15295126 0.30908135 0.19333525 0.5663259 -0.21300341 -0.12282943
0.22626868 0.3037477 -0.16567361 0.6854024 0.48014274 0.15628065 -0.5120539 -0.15501525
0.76802 -0.26917103 -0.20518725 -0.3661286 0.49804538 0.3532478
