model_dsm11rmcov/v3-[30]-0.0001-100.pth (torch, 40936 bytes, 3 tensors)

model.l1.weight f4 [30, 320]
0	0xbe875a03	-0.2643586
1	0xbd9f7ed6	-0.07787864
2	0xbe58521a	-0.2112507
3	0xbd753762	-0.05986727
4	0xbd8aa3f7	-0.06769555
5	0xbd914d66	-0.07094841
6	0xbda149ab	-0.07875379
7	0x3ce99320	0.028512537
8	0xbddd107a	-0.10794158
9	0x3d1f1ed7	0.03884777
10	0x3da39f81	0.07989407
11	0xbcf5ebe2	-0.030019704
12	0xbdda61c8	-0.106631815
13	0xbd93b9f1	-0.072132
14	0x3d8a305d	0.06747506
15	0xbc129dac	-0.008948725
16	0x3d7b8674	0.06140752
17	0xbd1a1ecd	-0.03762703
18	0xbd6a0d27	-0.05714145
19	0x3d4dd998	0.05025634
20	0x3c5ccab3	0.013476062
21	0xbdd17910	-0.10228169
22	0x3c3a4bc9	0.011370608
23	0xbdc0994e	-0.094042405
24	0xbd9eec6e	-0.07759939
25	0xbdd3700b	-0.10324105
26	0x3cfac6b7	0.030612333
27	0x3c66ad79	0.014079445
28	0xbe1f0573	-0.15529422
29	0xbd0ae12d	-0.03390615
30	0xbbb9675d	-0.005658074
31	0x3d8fd4fb	0.07023045
32	0x3d4ca82f	0.04996508
33	0x3c7ca6d4	0.015420634
34	0xbe373ad2	-0.17893532
35	0x3a62b5f7	0.00086483307
36	0xbccfbf22	-0.025359694
37	0x3e694f04	0.22784048
38	0xbd2dac5b	-0.0424007
39	0x3d164de3	0.036695372
40	0x3e0a69f0	0.13516974
41	0x3d9291eb	0.07156738
42	0x3d3ed05d	0.04658543
43	0xbddf705c	-0.10910103
44	0x3eb8d073	0.36096534
45	0x3d30f17e	0.043199055
46	0x3d895d9e	0.06707309
47	0x3d251026	0.040298603
48	0x3e119fce	0.14221117
49	0x3c043362	0.008068891
50	0x3d7e7a76	0.062128507
51	0x3d0cdcd0	0.03439027
52	0xbd28e8f3	-0.041237783
53	0xbe7a11b2	-0.24420813
54	0x3e5a7e09	0.21337141
55	0x3bd14d8e	0.006387419
56	0xbb7913e1	-0.0038006234
57	0xbe621dda	-0.220817
58	0x3cbba389	0.022905128
59	0xbd863249	-0.0655256
60	0x3e8a21ef	0.26979014
61	0xbc27b934	-0.010237027
62	0x3d43a16d	0.04776137
63	0xbcccb130	-0.024986833
64	0x3de95fa5	0.11395196
65	0x3bf48546	0.0074621765
66	0xbb6550ca	-0.003499078
67	0x3e11a31a	0.14222375
68	0x3d6e0baf	0.05811661
69	0xbebbc5f7	-0.36674473
70	0x3d0c9cba	0.034329154
71	0x3db82a8a	0.08992489
72	0x3ea34c0c	0.31893957
73	0xbdd70db9	-0.10500664
74	0x3e8489ab	0.25886282
75	0xbe6570f4	-0.2240637
76	0xbd2dc56f	-0.042424615
77	0x3d104a20	0.03522694
78	0xbd668385	-0.05627777
79	0x3db82a5d	0.08992455
80	0x3d8478a2	0.064683214
81	0x3dd2675a	0.10273619
82	0x3b9e0fc1	0.0048236554
83	0xbdc98e9d	-0.098416544
84	0x3dcfd061	0.10147167
85	0xbd0602f2	-0.032717653
86	0x3cc04a6e	0.02347299
87	0x3d692cb6	0.056927405
88	0x3cd56f2c	0.026053987
89	0xbc82cc2a	-0.015966494
90	0x3d082ff5	0.03324886
91	0xbade0de3	-0.0016941394
92	0xbc9eff90	-0.019408971
93	0xbe4fc269	-0.20289005
94	0x3d173e7c	0.036924824
95	0x3b9a58a5	0.0047102743
96	0x3d234ab7	0.039866176
97	0x3dc9ecd7	0.09859627
98	0xbe37cc24	-0.17948967
99	0x3d9746a4	0.073865205
100	0xbc9b8b99	-0.018987464
101	0x3bbc9dd2	0.0057561183
102	0x3d614e37	0.055006232
103	0x3d143679	0.03618476
104	0xbce55026	-0.02799232
105	0x3cdfe6d3	0.027331745
106	0xbe18344e	-0.14863703
107	0xbb4c2498	-0.0031149741
108	0xbd0c8c5c	-0.034313545
109	0x3f1a69c4	0.60317636
110	0xbe2af6e1	-0.1669574
111	0x3d7dd25a	0.061968185
112	0xbe3baf27	-0.18328534
113	0x3d0b0fbc	0.033950552
114	0xbe13ce05	-0.14434059
115	0xbe6110c3	-0.2197905
116	0x3df8174f	0.12113821
117	0x3de3fc28	0.11132079
118	0xbce9a84e	-0.028522637
119	0xbd551118	-0.052018255
120	0x3e8a922a	0.2706464
121	0x3d822931	0.06355513
122	0xbc6b0753	-0.014345008
123	0x3d20a270	0.039217412
124	0xbd84dfac	-0.064879745
125	0xbddb345c	-0.10703346
126	0xbd630ec3	-0.055434
127	0xbd90359f	-0.070414774
128	0x3d2d3b84	0.042293087
129	0x3e0fa22c	0.14026707
130	0x3d3f021a	0.046632864
131	0xbb922656	-0.0044601364
132	0xbe12ae6c	-0.14324349
133	0xbe3787ce	-0.17922899
134	0x3d4550ea	0.04817287
135	0x3d24320d	0.040086795
136	0xbc99c884	-0.018772371
137	0x3d06ce6e	0.03291171
138	0x3d3be673	0.04587407
139	0x3d7c2ef4	0.061568215
140	0x3d8a1f2b	0.06744226
141	0x3ccdf366	0.025140475
142	0xbe95924c	-0.29213178
143	0x3e3bbb70	0.1833322
144	0xbe28cbda	-0.16484013
145	0xbec86586	-0.39139956
146	0xbe1db9f6	-0.1540297
147	0x3de3d5f3	0.11124792
148	0x3e58f90a	0.21188751
149	0xbd19600a	-0.037445106
150	0x3d0a95b9	0.033834193
151	0x3f4d6ee1	0.8024731
152	0x3d35b628	0.04436317
153	0x3dad4f46	0.08462386
154	0xbd942e68	-0.07235414
155	0xbdf844e5	-0.121225156
156	0xbd81fb16	-0.06346719
157	0x3d17c91f	0.03705704
158	0x3d2eecc3	0.042706262
159	0x3d4a515e	0.049394004
160	0x3e156ff1	0.14593484
161	0x3dda3ef0	0.106565356
162	0x3e1f7e38	0.15575492
163	0x3d6ffc23	0.058590066
164	0xbe0bd0a1	-0.13653804
165	0x3db00d27	0.085962586
166	0xbcf1f3e9	-0.02953525
167	0x3b615df8	0.0034388285
168	0x3da24fe0	0.07925391
169	0x3d24041e	0.04004299
170	0x3ea12fd2	0.31481797
171	0xbcc1fb7e	-0.023679491
172	0x3dd07992	0.10179438
173	0xbd867840	-0.065659046
174	0xbdc24f25	-0.09487752
175	0xbdc39475	-0.095498
176	0x3d0585ca	0.032598294
177	0xbe1b1381	-0.15144159
178	0xbd8ee208	-0.06976706
179	0xbccbcdb4	-0.02487836
180	0xbdc135cc	-0.09434089
181	0x3e029106	0.12750635
182	0xbe5d43f2	-0.2160795
183	0x3e06a1c4	0.13147646
184	0x3d598908	0.0531092
185	0x3d9c71f3	0.076389216
186	0xbbe7b057	-0.007070582
187	0x3cfde068	0.030990794
188	0xbe7f95c2	-0.24959472
189	0xbb3f2f8d	-0.002917263
190	0xbe0c64c4	-0.13710314
191	0xbddf29d1	-0.10896648
192	0x3d9999ab	0.07500013
193	0x3dcaa749	0.09895188
194	0x3e9e4765	0.30913845
195	0xbea3417e	-0.31885904
196	0x3e4ea9d3	0.2018197
197	0x3d2cbcd4	0.042172268
198	0x3dc0ad0f	0.09408008
199	0xbd9935f6	-0.07480995
200	0x3e174655	0.14772923
201	0xbde10ce0	-0.10988784
202	0xbdf9f9dc	-0.1220586
203	0xbd55803d	-0.05212425
204	0xbe1288df	-0.14310025
205	0xbe22c831	-0.1589668
206	0xbe5ca1a5	-0.21546037
207	0xbd59b049	-0.053146634
208	0x3b390e11	0.0028237144
209	0xbf0abba0	-0.54192543
210	0x3bf98af7	0.007615443
211	0x3e353fda	0.17700139
212	0x3d506b84	0.050883785
213	0xbe1df98f	-0.1542723
214	0x3e0b66f0	0.13613486
215	0x3e3b33b5	0.18281443
216	0x3e4b1801	0.19833376
217	0xbe294353	-0.16529588
218	0xbe4f3add	-0.20237298
219	0x3e081b4f	0.13291667
220	0xbda3b5a8	-0.079936326
221	0x3d926765	0.07148627
222	0x3d1550bf	0.03645396
223	0x3c9b2b92	0.018941674
224	0x3d82768e	0.06370269
225	0xbe8ea1dc	-0.27857864
226	0xbd6682ae	-0.05627697
227	0x3d0c6e3f	0.034284826
228	0xbd490f98	-0.049087137
229	0xbce6747a	-0.028131712
230	0xbd3d2369	-0.046176348
231	0xbe126964	-0.14298016
232	0xbdb5cc66	-0.088768765
233	0x3d9e20f3	0.07721128
234	0x3de16a29	0.110065766
235	0xbba2d0fc	-0.0049687605
236	0xbf2c1012	-0.6721202
237	0xbcb5338d	-0.022119308
238	0xbe42cea9	-0.19024147
239	0xbbd3113d	-0.006441264
240	0xbd807407	-0.062721305
241	0xbcc146c9	-0.023593323
242	0x3d6686ef	0.056281026
243	0xbc5212b5	-0.012821843
244	0xbeb4ac5e	-0.35287756
245	0xbe8fba76	-0.28071946
246	0xbbca5dae	-0.0061757183
247	0x3dbda276	0.092595026
248	0xbe0110cc	-0.12604064
249	0xbd386f19	-0.045027826
250	0xbdb06510	-0.08613026
251	0xbde3d78b	-0.11125096
252	0x3d7e911b	0.062150102
253	0x3d6f6e63	0.058454882
254	0x3d245c22	0.040126927
255	0x3d91fd9f	0.071284525

model.l1.bias f4 [30]
0	0xbd4bcc5a	-0.04975543
1	0xbcb87308	-0.022515789
2	0x3bb09581	0.005388916
3	0x3ca79051	0.020454558
4	0x3d365ce5	0.044522185
5	0xbc49f1be	-0.012325702
6	0xbbe6b885	-0.0070410394
7	0x3d636120	0.055512547
8	0x3cf7926e	0.03022119
9	0x3d426553	0.04745991
10	0xbb162536	-0.0022910363
11	0xbc4d6640	-0.012536585
12	0x3ce16613	0.027514493
13	0xbd4eee98	-0.05052051
14	0x3ca7220e	0.02040198
15	0x3be2364e	0.0069034463
16	0xbac6e091	-0.0015173127
17	0xbb9f3b6f	-0.00485938
18	0xbc48c726	-0.012254512
19	0x3cce356b	0.025171956
20	0xbd1122df	-0.035433646
21	0x3d269c32	0.040676303
22	0x3c9e86e5	0.019351432
23	0xbcc357b9	-0.02384554
24	0x3cd9bcfa	0.026579369
25	0x3bcb1aa0	0.0061982423
26	0x3cb8961b	0.022532513
27	0xbc215c16	-0.009848615
28	0x3c8fbf37	0.017547233
29	0x3c32e343	0.010918441

model.l2.weight f4 [1, 30]
0	0x3f35a3bf	0.7095298
1	0xbf3d7fef	-0.74023336
2	0x3e81a52f	0.25321338
3	0xbf96498a	-1.1741192
4	0x3ea95b22	0.3307734
5	0x3e1ef5e8	0.15523493
6	0xbfee97c0	-1.864006
7	0xbec797a1	-0.3898287
8	0xbe22a91c	-0.15884823
9	0x3e2fe789	0.17178167
10	0xbe2c2070	-0.16809249
11	0x3f740cd6	0.95332086
12	0xbe736989	-0.23770727
13	0xbf994f79	-1.1977378
14	0x3ebc29f9	0.36750773
15	0x3f689f5e	0.90868175
16	0xbe4e0f34	-0.20122987
17	0xbe53de04	-0.20690161
18	0xbfd20955	-1.6409098
19	0xbe466e02	-0.19377902
20	0xb982fc31	-0.0002498343
21	0x3e3868af	0.18008684
22	0xbf8b6a56	-1.0891826
23	0x3de7e19d	0.11322329
24	0x3f81bcd1	1.0135747
25	0xbe09cee6	-0.13457832
26	0x3f04b62f	0.5184049
27	0xba34daf3	-0.0006899081
28	0xbf3f8684	-0.7481463
29	0xbe8a0a72	-0.26961094
