model_dsm11rmcov/v3-[60, 30]-0.0001-30.pth (torch, 87316 bytes, 5 tensors)

model.l1.weight f4 [60, 320]
000000 d4 40 50 3e f7 a6 90 bd 9b cb 61 3d a1 46 fc 3c
       0.2033723 -0.07063096 0.055125814 0.030795397
000010 5c 87 74 3d 6b d4 e7 3d 45 61 d3 3d cd b1 0a 3e
       0.0596994 0.113198124 0.10321287 0.13544388
000020 69 b3 a3 3d c5 a4 eb 3c 3f d1 58 3d a1 24 26 bd
       0.07993204 0.028765092 0.052933928 -0.040562276
000030 3c f8 46 3d 64 a1 33 bd 85 f1 7e bd 0e 0c 02 3b
       0.04857658 -0.043855086 -0.06224205 0.001984361
000040 af c6 ef 3c ac 17 1c bd ff b5 8e 3d 30 96 eb 3c
       0.029269544 -0.038108513 0.06968307 0.028758138
000050 37 5d 65 bc a5 88 8e bc 8c a5 da 3d 6e e2 2a bd
       -0.013999275 -0.017399142 0.10676107 -0.041719846
000060 c1 e3 bd 3c 88 d9 ff 3b 1c 39 9d bb 15 0e aa 3d
       0.02317989 0.007807914 -0.0047980677 0.08303467
000070 4d 9b 4d bd a6 5a 5e 3c 79 ff 67 bd 40 6e b0 3c
       -0.050196934 0.013571417 -0.056640122 0.021536946
000080 8a 64 ce 3c 41 b1 8b 3d 74 90 a7 3b a2 02 fd 3d
       0.025194425 0.06820918 0.0051136557 0.12354018
000090 72 cd 82 bc ef 45 15 be 64 0b 5b bd 4c cb c1 bc
       -0.015967105 -0.14577459 -0.05347766 -0.02365651
0000a0 09 06 bb bc 5c 00 14 bd 89 d9 08 be fb 7a 0e 3d
       -0.022830026 -0.036133155 -0.13364233 0.034785252
0000b0 40 4c 32 be 65 2d d6 bc 9a 66 57 bd 2d 35 5b bd
       -0.174119 -0.026144693 -0.052588083 -0.05351751
0000c0 a9 52 b1 bd 76 66 36 3e 25 ba 63 bd cf 4f 40 3c
       -0.08658344 0.17812523 -0.055597443 0.011737778
0000d0 b0 0e 0c 3e a1 6d 82 3b 90 31 74 bd e9 11 4d 3d
       0.13677478 0.003980354 -0.05961758 0.05006591
0000e0 09 72 b0 3c a0 97 af 3d 21 bb bd bd e8 7b 87 3d
       0.021538751 0.08573842 -0.09264208 0.0661543
0000f0 5b 39 7e bc 14 21 6f 3d fe 2d e8 bb a7 45 9c 3c
       -0.015516604 0.058381155 -0.007085561 0.019076182
000100 0f 3c 8d 3c c6 9e f8 bb 0b e3 02 3d ee 2e 62 39
       0.017240552 -0.0075872866 0.031954806 0.00021570522
000110 0b ed 9e bd 63 42 83 bc bd 88 46 bd a7 bb 48 bd
       -0.07760056 -0.016022867 -0.048470248 -0.049007084
000120 9b 5d a7 bd 97 6b b0 3d a0 65 93 bd 8b c1 b3 bc
       -0.08172151 0.08614271 -0.07197118 -0.021942874
000130 ad 4b 1b bd 73 a4 35 3d f3 f1 aa bc 9a 8b 40 be
       -0.037913967 0.044346284 -0.020867324 -0.18803254
000140 cb e1 00 bd 42 ff e2 3c bb aa d7 bd a7 dd a5 bc
       -0.031465333 0.027709607 -0.10530611 -0.020247294
000150 8d 3d 70 3c 51 37 9a 3d 2c 1d 1f bd 1f 73 65 bc
       0.014663112 0.07530082 -0.03884618 -0.014004498
000160 15 ea 8b 3a fd 73 61 bc 24 60 83 bc 3d a6 b9 3d
       0.001067462 -0.013760564 -0.016037054 0.090649106
000170 0a ff d5 3b 45 de 3d 3d db 6d 1d 3d ec 62 73 bd
       0.006530647 0.04635455 0.038434844 -0.05942051
000180 cd 5d 98 bc 3a 44 97 bb 43 06 aa 3d 51 70 a6 3c
       -0.018599415 -0.0046162875 0.083019756 0.020317229
000190 df 8e 0e 3d 4d ce 06 be 63 8b d7 3c 7c 7f 78 3c
       0.03480422 -0.13164635 0.026311582 0.015167113
0001a0 03 76 af bd 2c 52 a6 3b 91 71 df 3d dc 61 81 3d
       -0.08567431 0.0050757136 0.10910333 0.06317493
0001b0 c3 24 80 3c 71 51 fd bd 74 58 65 3d 71 b9 6b 3b
       0.01564253 -0.12369049 0.05599256 0.0035968686
0001c0 de 88 ad bc 20 fc 61 bd a7 3c 15 3e 44 45 5f bc
       -0.021183427 -0.055172086 0.14573918 -0.013627354
0001d0 32 6d de bd 72 0b 01 bd 4e f2 98 3d e9 b7 bd bd
       -0.10860671 -0.031505056 0.07468091 -0.09263594
0001e0 60 42 39 bd 4a a9 d8 bb 38 88 65 3a 81 15 8a bd
       -0.045229316 -0.0066119777 0.0008755955 -0.06742383
0001f0 cf c0 48 3d b5 bd 83 3d e9 69 86 3d f7 b0 54 3a
       0.049012 0.06432668 0.065631695 0.0008113528
000200 e4 f6 de 3c 2c 69 4a bd 03 1c 2d bd 03 0f 92 3d
       0.027217336 -0.049416706 -0.042263042 0.071317695
000210 ff 99 62 3d 61 13 c6 3d b6 dc 3f 3c 63 ea 89 3d
       0.055322643 0.09671665 0.011710336 0.06734159
000220 46 37 36 bd cc 4b 47 bd 15 53 5a bc da 7b 63 3d
       -0.044486307 -0.04865627 -0.013325472 0.055538036
000230 7a 3c 9b bd 9f b1 2c 3d ac 20 51 bc e8 c6 f4 bc
       -0.07579894 0.04216158 -0.012764137 -0.029880002
000240 5a b6 8b 3d b0 7b b7 3d 8b b8 52 bc 08 04 30 bc
       0.0682189 0.089591384 -0.012861381 -0.010743149
000250 ed e9 60 bd d0 fa be bc ec e5 1f 3c 94 73 9d bd
       -0.05491059 -0.023312956 0.0097594075 -0.076880604
000260 c2 57 a9 bc 95 3f 66 3d 17 f8 40 bd 09 30 9a 3d
       -0.020671729 0.05621298 -0.047111597 0.07528693
000270 c3 d4 7a 3d 7f 9a f0 bc d0 fd 5a bc 38 6a 0a bb
       0.06123806 -0.029370544 -0.013366178 -0.002112044
000280 ce 82 56 3d 30 63 b7 bc db 46 69 bd 4a b8 ba bb
       0.05237084 -0.022386163 -0.05695234 -0.0056982385
000290 78 11 ad 3c 2b 8a fa bc e7 61 31 3d 0f 0b 20 3d
       0.021126494 -0.030583462 0.043306258 0.039073046
0002a0 84 86 87 bd 20 60 a2 3d 2e 83 f7 bd 8b 32 d7 bc
       -0.06617454 0.07928491 -0.120855674 -0.026269218
0002b0 5f 2a 45 3d eb a9 6b 3d a7 8d d4 ba 80 f6 44 3d
       0.04813611 0.057535093 -0.0016216532 0.048086643
0002c0 43 b7 7a bd 1f cb c8 3d 76 5f a4 bd e1 bc cc b9
       -0.06120993 0.09804367 -0.0802602 -0.00039050638
0002d0 0f a2 0e 3d 70 fc 9d 3c 1b 10 f9 3d 80 8e 95 bc
       0.03482252 0.01928541 0.12161275 -0.018256426
0002e0 12 ee 7e bc 55 0b 67 bd e8 83 95 bb 24 cf c9 3c
       -0.01555969 -0.05640729 -0.0045628436 0.024634905
0002f0 d1 69 09 3e c9 be d5 bc 5d e8 5e 3d 51 0f 3c 3c
       0.13419272 -0.02609195 0.054420818 0.011478261
000300 38 6c 00 bb ee 46 7c bc 3d 85 3d be 55 29 6c 3c
       -0.0019595753 -0.01539777 -0.18507858 0.014414151
000310 38 a6 30 bc 09 9d 0d 3d 6f 2b a9 bd b3 e0 9b bc
       -0.010781817 0.03457359 -0.082602374 -0.019028043
000320 66 2b b7 bd 3a be c3 3c 42 97 90 3b fd 39 bf bc
       -0.089438245 0.023894418 0.0044125626 -0.02334308
000330 03 1e cc bc 04 e7 43 3d d6 cd 5e 3c 02 45 3b bd
       -0.024916654 0.047827736 0.01359888 -0.045720108
000340 93 82 2b 3c 06 32 e1 3d 60 e1 12 3d 75 5f 03 bd
       0.010468143 0.10995869 0.035859466 -0.032073457
000350 21 b3 92 3d ef 99 82 3e 3f 94 82 3d a8 b0 9b bd
       0.071630724 0.25508067 0.06375932 -0.07602054
000360 37 7e ae bd cc 6c 64 bd c1 55 8c 3d 2a 0b 54 bb
       -0.08520167 -0.05576782 0.06852294 -0.0032355287
000370 57 4f 9d b9 c7 2b e2 3c fd 07 bc bd c1 89 87 3b
       -0.00030004486 0.027608765 -0.09181211 0.0041362946
000380 df 79 33 3b 55 8a fe 3b 15 62 0c 3d 11 92 ff 3c
       0.0027385873 0.0077679553 0.034273226 0.03119758
000390 05 15 2b bd f2 78 1a be 8f bb bf 3b b1 5d cf bc
       -0.041768093 -0.150852 0.005851216 -0.02531323
0003a0 4a 09 ab 3d 24 0b 20 bd 9a 61 3f bd c7 0e 32 bc
       0.08351381 -0.039073125 -0.04672394 -0.010867781
0003b0 0a 91 14 3e 41 2c 51 3d 88 72 77 bc 7f 49 df 3b
       0.14508453 0.051067594 -0.01510299 0.0068141813
0003c0 9d f5 bd 3c 7b 03 5e bd 1a 60 d2 bd dc 29 37 bb
       0.023188407 -0.054202538 -0.10272236 -0.0027948534
0003d0 30 04 97 3d 1d 39 4b 3d ee f0 3c bc 31 d1 9a bd
       0.073738456 0.049615014 -0.0115320515 -0.07559431
0003e0 e3 06 8e bc 10 19 94 bc d5 32 6f 3d 31 78 23 3e
       -0.017337268 -0.018078357 0.058398087 0.15963818
0003f0 63 d4 b3 bd fe 27 92 3d 02 7a 67 3d f7 e1 4a 3c
       -0.08780744 0.07136534 0.05651284 0.012382976

model.l1.bias f4 [60]
000000 ca c4 84 bc 0d 26 e8 3c d2 86 fa bc 4d 88 58 3d
       -0.016207118 0.028338457 -0.030581865 0.05286436
000010 a1 4e 1d 3d 1d 0e fe bb df a9 27 3d b7 32 3f 3d
       0.038405064 -0.0077531473 0.040933486 0.046679225
000020 5a 38 09 3d 89 86 28 3c 47 59 d2 3c 9b 06 6c bd
       0.033501007 0.010285982 0.025677336 -0.057623487
000030 d1 e9 73 3c 22 76 b5 3c a4 dc 77 bd c6 89 1a 3c
       0.014887289 0.022151057 -0.060513154 0.009432262
000040 2e b0 3e 3d 06 40 51 bc b7 4b 9e 3c 66 6e 29 3d
       0.046554737 -0.012771612 0.019323213 0.04136505
000050 6a 04 91 bc b8 7c 19 3c 62 29 41 bd f8 29 39 bd
       -0.0177023 0.009368114 -0.047158606 -0.04520604
000060 0d 79 fb 3c 91 18 e8 3c 41 6d 3d bd a8 ad 12 ba
       0.03069737 0.028332027 -0.04624677 -0.0005595335
000070 71 18 fc 3c 3e b3 bf 3b 71 20 38 bd 77 b8 31 3d
       0.030773373 0.0058502248 -0.044952814 0.04338881
000080 1d 52 e0 bc ff 8f 68 bc 52 52 ff bb 14 9f 0c 3d
       -0.027382905 -0.014194488 -0.007791796 0.034331396
000090 92 87 25 bc 7d ec f3 bb 00 de 80 3c ba d4 73 3c
       -0.010103123 -0.007443963 0.015730858 0.014882261
0000a0 d2 1d 0c 3d a3 11 51 bd 92 e5 02 bb 77 50 fe 3c
       0.034208126 -0.05104221 -0.001997326 0.031044228
0000b0 96 4b 47 3c e8 a5 fb 3b da f6 0e 3d 33 18 4e bb
       0.012164017 0.0076796897 0.034903385 -0.003144753
0000c0 03 c5 55 bc 6b f1 5f bd ff 48 0d bd 95 5a 27 3d
       -0.01304746 -0.054673593 -0.034493443 0.04085787
0000d0 16 5a b2 3c ad 8b 34 bc 8c 06 e8 3c 56 f1 78 bd
       0.021771472 -0.011019629 0.028323434 -0.06077703
0000e0 7f 8e d3 ba 88 35 13 bc c0 e7 62 bd 3c d3 99 bc
       -0.001614049 -0.008984931 -0.055396795 -0.018777482

model.l2.weight f4 [30, 60]
000000 77 1c ff 3c d4 ed a4 3d 77 ca e5 bd 65 20 9c 3c
       0.031141503 0.080531746 -0.11220258 0.019058416
000010 bf ef b5 bd 6c 0a c3 3c ac 4c b0 3d 81 6a 68 be
       -0.088836186 0.02380868 0.08608374 -0.22696878
000020 0b d2 5a 3e 3e 1b 6b bd 77 33 b1 bb 2e e8 df 3d
       0.21369188 -0.057399027 -0.0054077464 0.10932957
000030 1c f6 a3 3b a9 6f 96 3e 0e c6 a7 be 88 55 12 be
       0.0050037038 0.29382065 -0.3276829 -0.1429044
000040 57 cb 4f 3d 4c d0 58 3e 21 0f a6 3d a7 40 63 3d
       0.05073103 0.21173209 0.08108354 0.05548158
000050 cf f5 ab 39 c2 87 14 be e5 5d 0b be 7d 4b 83 be
       0.00032798803 -0.14504912 -0.13610037 -0.2564353
000060 51 e6 8f 3d 30 51 90 3d f6 b7 d4 bd fe 34 7f 3c
       0.07026351 0.07046735 -0.1038665 0.015576599
000070 57 10 d5 3e 26 3e 80 3d a3 a8 57 3d f0 20 2f 3d
       0.4161403 0.06261854 0.05265106 0.04275602
000080 91 06 55 bd 1e 5b 04 3d 90 10 0d 3e 53 64 6e bd
       -0.052008215 0.03231346 0.1377585 -0.058201145
000090 ca 9f 3e 3e 25 3f 95 bd 18 12 2a 3d 5c 04 e3 3d
       0.18615642 -0.072874345 0.04152116 0.11084816
0000a0 d0 95 8b 3d 6a cc 92 3d 92 b9 eb 3c 29 2f 2a be
       0.06815684 0.07167895 0.02877501 -0.16619553
0000b0 b2 56 ae 3b fd 3d 6d 3d e7 9c f3 bd 18 1b c3 3e
       0.0053203935 0.057920445 -0.11895161 0.38106608
0000c0 85 f2 8b bc a7 96 50 3c 78 2d 83 bd 12 10 6c bd
       -0.017083416 0.012731231 -0.06405157 -0.057632513
0000d0 67 f4 69 3d 8e 13 7c 3d bc 85 c6 3d 1c 2d a0 be
       0.057117846 0.061542086 0.096934766 -0.31284416
0000e0 0e 91 3e bd 29 9b 01 bd 42 01 1a bd ad 95 48 bd
       -0.046525054 -0.031642113 -0.037598856 -0.048970867
0000f0 fb ae 91 bd 74 76 0d 3d cf b2 9f 3d a7 cf 66 3d
       -0.07113453 0.034536794 0.07797777 0.056350376
000100 59 00 d6 3d 50 3e 77 bd fb 9b 91 bd cb 41 c0 bc
       0.10449285 -0.06036216 -0.07109829 -0.023468873
000110 b4 02 0f bd ed ba bc 3c 39 33 d5 3d 0c 33 51 3e
       -0.034914687 0.023038352 0.104101606 0.20429629
000120 46 56 64 3d 8b 0f 89 3e f6 45 71 be 6e a0 bc bd
       0.05574634 0.2676967 -0.23561844 -0.09210287
000130 47 a6 d6 bb 3c 99 c1 3d 57 c1 3c 3d 66 05 06 3d
       -0.0065505835 0.09453055 0.04608282 0.032719992
000140 26 63 23 3e 5b 4a c3 bc 44 c7 ae bd f7 6a 36 be
       0.15955791 -0.023839166 -0.08534101 -0.17814241
000150 37 19 ee bd c8 e1 8a 3d 43 8b da bc d9 d6 79 3d
       -0.11625903 0.067813456 -0.026677733 0.06099591
000160 67 ec 88 3e 2d 13 12 3d 4c dc 48 3e 6d 95 5b bc
       0.2674286 0.03566282 0.19615287 -0.013402325
000170 8a 0d 55 bd 65 6f 06 3d 04 65 23 bd 50 0a 29 be
       -0.052014865 0.032821078 -0.039891258 -0.1650784
000180 57 cd 6b 3c 71 8c 00 3e 9d ab 2c bd df c3 15 3d
       0.014392219 0.12553574 -0.04215585 0.03656375
000190 57 93 6d 3e ab 1f af bd 27 26 fe bc 25 2a 7b bd
       0.23200737 -0.08550962 -0.031024052 -0.06131949
0001a0 ac 04 4a 3d ab ee 54 bc bc 06 01 3d 96 27 a3 3e
       0.04932086 -0.012996356 0.031500563 0.3186614
0001b0 2e 4d 21 3d bd 07 2a 3d 6b 46 04 3e 70 fb 0d be
       0.039380245 0.041511286 0.12917487 -0.13865447
0001c0 9b fa f5 bc 17 86 d5 bd ea 4e e5 3d ce c9 77 be
       -0.030026725 -0.10425966 0.11196692 -0.24198076
0001d0 13 8b 0b bd c3 89 0e 3b 93 b6 14 3e 8d 4d af bd
       -0.03406818 0.0021749593 0.14522772 -0.085597135
0001e0 e4 d4 b1 bb 73 93 a7 bd 88 23 53 bd 5c a0 9f bd
       -0.00542699 -0.081824206 -0.051547557 -0.07794258
0001f0 39 3a 8f 3d 72 7b c1 bd 5c 46 8c 3d 01 9d 02 3e
       0.06993527 -0.094473734 0.068493575 0.12755205
000200 ca 35 ad 3d 0a ce fb bc 58 ea 3a 3e b2 b6 bd bc
       0.08457525 -0.030737896 0.18253458 -0.023158405
000210 57 5d 0f bd f7 2e 34 be fe a7 9b 3e d4 6b ad 3e
       -0.035001125 -0.1759604 0.30401605 0.3387133
000220 0a e3 68 3c dc b6 36 be 02 3c ae bd 96 e3 e4 3d
       0.014214287 -0.17843193 -0.08507539 0.11176221
000230 3c 81 d3 3d 79 91 e3 bd 6e 01 ae bd 2e 48 91 3e
       0.10327384 -0.11111731 -0.084963664 0.2837538
000240 54 11 a1 bd 10 57 96 bd 32 9f d9 3c ba 4a d0 ba
       -0.07864633 -0.073408246 0.026565168 -0.0015891411
000250 4f 5a ad bd fa d5 fe b9 53 fe 1e bd 85 c8 a6 3c
       -0.084644906 -0.0004860608 -0.03881676 0.020359287
000260 f2 db a9 3d 33 35 f0 3d 69 62 1d be 0c c2 05 be
       0.08293904 0.11728897 -0.15369572 -0.13062304
000270 c4 e7 8c bd a7 c1 5a bd 0a 3d 32 bc 0e 3f 9a bd
       -0.06880143 -0.053407338 -0.010878811 -0.07531558
000280 e1 57 84 bd 4b 64 05 3d 1f 88 83 bd 78 fc 81 bd
       -0.06462074 0.03256635 -0.064224474 -0.06346983
000290 bf 35 fb 3d 72 86 eb bd 7c 42 62 bd 6c 35 8d 3d
       0.12266111 -0.11500253 -0.055239186 0.06894955
0002a0 84 84 38 be 14 71 eb 3d a0 fd 09 3e bb c5 3f 3e
       -0.180193 0.11496177 0.13475657 0.18727772
0002b0 a9 b7 d2 bd 83 14 ce bc 78 8c a4 3d 67 f8 46 3e
       -0.10288937 -0.025156265 0.08034605 0.19430695
0002c0 06 58 c5 bd 85 f4 23 3d bd df fd 3c 14 b6 7f 3d
       -0.0963593 0.040028114 0.030990476 0.062429503
0002d0 94 9d c4 bd 89 e8 9d bd ae 65 cb bc c3 c8 dc bd
       -0.09600368 -0.07710368 -0.024828758 -0.1078048
0002e0 ff d0 e2 bd f2 ff 10 3d 71 1d 23 3d c0 ee cd 3d
       -0.11075019 0.03540034 0.039823 0.100553036
0002f0 c7 31 81 3d 75 6c 67 3d 55 f2 a0 3d 35 e8 95 bc
       0.063083224 0.056499917 0.07858721 -0.018299202
000300 25 e0 3e 3d 65 14 7d be d9 ce 9b 3e f6 02 8b 3e
       0.04660048 -0.24714811 0.3043125 0.27150697
000310 07 b3 50 bd 16 55 98 3c 2c 74 ae 3d ca 01 8a bd
       -0.050951984 0.01859526 0.08518252 -0.067386225
000320 a4 bb a1 bb 61 dd 6c 3d 5f 02 89 3c 8e 05 9a 3e
       -0.0049356986 0.05782831 0.016724763 0.30082363
000330 09 a6 4f 3c 18 e2 cd 3a 1e bf 88 3d 8e 4e a9 3d
       0.012673863 0.001570764 0.06677078 0.08266936
000340 1c 7b 72 3c 1c bc 4a bd af cd d4 bc 32 02 86 bd
       0.014799859 -0.0494958 -0.025976984 -0.065433875
000350 e0 ea 7b 3d 70 2d 1c ba 0d ba b2 3c da f8 9c bd
       0.06150329 -0.00059576984 0.021817232 -0.07664652
000360 46 08 12 be 9c 8c f2 3d 4f 22 eb bd 0c c3 dc bd
       -0.14260969 0.11843225 -0.11481153 -0.1077939
000370 58 3f 1c 3b 5a d1 df bd 1f f8 99 bc 0a 72 b6 bd
       0.0023841467 -0.109286025 -0.018795071 -0.0890847
000380 a0 e3 a6 bb 38 27 b7 bd ae 5f 98 bd 06 95 e3 bc
       -0.005093053 -0.08943027 -0.074401245 -0.02778102
000390 16 48 9a 3d 9f 81 04 3d b1 c9 ec bc ff b3 f2 3d
       0.075332806 0.03235018 -0.028904768 0.11850738
0003a0 5f 3b 45 bc 53 76 dc 3d 4d c9 10 bd dd f7 20 3e
       -0.012038081 0.10764756 -0.035348225 0.15719552
0003b0 21 04 99 bd 43 30 9a bd ad 43 7e 3d 93 ea 05 3e
       -0.07471491 -0.075287364 0.06207626 0.13077764
0003c0 5e 67 99 3d 94 ab 7c be 6f 73 74 3d a5 7b c0 3d
       0.07490419 -0.24674827 0.0596804 0.09398583
0003d0 59 18 78 3d c5 5f 22 3c a2 ff d8 bc ca 4e 10 3e
       0.060570095 0.009910529 -0.026489083 0.14092556
0003e0 87 4e 0b 3c 22 e6 31 bd bf e1 c7 3d 70 68 a2 3d
       0.008502609 -0.043432362 0.097598545 0.07930076
0003f0 a9 49 81 bd f7 4c 8b be 62 fe 0b 3e 61 23 a1 3e
       -0.06312878 -0.27207157 0.13671258 0.31472304

model.l2.bias f4 [30]
000000 53 d6 57 bd 6c cb 66 bc f0 ab 90 3d ba bf f9 bb
       -0.05269463 -0.0140865855 0.070640445 -0.0076217325
000010 45 41 41 bd c8 5c 19 bd b6 76 ee bc 76 03 62 3c
       -0.047181387 -0.037442 -0.02910934 0.01379477
000020 6f e1 0f 3d c2 cb 27 3d f3 8c 21 bd 50 fd bf bc
       0.0351271 0.040965803 -0.03944106 -0.023436219
000030 da 23 ba 3d a0 f5 14 bd 6c 47 7a 3d e0 65 e7 bb
       0.090888694 -0.03636706 0.06110327 -0.007061705
000040 f9 dd 01 bd aa 86 a8 bd 6b 4a 3c bd 57 93 95 3a
       -0.03170583 -0.0822881 -0.045969408 0.0011411709
000050 47 f0 17 3d 43 6c 7e bb c6 be 82 3c 13 1b cd bc
       0.03709438 -0.0038821853 0.015960108 -0.025037324
000060 9e b6 19 bc 2f 91 30 3d 0e 2a bc 3c a6 95 a2 3d
       -0.009381918 0.043107208 0.022969272 0.079386994
000070 41 3c a2 3d 08 e8 3b 3d
       0.07921649 0.04587558

model.l3.weight f4 [1, 30]
000000 f9 27 a0 be c0 b6 cf be a0 f2 86 3e 2e dd 0c 3e
       -0.31280497 -0.40569115 0.26356983 0.13756248
000010 b6 0d 80 3e 01 b1 b8 be 73 22 a3 3e 59 d3 bb be
       0.2501046 -0.36072543 0.3186222 -0.36684683
000020 9b 29 03 be 0a 89 1f 3e 6a a0 b9 be f3 44 d9 be
       -0.1280884 0.1557962 -0.362552 -0.42435417
000030 c6 64 22 3e 14 77 cd be 61 15 22 be 40 61 6f be
       0.15858755 -0.40129912 -0.15828468 -0.23376942
000040 fe 58 43 3e 4f e0 a2 3e 9b f9 71 be 4e 2f 3b 3e
       0.19076917 0.3181176 -0.23630373 0.18279764
000050 61 42 e2 3d 44 34 87 3e 99 96 d6 be 27 b5 71 3e
       0.11047817 0.26407063 -0.41911772 0.2360426
000060 88 71 52 be 09 f3 fb 3d 14 7c 5c 3e 24 fa 53 3e
       -0.20551121 0.12302215 0.21531707 0.2070089
000070 a4 84 08 3e c3 26 86 3e
       0.13331848 0.26201448
