model_dsm11rmcov/v3-[60, 30]-0.0001-70.pth (torch, 87316 bytes, 5 tensors)

model.l1.weight f4 [60, 320]
0	0x3d260284	0.040529743
1	0xbd965811	-0.07341016
2	0x3d9785a0	0.07398534
3	0x3db56cff	0.0885868
4	0xb8a00f53	-7.632249e-05
5	0x3daf2f52	0.085539475
6	0x3d9d8191	0.076907285
7	0x3df590fd	0.11990545
8	0xbd13b609	-0.036062274
9	0xbd0a9f14	-0.033843115
10	0x3c022902	0.007944347
11	0xbd1f222b	-0.038850944
12	0xba4ec390	-0.00078874175
13	0x3da3e93d	0.08003471
14	0xbd079b0f	-0.03310686
15	0xbd8c291e	-0.0684378
16	0xbd2232a6	-0.039599083
17	0xbca29b58	-0.019849464
18	0xbe33efdb	-0.17571966
19	0x3d0d6cf2	0.034527726
20	0x3ca34d9a	0.019934464
21	0x3d6d35a8	0.0579125
22	0xbe11765c	-0.14205307
23	0xbd3f8dac	-0.04676597
24	0x3de17160	0.11007953
25	0xbc246993	-0.0100349365
26	0xbd8e40e3	-0.0694597
27	0x3e5e099d	0.21683355
28	0x3e063bf8	0.13108814
29	0xbdafaa68	-0.08577424
30	0x3d8ee7ab	0.06977781
31	0xbcc9502c	-0.024574362
32	0x3b938b03	0.0045026555
33	0xbde74d51	-0.11294044
34	0x3dc08458	0.094002426
35	0x3d84b0e5	0.064790525
36	0x3dd78348	0.10523087
37	0xbe8b001b	-0.27148518
38	0x3d533d3c	0.05157207
39	0x3cb1301f	0.021629391
40	0xbd5b5df1	-0.053556386
41	0xbd29ce95	-0.041456778
42	0xbc1dd923	-0.009634289
43	0xbcf3fc11	-0.02978328
44	0xbdca1c81	-0.09868718
45	0xbd82bd17	-0.06383722
46	0x3d24f24d	0.04027014
47	0x3ac0021c	0.0014649066
48	0xbd959966	-0.07304649
49	0x3d981813	0.07426467
50	0xbc959830	-0.018261045
51	0xbdd2f9bf	-0.103015415
52	0x3c8ea781	0.017413856
53	0x3da9fef0	0.083005786
54	0x3d46a84e	0.04850035
55	0x3cbf8163	0.023377126
56	0xbd9b4be1	-0.07582832
57	0x3c901414	0.017587699
58	0xbdaaf2c3	-0.083470844
59	0x3d1f0383	0.03882171
60	0xbe3f26a2	-0.18667081
61	0xbb9a7d29	-0.0047146273
62	0x3be1b661	0.0068881963
63	0xbc1ab20f	-0.009441867
64	0x3cb655bf	0.022257684
65	0xbd2510b6	-0.04029914
66	0x3daa4569	0.0831402
67	0xbd20c608	-0.039251357
68	0xbdd7badd	-0.10533688
69	0x3df6a809	0.12043769
70	0x3d2dee97	0.042463865
71	0xbe1c7f79	-0.15283002
72	0xbdfd5ebd	-0.123715855
73	0x3d6e1584	0.058125988
74	0xbe40e817	-0.18838535
75	0xbd443845	-0.047905225
76	0xbd8ea4d9	-0.06965036
77	0xbda95fe3	-0.08270242
78	0x3da86ea8	0.08224231
79	0xbd4acc9f	-0.049511548
80	0x3d4ee3a4	0.050510064
81	0x3c6dacdb	0.014506544
82	0xbd02c7b8	-0.031928748
83	0x3e0b1b8f	0.13584732
84	0xbd925eda	-0.07146998
85	0x3bb172d5	0.0054153004
86	0x3d0fcd3e	0.035107844
87	0x3a0d5ebe	0.0005392841
88	0xbc2788ea	-0.010225514
89	0x3cd802d8	0.026368544
90	0xbd00bd4f	-0.03143054
91	0x3d988090	0.07446396
92	0xbd3e6f6e	-0.046492986
93	0x3d940eaf	0.07229363
94	0xbcf4ff9d	-0.029907042
95	0xbda868cf	-0.08223116
96	0xbdbb50db	-0.09146281
97	0x3dea8ede	0.11453031
98	0x3d67090c	0.056405112
99	0x3c6abb61	0.014326901
100	0x3b777b90	0.0037762858
101	0xbd2a3a45	-0.041559476
102	0xbb14ae1d	-0.0022686787
103	0xbdee78b1	-0.11644114
104	0x3d0dee77	0.034651246
105	0x3d189a82	0.037256725
106	0x3de9794a	0.11400087
107	0x3d8b4cc8	0.06801754
108	0x3ce36424	0.027757712
109	0xbdee3736	-0.116316244
110	0x3e012151	0.12610365
111	0xbb1905d7	-0.0023349428
112	0x3d1a3d75	0.037656266
113	0xbca70f21	-0.020392956
114	0xbcf995f3	-0.03046701
115	0xbd83d22b	-0.06436571
116	0xbdbcc318	-0.09216899
117	0xbd4bf159	-0.049790714
118	0xbc62e4af	-0.013848468
119	0x3ce9917a	0.028511751
120	0xbd4c3e85	-0.04986431
121	0xbdcd83af	-0.10034882
122	0xbc855b6f	-0.01627895
123	0xbd5d4736	-0.05402299
124	0xbd96dce8	-0.07366353
125	0x3ddf1c16	0.10894029
126	0x3c7a3ff3	0.015274036
127	0x3cdc13a3	0.026864832
128	0xbcfbbe94	-0.030730523
129	0xbdc73bc9	-0.097282
130	0xbd032a3e	-0.032022707
131	0x3dbf073f	0.09327554
132	0x3c89ddb2	0.016829345
133	0x3debe163	0.115175985
134	0xba656fa7	-0.0008752294
135	0x3cefcb59	0.029271768
136	0x3db05657	0.08610218
137	0xbd044488	-0.03229192
138	0xbcb54702	-0.022128586
139	0x3d4b1804	0.04958345
140	0xbd217d28	-0.039426
141	0xbd90bc77	-0.07067197
142	0x3ddc73bd	0.10764263
143	0xbd480afb	-0.048838597
144	0x3d9d7b28	0.07689506
145	0x3dac97f7	0.084274225
146	0x3dbf6ddc	0.09347126
147	0xbdcff780	-0.10154629
148	0x3bba310e	0.0056821173
149	0x3d4bde59	0.049772594
150	0x3cab775c	0.020930938
151	0xbd2f17d9	-0.042747352
152	0x3c0b88fc	0.008516546
153	0xbcd1c18b	-0.025604984
154	0x3d831344	0.06400159
155	0x3de8d23a	0.113682225
156	0x3db7d23b	0.08975645
157	0x3d9f77b9	0.07786507
158	0xbc5bc3da	-0.013413394
159	0x3d4a2fc2	0.04936195
160	0x3d7dac7f	0.061932083
161	0xbd35a93f	-0.04435086
162	0x3cd2c2d5	0.025727669
163	0x3d1c6748	0.038184434
164	0x3aed0409	0.0018082868
165	0xbd1ae4a8	-0.03781572
166	0xbcab83af	-0.020936815
167	0x3d5f959c	0.054586038
168	0xbd832866	-0.0640419
169	0x3d2e856a	0.042607702
170	0xbd8d9d5c	-0.069147795
171	0x3d649230	0.055803478
172	0xbaf34643	-0.0018560368
173	0xbcfa02df	-0.030518947
174	0x3daf04a8	0.0854581
175	0x3d51387e	0.051079266
176	0x3ce0776d	0.027400697
177	0x3d7872dc	0.060656413
178	0x3c4bf53a	0.012448603
179	0x3b8e5891	0.004344054
180	0x3d9b26d1	0.07575763
181	0x3c232e41	0.009959758
182	0xbba155a3	-0.004923539
183	0xbdc582b3	-0.096440695
184	0xbd86d62b	-0.06583818
185	0xbc4381c4	-0.011932794
186	0x3d066277	0.032808747
187	0xbc972cfd	-0.01845407
188	0x3d90da48	0.07072884
189	0x3c587947	0.0132125085
190	0xbcc4470d	-0.02395966
191	0x3ceedc7d	0.029157871
192	0xbd5a2017	-0.05325326
193	0xbc377706	-0.011197811
194	0xbcbb7af7	-0.022885783
195	0xbd9996f7	-0.074994974
196	0x3d00b725	0.03142466
197	0x3c2d2a90	0.01056923
198	0xbcdd7ad2	-0.027036104
199	0x3d9dfd03	0.07714274
200	0xbe0fa473	-0.14027576
201	0x3d6f788b	0.058464568
202	0x3d3cbe1c	0.04607974
203	0x3c1a8cb1	0.0094329575
204	0x3e2f14a6	0.1709772
205	0x3d9e9262	0.07742764
206	0x3d7ccebb	0.06172059
207	0xbd7efc64	-0.062252417
208	0xbda707ed	-0.081558086
209	0x3d3af49f	0.045643445
210	0xbd940cf3	-0.07229032
211	0x3be1dcb7	0.0068927663
212	0xbc8a34fc	-0.016870968
213	0x3d60635f	0.054782268
214	0xbcf448e6	-0.029819917
215	0xbdf73bfa	-0.120719865
216	0xbdeb296f	-0.11482512
217	0xbd417a52	-0.047235794
218	0x3e312d21	0.17302372
219	0xbbf00414	-0.007324705
220	0xbcaa5ff6	-0.02079771
221	0xbc9fa2b3	-0.01948676
222	0xbda3034e	-0.07959615
223	0x3d21c47c	0.039494023
224	0xbc5cc905	-0.013475661
225	0x3e033833	0.12814407
226	0xbc8e6f89	-0.017387168
227	0x3c8d10aa	0.01721986
228	0x3df029b1	0.11726702
229	0x3ccbec42	0.02489293
230	0xbc2c8d53	-0.010531741
231	0xbd0e91f4	-0.03480716
232	0x3dd8da63	0.10588529
233	0xbd299503	-0.041401874
234	0xbcf561ed	-0.029953921
235	0x3d0a6876	0.033791028
236	0x3e0d3288	0.13788807
237	0xbbe61db9	-0.007022586
238	0x3ca57461	0.020197095
239	0x3c5e3489	0.01356233
240	0x3d8537df	0.06504797
241	0x3bedd495	0.007258008
242	0x3cb7009f	0.022339163
243	0x3d78ea80	0.06077051
244	0x3d994e73	0.07485666
245	0x3c979bd8	0.01850693
246	0x3de95ecc	0.11395034
247	0xbbb82e07	-0.0056207213
248	0xbdcd85f1	-0.10035313
249	0x3d291899	0.041283224
250	0xbbfee338	-0.0077785514
251	0x3e4cd2d6	0.20002303
252	0x3c1230c7	0.008922762
253	0x3d6be96e	0.057595663
254	0xbd1cd780	-0.038291454
255	0x3d2f368c	0.04277663

model.l1.bias f4 [60]
0	0x3d12dff9	0.03585813
1	0xbd628095	-0.055298407
2	0xbd8095a5	-0.062785424
3	0xbd4159f4	-0.047204927
4	0x3d1e8756	0.038703285
5	0xbd533cda	-0.051571704
6	0x3d21f17c	0.039536938
7	0xbbca3f9d	-0.006172134
8	0xbc4702f2	-0.012146698
9	0x3bdae8c5	0.0066805803
10	0xbd0038a3	-0.031304013
11	0xbd61d9de	-0.055139415
12	0x3c0388ef	0.008028253
13	0xbb945e3d	-0.0045278356
14	0x3c124d8e	0.008929623
15	0x3d219b5e	0.03945481
16	0xbd2278c4	-0.039665952
17	0xbc479159	-0.01218065
18	0x3c78b148	0.015178986
19	0x3d48de38	0.04904005
20	0xbc80b4cc	-0.01571121
21	0xbc33a1c9	-0.010963866
22	0x3ce362ce	0.027757075
23	0x3d407be1	0.04699314
24	0x3cf5fb02	0.030026916
25	0xbd058cfb	-0.032605153
26	0x3c4a83ad	0.0123604955
27	0x3c10185f	0.008794873
28	0x3d07564a	0.033041276
29	0x3d168981	0.036752228
30	0xbccfff25	-0.025390217
31	0xbd0d9e68	-0.034574896
32	0xbd5201da	-0.051271297
33	0x3cb329bd	0.021870488
34	0xbd2a3ee7	-0.041563895
35	0xbd2580bc	-0.040405974
36	0xbd6046ff	-0.054755207
37	0x3cb0d30c	0.02158501
38	0xbd68d5eb	-0.056844633
39	0xbd90d225	-0.07071332
40	0xbc8f9cfc	-0.01753091
41	0x3c59dcf3	0.013297307
42	0xbd80aa9e	-0.06282543
43	0xbca1cad3	-0.019750034
44	0xbd3e3471	-0.04643673
45	0xbce21973	-0.027600026
46	0xbbf2b7fd	-0.007407187
47	0xb8dfe439	-0.000106759784
48	0x3d5d24c9	0.05399016
49	0x3cf85459	0.030313658
50	0x3cec9492	0.028879438
51	0x3be0c681	0.006859601
52	0x3d20d4a8	0.039265305
53	0xbd80f4f5	-0.06296722
54	0xba934368	-0.0011235299
55	0xbce6c3e7	-0.028169585
56	0xba34c4d6	-0.0006895786
57	0xbd8f79c5	-0.070056476
58	0x3ba8f9e6	0.0051567433
59	0xbd470619	-0.0485898

model.l2.weight f4 [30, 60]
0	0xbe5335a4	-0.20625931
1	0xbde6f43a	-0.11277051
2	0xbef5e835	-0.48028722
3	0x3dabedae	0.08394943
4	0xbdb37db3	-0.087642096
5	0x3d3108c9	0.04322127
6	0xbdd5cc02	-0.10439302
7	0xbde2340d	-0.11045084
8	0xbd9ed080	-0.07754612
9	0xbf10008c	-0.56250834
10	0x3e32ad06	0.17448816
11	0xbd30f1fb	-0.04319952
12	0x3da94b0b	0.082662664
13	0x3ed54298	0.4165237
14	0xbda1a69f	-0.078931086
15	0xbe85ce06	-0.26133746
16	0x3e0ee0ba	0.13952914
17	0xbd8839b0	-0.06651628
18	0x3c9d0604	0.019167908
19	0x3dc7d536	0.09757464
20	0x3dbee3c3	0.09320786
21	0x3d10fae8	0.035395533
22	0x3e39a0a3	0.18127684
23	0xbead42f8	-0.33840156
24	0xbd858d4a	-0.065210894
25	0xbd2e31f5	-0.04252811
26	0x3b87a651	0.0041396995
27	0x3df6e36b	0.12055095
28	0x3c88bc2e	0.016691294
29	0xbac5a65c	-0.0015079486
30	0x3e0c6946	0.13712034
31	0xbb26ed35	-0.0025470976
32	0x3de89353	0.11356225
33	0x3de3564d	0.11100445
34	0x3e5570a5	0.20843752
35	0xbd901549	-0.0703531
36	0xbf271920	-0.6527271
37	0xbe5e02df	-0.21680783
38	0xbdb70250	-0.08935988
39	0xbdd3fb90	-0.10350716
40	0xbd97e0d7	-0.07415932
41	0x3d1adca0	0.03780806
42	0xbdb212c1	-0.08694983
43	0x3e89c43b	0.26907524
44	0xbe59f842	-0.21286109
45	0x3d92d275	0.07169048
46	0xbd24bcbe	-0.04021906
47	0x3e03f74d	0.12887307
48	0x3c862030	0.01637277
49	0x3dba5f78	0.091002405
50	0x3dffcfcb	0.12490805
51	0xbdad648c	-0.084664434
52	0xbdea1e55	-0.114315666
53	0xbd9e638c	-0.07733831
54	0xbda22fee	-0.07919298
55	0xbd0f7029	-0.035019074
56	0x3e878ddb	0.26475415
57	0xbd91ddb5	-0.071223654
58	0xbd1a37a3	-0.037650716
59	0x3d2c4f5c	0.04206787
60	0x3e1da41c	0.15394634
61	0x3d51419a	0.051087953
62	0x3ea6cf05	0.32579818
63	0x3de59d6a	0.11211665
64	0xbe29534b	-0.1653568
65	0x3c318b38	0.010836415
66	0x3e68a0b8	0.2271756
67	0x3dbb90ac	0.09158453
68	0xbe924643	-0.2856923
69	0x3ea5bd70	0.32371092
70	0xbe2aeafb	-0.166912
71	0x3d0670be	0.032822363
72	0x3dedfe8f	0.11620819
73	0xbeeb3275	-0.45936933
74	0xbe030943	-0.12796502
75	0x3eddbbef	0.43307444
76	0xbbb6a911	-0.0055743535
77	0xbd90aa04	-0.07063678
78	0x3db8b51d	0.090189196
79	0xbdbf9a7b	-0.09355637
80	0x3daac00f	0.083374135
81	0xbd8b9c9d	-0.06816981
82	0xbe4f43f0	-0.2024076
83	0x3ecd6725	0.40117756
84	0x3dae02d2	0.08496632
85	0xbc57846b	-0.0131541295
86	0x3e54ecd6	0.2079347
87	0x3d6d211b	0.0578929
88	0x3da9cd59	0.0829112
89	0xbdd44509	-0.1036473
90	0x3d978f7e	0.07400416
91	0xbcded69a	-0.02720194
92	0xbd7c925c	-0.061663017
93	0x3d6c3f34	0.057677463
94	0xbd8f592c	-0.0699943
95	0xbd425277	-0.047441926
96	0x3ecc43c1	0.39895442
97	0x3ea77b8c	0.32711446
98	0xbd9e8735	-0.077406324
99	0xbdbcaf0d	-0.09213076
100	0xbcca904f	-0.024727015
101	0x3d981c84	0.07427314
102	0xbdc40f26	-0.09573202
103	0xbe8cf2d6	-0.2752902
104	0x3e854110	0.260262
105	0x3d804661	0.06263424
106	0xbe68d95d	-0.22739168
107	0xbe157a52	-0.14597443
108	0x3cf73e79	0.030181156
109	0x3caeeed9	0.021354126
110	0x3df4ada1	0.119471796
111	0x3d9793fc	0.07401273
112	0xbe839ff9	-0.25707987
113	0x3dcf60dc	0.10125896
114	0x3d5a0681	0.05322886
115	0xbc7eb744	-0.015546624
116	0xbe866dea	-0.26255733
117	0xbd6356cb	-0.055502694
118	0x3d56daad	0.05245464
119	0xb93e6551	-0.00018157555
120	0x3da14d7d	0.07876108
121	0xbdb1dafe	-0.086843476
122	0x3e7a977f	0.24471854
123	0xbd87a62e	-0.06623493
124	0xbe5c2cd5	-0.21501477
125	0x3e881590	0.2657895
126	0x3e29e5c5	0.16591556
127	0xbc84fe66	-0.016234588
128	0xbe472a94	-0.19449836
129	0xbe8bb2a8	-0.2728474
130	0xbe0123ba	-0.12611285
131	0xbd8b29ba	-0.06795068
132	0x3dbf927d	0.09354112
133	0x3ea29386	0.31753176
134	0x3ab85051	0.0014062022
135	0x3e9d9c59	0.30783346
136	0xbe2127e5	-0.15737875
137	0x3e520062	0.20507959
138	0x3e0b7cb1	0.13621785
139	0xbd34dad6	-0.04415401
140	0xbcb216fb	-0.021739474
141	0x3d920278	0.07129377
142	0x3d187b6a	0.03722707
143	0x3da317c9	0.07963521
144	0x3e306a4b	0.17228048
145	0xbe8b4412	-0.2720037
146	0x3ded1d2d	0.115778305
147	0xbcdcc762	-0.026950542
148	0xbde92398	-0.11383742
149	0x3de93ab4	0.1138815
150	0x3d736cc7	0.05942991
151	0x3cc4ebd4	0.024038233
152	0xbd250a81	-0.04029322
153	0xbc680f2e	-0.014163775
154	0x3e5c6068	0.21521151
155	0x3d854451	0.06507171
156	0xbdabc616	-0.08387391
157	0x3b9798ac	0.004626354
158	0xbd940cfb	-0.07229038
159	0xbd66234a	-0.056185998
160	0xbe05603a	-0.13024989
161	0xbd0e6762	-0.034766562
162	0xbd5256e5	-0.0513524
163	0x3e23ce27	0.1599661
164	0xbde36eec	-0.11105141
165	0x3d66fc8e	0.0563932
166	0xbe86550a	-0.26236755
167	0xbe2ea304	-0.17054373
168	0x3e068640	0.1313715
169	0x3df83617	0.12119692
170	0x3dff23a9	0.124579735
171	0x3e231cb3	0.15928917
172	0xbe6e8279	-0.23291959
173	0xbdcdea2e	-0.10054432
174	0xbd91da0f	-0.071216695
175	0x3d1813c6	0.037128232
176	0xbe2087c8	-0.15676796
177	0xbdf6144b	-0.12015589
178	0x3e070573	0.13185672
179	0xbd04abb7	-0.032390323
180	0x3dc8b945	0.09800962
181	0x3e215adb	0.15757315
182	0x3ed8e07f	0.42358777
183	0xbc527def	-0.012847408
184	0xbe35ef0c	-0.1776697
185	0x3e544f44	0.20733362
186	0x3e7c999f	0.24667977
187	0x3de6bcde	0.11266492
188	0xbec9b72e	-0.39397568
189	0x3de8e28b	0.11371335
190	0xbceea1d9	-0.02912991
191	0xbc7dccdb	-0.015490736
192	0x3e312379	0.17298688
193	0xbed67b2e	-0.41890854
194	0xbe35942a	-0.17732301
195	0x3e80b712	0.25139672
196	0xbd8b2605	-0.06794361
197	0x3daa1297	0.08304327
198	0xbdbe2dac	-0.09286055
199	0x3d3a7437	0.045520987
200	0x3dce6ec3	0.1007972
201	0xbc720095	-0.014770647
202	0xbe11b012	-0.14227322
203	0x3ea92e58	0.3304317
204	0xbca72a1a	-0.020405818
205	0xbe2b8671	-0.16750504
206	0x3e946f5d	0.28991213
207	0x3e1bfa1f	0.15232132
208	0xbc9dfb1a	-0.019284774
209	0xbc43c48c	-0.011948716
210	0xbd658b5b	-0.056041103
211	0x3cda1fb6	0.02662645
212	0x3e30195f	0.17197178
213	0xbd73e0bf	-0.059540506
214	0xbeb6813f	-0.35645482
215	0xbc28f477	-0.010312191
216	0x3e23b5e2	0.15987352
217	0x3e4e2a9a	0.20133439
218	0x3cd2245d	0.025652105
219	0x3dc8abfd	0.09798429
220	0xbdd1d50e	-0.10245715
221	0x3d153940	0.03643155
222	0xbde203a1	-0.110358484
223	0xbec85d23	-0.39133558
224	0x3e842c09	0.25814846
225	0x3d11e702	0.035620697
226	0xbe6f2da4	-0.23357254
227	0xbe318205	-0.17334755
228	0xbcf54f68	-0.02994509
229	0x3c8a249c	0.01686316
230	0x3d88d084	0.06680396
231	0x3e17257e	0.14760396
232	0xbe46c39f	-0.19410561
233	0xbcc6c9fe	-0.02426624
234	0xbc1e33ec	-0.009655934
235	0xbd5a9185	-0.053361434
236	0xbeaf9640	-0.3429432
237	0xbdc00d98	-0.09377593
238	0xbeadf8ba	-0.33978826
239	0xbd4a5b91	-0.04940373
240	0x3debc42d	0.11512027
241	0xbdac252b	-0.08405527
242	0xbeacf149	-0.33777836
243	0x3deafdb6	0.11474173
244	0x3dcbd143	0.09952023
245	0xbe7771da	-0.24164525
246	0xbd0bb260	-0.03410566
247	0xbc1cefca	-0.009578655
248	0x3c9e3e37	0.019316776
249	0xbec04fe1	-0.37560943
250	0x3d441c02	0.047878273
251	0xbd7e1d4a	-0.06203965
252	0xbe7619a8	-0.24033225
253	0x3e843434	0.25821078
254	0x3def6b8f	0.11690437
255	0xbeb95e17	-0.36204597

model.l2.bias f4 [30]
0	0x3dde8ea1	0.10867048
1	0x3d2bb6ac	0.041922256
2	0xbd9bca63	-0.076069616
3	0x3d6c9d1e	0.057767026
4	0xbd6ae045	-0.057342786
5	0x3e222a99	0.15836562
6	0xbcca21b4	-0.024674274
7	0xbd7e486b	-0.062080782
8	0xbcc1cd72	-0.023657534
9	0xbd7dc204	-0.061952606
10	0x3d912800	0.070877075
11	0xbb27e4cb	-0.002561855
12	0xbbfa869d	-0.0076454417
13	0x3d63ba0d	0.055597354
14	0x3d89c762	0.067274824
15	0xbdb8328e	-0.089940175
16	0xbd890aab	-0.06691488
17	0x3d3c9878	0.046043843
18	0x3d365d5e	0.044522636
19	0xbd162188	-0.03665307
20	0xbd4bd2a0	-0.049761415
21	0xbc4e150f	-0.012578263
22	0x3d555596	0.052083574
23	0xbc44f300	-0.012020826
24	0x3db48f28	0.088163674
25	0xbd16ff0b	-0.03686432
26	0x3c12055a	0.008912409
27	0x3d980345	0.074224986
28	0x3d8952ff	0.067052834
29	0xbc8a78ce	-0.016903307

model.l3.weight f4 [1, 30]
0	0x3e3bfdf4	0.18358594
1	0xbeed66bd	-0.46367446
2	0x3ea4ce1c	0.321885
3	0xbf31e520	-0.6949024
4	0x3e870916	0.2637412
5	0x3dfb15c9	0.122600146
6	0xbf375161	-0.7160855
7	0xbf3d23e2	-0.7388288
8	0xbea20ad7	-0.31648895
9	0xbed9a8ae	-0.42511505
10	0x3d98723c	0.074436635
11	0xbf25ca0a	-0.6476141
12	0xbf2cf174	-0.6755593
13	0x3ea8b871	0.32953218
14	0x3e094424	0.134049
15	0xbeab0966	-0.33405608
16	0xbea6c719	-0.32573774
17	0x3e869b94	0.26290572
18	0x3e8423c1	0.25808528
19	0xbeed9a36	-0.46406716
20	0x3edf5d1c	0.43625724
21	0xbea8b849	-0.32953098
22	0x3e65f9e9	0.22458614
23	0xbea14765	-0.31499782
24	0x3e74205e	0.23840472
25	0x3ea64db8	0.3248117
26	0x3e9a4ae6	0.30135268
27	0x3e5a886d	0.21341105
28	0x3e9c16ec	0.30486238
29	0x3eba2e74	0.36363566
