model_dsm11rmcov/v3-[90, 30]-0.0001-30.pth (torch, 129428 bytes, 5 tensors)

model.l1.weight f4 [90, 320]
0	0xbd4b1a64	-0.049585715
1	0x3cbc0cb9	0.022955285
2	0xbcc33ef9	-0.023833739
3	0xbc59471c	-0.013261583
4	0x3d155e77	0.03646704
5	0xbd7f4e66	-0.062330626
6	0xbce9a8ce	-0.028522875
7	0xbcd9758a	-0.026545305
8	0xbd6625cd	-0.056188393
9	0x3d33f2c1	0.04393268
10	0xbd506965	-0.050881762
11	0xbc8e7a1c	-0.01739221
12	0xbcec9f61	-0.028884592
13	0xbd843ff6	-0.06457512
14	0x3cb86a9d	0.022511775
15	0x3cfafd0e	0.030638244
16	0x3db309bf	0.08742093
17	0xbc31fc57	-0.010863385
18	0x3dcd0289	0.10010249
19	0x3d929511	0.071573384
20	0xbba99120	-0.005174771
21	0x3bc74ef6	0.006082411
22	0x3c239ea7	0.009986556
23	0xbb28ba59	-0.0025745837
24	0xbcb321f1	-0.02186677
25	0xbd2a630d	-0.04159837
26	0x3d879643	0.06620457
27	0x3c5aecfa	0.013362164
28	0xbd069982	-0.03286124
29	0xbcdb83dd	-0.026796276
30	0xbd30e187	-0.04318383
31	0x3d8bf5b1	0.06833971
32	0x3cd5548c	0.026041292
33	0x3c7f3198	0.015575789
34	0xbd81712c	-0.06320414
35	0x3ce3714e	0.027763989
36	0xbc9d0f4f	-0.019172339
37	0x3dd67e50	0.10473311
38	0x3ca4467b	0.020053139
39	0x3c99b740	0.018764138
40	0x3d53cf1a	0.05171118
41	0x3d847a3d	0.064686276
42	0x3cc77426	0.024347376
43	0xbb4561ab	-0.003011803
44	0x3c9b5bbb	0.018964639
45	0xbd4c9ef5	-0.04995628
46	0xbd15ca89	-0.036570106
47	0xbd58aa9b	-0.052897077
48	0xbbb7f08b	-0.0056133918
49	0xbc8503d9	-0.016237186
50	0x3d6e452f	0.058171447
51	0x3d3a4f71	0.045485917
52	0x3d6b96cc	0.057516858
53	0xbdc2257f	-0.09479808
54	0x3a59dbcd	0.0008310646
55	0x3c9f55e0	0.019450128
56	0x3d400a31	0.04688472
57	0xbcfad173	-0.030617451
58	0xbbd4a8e3	-0.0064898594
59	0xbd87f27c	-0.06638047
60	0x3e43406a	0.19067541
61	0x3ccdc725	0.025119374
62	0xbcd6f475	-0.026239613
63	0x3b7aaf28	0.0038251374
64	0xbc99d543	-0.018778449
65	0xbd24a6e8	-0.040198237
66	0x3c3c4c26	0.011492765
67	0x3c9d19c8	0.019177333
68	0x3d16963d	0.036764372
69	0xbd8720fa	-0.06598087
70	0x3d3c1f54	0.045928314
71	0x3d43843e	0.047733538
72	0x3e2ab46f	0.16670392
73	0x3cd404ea	0.02588125
74	0xbc12a407	-0.00895024
75	0x3d13b7c3	0.03606392
76	0x3d5467e9	0.05185691
77	0x3d699ea4	0.057036057
78	0xbc77c604	-0.015122894
79	0x3c1fd20e	0.009754671
80	0x3d4f4222	0.05060018
81	0x3b91f7a6	0.004454571
82	0xbb2d2dca	-0.0026424997
83	0xbd25f3c3	-0.040515672
84	0x3d954edb	0.07290431
85	0xbda68dc3	-0.08132508
86	0xbd920248	-0.07129341
87	0xbd21d31c	-0.03950797
88	0x3ac8a996	0.001530933
89	0xbd0a1d68	-0.03371945
90	0xbd04c186	-0.03241112
91	0xbd2342dc	-0.039858684
92	0x3ca17027	0.019706799
93	0x3d52a263	0.051424395
94	0x3c980f46	0.01856197
95	0xbc89a1c9	-0.016800778
96	0x3cd68c1b	0.026189854
97	0xbbe1c93c	-0.006890444
98	0xbbd3a8c5	-0.006459328
99	0xbd9d0889	-0.076676436
100	0xbd8f4e0e	-0.069973096
101	0x3cb0f525	0.021601269
102	0x3c849e47	0.016188754
103	0x3cc52f4e	0.024070408
104	0xbd201a86	-0.039087795
105	0x3d0af499	0.033924673
106	0xbdc6c209	-0.09704978
107	0xbcda6d8e	-0.026663568
108	0x3c99bcf1	0.018766852
109	0xbcabe8e6	-0.020985078
110	0xbd488ca6	-0.048962258
111	0x3c0bf8a0	0.008543164
112	0xbc0a23f3	-0.0084314225
113	0xbce5cc74	-0.028051592
114	0xbd0f8e54	-0.035047844
115	0xbc97c996	-0.01852874
116	0x3c9c71ef	0.019097297
117	0xbc971555	-0.01844279
118	0x3c0a0684	0.008424405
119	0x3d19ec48	0.03757885
120	0x392a6df0	0.00016253418
121	0x3d5a58ac	0.05330722
122	0x3c9e1c9b	0.01930075
123	0x3cc21802	0.023693088
124	0x3d103857	0.03520998
125	0xbd4e7c1b	-0.050411325
126	0x3d888981	0.06666852
127	0xbd8f4113	-0.06994834
128	0xbc727dab	-0.014800469
129	0x3d6458ae	0.055748634
130	0x3d019810	0.03163916
131	0xbd36ca93	-0.044626784
132	0xbd83b9bc	-0.064319104
133	0xbd553b86	-0.05205872
134	0xbd1ac448	-0.037784845
135	0xbd2edf30	-0.042693317
136	0xbc63912b	-0.013889591
137	0xbc9df6d6	-0.01928274
138	0x3a7bfc89	0.0009612521
139	0xbcd90279	-0.026490437
140	0x3c311a11	0.010809437
141	0xbc8bfd6d	-0.017088616
142	0xbdf26adb	-0.11836787
143	0x3dc46ee6	0.09591465
144	0x3c3f754d	0.0116856815
145	0x3bfc3577	0.007696803
146	0xbd22268e	-0.03958755
147	0xbc12b161	-0.008953423
148	0xbc1008fe	-0.008791206
149	0xbb74a1dc	-0.003732792
150	0x3d91f31e	0.07126449
151	0x3d004c48	0.031322747
152	0x3b7fd4b0	0.0039036684
153	0x3d297ffd	0.041381825
154	0xbd07fd5d	-0.03320061
155	0xbd816ce9	-0.06319601
156	0x3d2df86c	0.04247324
157	0xbca7f773	-0.020503735
158	0xbd8564fe	-0.06513403
159	0x3b974300	0.0046161413
160	0x3db51617	0.08842104
161	0x3da4d1ff	0.08047866
162	0xbca51cca	-0.02015533
163	0x3d31cbcd	0.04340725
164	0xbdf695ce	-0.12040292
165	0x3cd8e164	0.026474662
166	0xbd1fd42f	-0.039020713
167	0x3cc7fb14	0.024411716
168	0x3d97caa5	0.07411698
169	0xbd03f1fd	-0.0322132
170	0x3cac2027	0.021011425
171	0xbd40c0f2	-0.047059007
172	0xbc51f991	-0.012815849
173	0xbd27d5f6	-0.040975533
174	0xbcc11cc6	-0.02357329
175	0xbda2e32f	-0.07953488
176	0xbcda1d12	-0.02662519
177	0x3c890913	0.01672796
178	0x3c4a0bf2	0.01233195
179	0x3d28bad1	0.041193787
180	0xbd865f97	-0.06561201
181	0x3d8c3e94	0.06847873
182	0x3c0ed78b	0.008718382
183	0x3bf85751	0.0075787683
184	0xbcdf4ea8	-0.027259186
185	0x3befb446	0.0073151914
186	0xbd5c2d77	-0.053754296
187	0xbd3efc7c	-0.046627507
188	0xbe0f09bd	-0.13968559
189	0x39834fbd	0.00025045677
190	0xbc45ec5a	-0.012080276
191	0x3bb76082	0.0055962214
192	0x3d5d57ce	0.054038815
193	0x3d4fa47d	0.050693978
194	0x3ca7e34e	0.02049413
195	0xbd922d83	-0.07137587
196	0x3d833599	0.06406707
197	0xbc45bb8e	-0.012068642
198	0x3c3cfcc3	0.011534872
199	0xbd914647	-0.070934825
200	0x3d9b0531	0.075693496
201	0x3ab8217a	0.0014048063
202	0xbd8fc05d	-0.07019112
203	0x3ce72374	0.028215148
204	0xbdd864c9	-0.10566098
205	0xbcba6e66	-0.02275772
206	0xbd3d6e13	-0.046247553
207	0xbc0d1951	-0.008611993
208	0x3d304b83	0.043040764
209	0xbda728dd	-0.08162091
210	0x3dc99aea	0.09844001
211	0x3d30a707	0.04312804
212	0xbc99106b	-0.018684587
213	0xbc83fee0	-0.016112745
214	0x3bb5fe38	0.005553987
215	0x3dd53225	0.10409955
216	0x3e145b59	0.14487971
217	0xbc071a52	-0.008246021
218	0xbd882e95	-0.0664951
219	0xbb3c9a9c	-0.0028778678
220	0xbd485e7f	-0.048918243
221	0xbc00b688	-0.007856019
222	0x3d2c8a53	0.042124104
223	0x3c516d30	0.01278238
224	0x3c0f7181	0.008755089
225	0xbdcd64b0	-0.1002897
226	0xbc171a11	-0.009222523
227	0xbc23189c	-0.009954598
228	0xbdc1d150	-0.09463751
229	0xbc1c7d8d	-0.009551418
230	0xbdb8cf54	-0.0902392
231	0x3d18e969	0.037331972
232	0xbd23a3cd	-0.039951134
233	0x3a2f628f	0.00066904066
234	0x3d3257b3	0.043540668
235	0xbc211d26	-0.00983361
236	0xbdcbd516	-0.09952752
237	0xba1157c4	-0.0005544389
238	0xbd476d3d	-0.048688162
239	0xbcd34341	-0.025788905
240	0xbd391308	-0.045184165
241	0xbca6bb9a	-0.020353127
242	0x3ce1388d	0.027492786
243	0x3d4bd22d	0.049760986
244	0xbd9c6b28	-0.07637626
245	0xbd932487	-0.071847014
246	0x3d231344	0.039813295
247	0xbbc0b999	-0.0058815
248	0xbb584e91	-0.0033005814
249	0x3c1445f3	0.00904988
250	0xbd7a9125	-0.061173577
251	0xbc15406e	-0.0091095995
252	0x3d578d3d	0.05262493
253	0xbcb2f99d	-0.02184754
254	0xbd55b65d	-0.05217587
255	0xbcf12b63	-0.029439634

model.l1.bias f4 [90]
0	0xbc674f6c	-0.014118057
1	0x3cf27d1e	0.029600676
2	0xbd4e6124	-0.05038561
3	0x3c898f44	0.016791947
4	0xbd886a3a	-0.06660886
5	0xbce054a6	-0.027384114
6	0x3cf884ec	0.03033682
7	0x3c645262	0.013935657
8	0xbd50d335	-0.050982673
9	0x3c758af1	0.0149867395
10	0x3cc0d946	0.023541104
11	0xbc857442	-0.016290788
12	0xbccb83ba	-0.024843086
13	0xbcb66e99	-0.022269534
14	0xbb332b55	-0.002733906
15	0xbb8e27ba	-0.004338232
16	0xbcca578c	-0.024699949
17	0xbc93d763	-0.01804704
18	0x3d17f1b2	0.037095733
19	0xbc8ccad9	-0.017186569
20	0x3d3ab3c1	0.045581583
21	0xbcf320a6	-0.029678654
22	0x3c572a9d	0.013132718
23	0xbce8cf6b	-0.028419217
24	0x3c8917b2	0.016734932
25	0xbcfd6f57	-0.03093688
26	0x3c9f3ad7	0.019437237
27	0xbbad6330	-0.005291365
28	0x3c3a3f33	0.011367607
29	0xbbefcef4	-0.007318372
30	0xbd5bcbab	-0.05366103
31	0xbd864eaa	-0.06557973
32	0xbcf0ea0f	-0.029408483
33	0x3c4a5646	0.012349671
34	0x3c6c7730	0.014432713
35	0x3d34aac7	0.04410818
36	0x3d3b45da	0.045720913
37	0x3d252f0a	0.040328063
38	0x3bbc2e07	0.0057427916
39	0x3c28e5bb	0.010308678
40	0xbb84707b	-0.004041729
41	0xbd2f9ed9	-0.0428761
42	0xbd6a1d14	-0.057156637
43	0x3d2da918	0.04239759
44	0xbd687a1d	-0.05675708
45	0x3ce21970	0.02760002
46	0x3c2eba25	0.0106644975
47	0xbd436bb2	-0.047710128
48	0xbc11bcf1	-0.008895145
49	0x3c4f91b4	0.012669016
50	0x3c91ca2e	0.017796602
51	0xbd331a1b	-0.043726068
52	0xbc8de990	-0.017323285
53	0x3d2c563a	0.04207442
54	0xbd532db5	-0.05155726
55	0xbd117c16	-0.03551873
56	0x3d08d754	0.033408478
57	0x3c5a5801	0.013326646
58	0x3c8d9610	0.01728347
59	0xbcdad00d	-0.026710534
60	0x3c381f0d	0.011237872
61	0x3b59a192	0.0033207876
62	0x3ce84d66	0.028357219
63	0x3d1eb3a2	0.03874553
64	0xbd5ed903	-0.054406177
65	0xbd1c3a24	-0.038141385
66	0xbd1513ee	-0.03639596
67	0x3d45ff99	0.04833946
68	0xbd0a8305	-0.033816356
69	0x3d497652	0.049185105
70	0x3c9ed152	0.019386921
71	0xbcb86ff1	-0.022514315
72	0xbc519783	-0.012792471
73	0x3d2c8ce3	0.042126548
74	0x3d215a79	0.039392922
75	0x3bed2dc7	0.007238123
76	0x3c5b4db6	0.013385227
77	0xbd5fb2c3	-0.05461384
78	0xbbe6a544	-0.007038744
79	0xbb8775b1	-0.004133903
80	0x3d34031e	0.043948285
81	0x3c548c8f	0.012972965
82	0xbca0ebac	-0.019643627
83	0x3d5ebf86	0.05438187
84	0x3d1ce348	0.03830269
85	0xbd2edb54	-0.042689636
86	0x3d1775fb	0.03697775
87	0x3d07154b	0.03297929
88	0xbd3449ef	-0.04401582
89	0xba4b3225	-0.00077513076

model.l2.weight f4 [30, 90]
0	0x3dd4ae60	0.10384822
1	0x3d74b11c	0.059739217
2	0xbc69d913	-0.014272946
3	0x3e5cffc7	0.21581946
4	0x3e3050d6	0.17218336
5	0xbda21e61	-0.079159506
6	0x3a2c9ea3	0.0006584918
7	0xbdd3d493	-0.1034328
8	0xbd7cd410	-0.061725676
9	0xb954618a	-0.00020254232
10	0x3e0b9d01	0.13634111
11	0xbd8df13f	-0.0693078
12	0xbda05bec	-0.07830033
13	0xbe0061bf	-0.12537287
14	0x3d42a189	0.047517333
15	0x3caef3ff	0.02135658
16	0xbd991714	-0.07475105
17	0xbd933b97	-0.071891
18	0xbd0d9aaa	-0.034571327
19	0xbd300563	-0.042973887
20	0x38b12754	8.447343e-05
21	0x3d73c0e8	0.05951014
22	0xbdf1a910	-0.11799824
23	0xbdb2e0b1	-0.08734263
24	0xbd10bd10	-0.035336554
25	0xbe21a79a	-0.15786591
26	0x3c2ab94b	0.010420154
27	0x3d60d0f4	0.054886773
28	0xbb8c2d83	-0.0042778864
29	0x3d889e03	0.06670763
30	0x3df02929	0.11726601
31	0x3d78ea2b	0.060770195
32	0x3e23e7c0	0.16006374
33	0xbe4298f2	-0.19003657
34	0xbd90bb81	-0.070670135
35	0xbd9677c3	-0.073470615
36	0xbcaa3626	-0.020777773
37	0x3bdc1f29	0.006717582
38	0x3d9d715d	0.07687638
39	0x3d3406b4	0.043951705
40	0xbdb22bb6	-0.086997434
41	0x3d582ccc	0.052777097
42	0x3ae9e997	0.0017846104
43	0xbd5ac890	-0.053413928
44	0xbde8240b	-0.11335
45	0xbc8e5919	-0.01737647
46	0xbb957ade	-0.004561766
47	0x3dacf187	0.08444505
48	0xbd0d973b	-0.034568053
49	0x3d8317f7	0.06401055
50	0xbd6f01a6	-0.05835118
51	0xbdcbd35e	-0.099524245
52	0xbd8d8032	-0.06909217
53	0xbd00d758	-0.031455368
54	0xbd45ece9	-0.04832164
55	0xbbf912ab	-0.0076011023
56	0x3c36e322	0.011162551
57	0xbd6777c8	-0.056510717
58	0xbd4df1ef	-0.050279554
59	0x3d81daba	0.06340547
60	0xbd917652	-0.07102646
61	0x3d43af6f	0.04777473
62	0x3e489261	0.19587089
63	0x3d87e1cb	0.066348635
64	0xbdf285d1	-0.1184193
65	0xbc546c6e	-0.012965305
66	0xbd959f12	-0.07305731
67	0xbdac77ee	-0.08421312
68	0xbd36b3ec	-0.04460518
69	0x3d3cde4c	0.046110436
70	0xbd77af1a	-0.060469724
71	0xbcbe941f	-0.023263989
72	0xbd218918	-0.039437383
73	0x3c11e236	0.008904031
74	0xbd284627	-0.041082527
75	0x3d686f67	0.056746867
76	0x3d6214f0	0.05519575
77	0xbd80c605	-0.06287769
78	0xbbe5a3f1	-0.0070080687
79	0xbca306d0	-0.01990071
80	0xbc560a1d	-0.013063935
81	0xbe0537e9	-0.1300961
82	0x3d577884	0.052605167
83	0xbdbf5125	-0.09341649
84	0x3ca5935e	0.020211872
85	0xbca85008	-0.020545974
86	0xbd3ab5af	-0.045583423
87	0xbc615be4	-0.013754819
88	0x3d4d0050	0.050049126
89	0x3d94526e	0.07242285
90	0xbcdc11e3	-0.026863998
91	0xbcab006c	-0.020874225
92	0xbdd15016	-0.10220353
93	0xbea0c5f9	-0.3140104
94	0xbe5f0b9d	-0.21781774
95	0x3e00bdd3	0.12572412
96	0xbd6984c7	-0.057011392
97	0x3d9ccb27	0.07655936
98	0x3dc14b70	0.09438217
99	0xbe526814	-0.20547515
100	0xbdaf8777	-0.0857076
101	0x3e9bf8f5	0.30463377
102	0xbd106bee	-0.03525918
103	0x3dbd5319	0.09244365
104	0xbd808ce0	-0.0627687
105	0x3d77a0ce	0.06045609
106	0xbdd7151b	-0.105020724
107	0x3da87f37	0.08227389
108	0x3ea14f60	0.3150587
109	0xbd27bc75	-0.04095121
110	0xbd87e28b	-0.066350065
111	0xbdab76f9	-0.083723016
112	0x3da6f199	0.0815155
113	0xbd230bce	-0.03980618
114	0xbe3167ad	-0.17324705
115	0xbde42c4a	-0.1114126
116	0x3dc8e24f	0.0980879
117	0xbd1bedd5	-0.03806861
118	0x3cee4d1b	0.029089501
119	0xbde67ba8	-0.11254054
120	0xbd369712	-0.044577666
121	0x3c0c3213	0.0085568605
122	0xbde989a2	-0.114032045
123	0x3eb4c1ce	0.3530411
124	0x3d94a07d	0.07257173
125	0xbd30e306	-0.043185256
126	0xbd30174e	-0.042990975
127	0xbd00487b	-0.031319123
128	0xbd594394	-0.053042963
129	0xbc936dee	-0.017996754
130	0xbd974bba	-0.073874906
131	0x3c80e9d8	0.015736505
132	0x3c487dba	0.012237007
133	0x3dd42cb0	0.10360086
134	0x39c3b37b	0.00037327022
135	0x3cd87451	0.026422651
136	0x3d8e641b	0.06952687
137	0x3bb60e1c	0.005555881
138	0x3d4f3a55	0.05059274
139	0xbd72f845	-0.0593188
140	0x3e1eb931	0.15500332
141	0x3d4c82b1	0.049929325
142	0x3d3c2b30	0.045939624
143	0xbd943ea7	-0.072385125
144	0x3c9cc492	0.0191367
145	0xbd8a7f0e	-0.06762515
146	0xbc88a8ee	-0.016682114
147	0x3e893a89	0.2680247
148	0xbc2caf51	-0.010539846
149	0xbd55c769	-0.052192125
150	0x3c5da455	0.013527949
151	0x3e4dee6c	0.20110482
152	0xbe7a082b	-0.24417178
153	0x3da0676f	0.078322284
154	0xbdbb2085	-0.09137062
155	0xbab2a133	-0.0013628363
156	0x3d72b8a1	0.059258107
157	0xbdd7a93d	-0.105303265
158	0x3da0a358	0.07843655
159	0xbe4507e1	-0.19241287
160	0xbb53bd00	-0.0032308698
161	0x3d5352eb	0.05159275
162	0xbdaaeb88	-0.08345705
163	0x3c2e2000	0.010627747
164	0xbd668ade	-0.056284778
165	0x3e1d7336	0.1537598
166	0xbdc8d8a1	-0.09806944
167	0x3d5b25eb	0.05350296
168	0xbba7e8e6	-0.005124199
169	0x3cd59522	0.026072089
170	0xbd9374f5	-0.07200042
171	0x3e97a441	0.29617503
172	0x3d3f7d8e	0.046750598
173	0x3e76176c	0.24032372
174	0x3da5902a	0.08084138
175	0xbc8696a5	-0.016429255
176	0x3cfa59f9	0.03056048
177	0x3eaf2d58	0.34214282
178	0xbc04d7b4	-0.008108068
179	0x3a303aa6	0.00067226065
180	0x3d085a61	0.033289317
181	0xbd8a49d9	-0.067523666
182	0x3da07610	0.07835019
183	0x3e853dd9	0.2602375
184	0x3e7aa085	0.24475296
185	0xbd9c00c0	-0.076173306
186	0x3dce9ca9	0.10088474
187	0x3cb9a293	0.02266053
188	0x3dcb18e3	0.09916856
189	0x3d9c9973	0.076464556
190	0x3e19fa1f	0.1503682
191	0xbde3bd57	-0.11120098
192	0xbd98393e	-0.07432793
193	0xbe024515	-0.12721665
194	0x3aa68bc8	0.0012706453
195	0xbd92d623	-0.071697496
196	0x3dbb0313	0.09131446
197	0xbd1cac4f	-0.038250264
198	0xbe2291b4	-0.15875894
199	0xbc6e6fad	-0.014552993
200	0x3cfae1f7	0.030625327
201	0xbac7622b	-0.0015211751
202	0xbc2b2ed5	-0.010448177
203	0xbd702a28	-0.058633953
204	0xbd217de8	-0.039426714
205	0x3b664c8f	0.0035140847
206	0x3a180fa6	0.00058006716
207	0x3b9068cd	0.0044070245
208	0xbd3d43ba	-0.046207167
209	0x3dab2a0b	0.083576284
210	0x3e8929ec	0.26789796
211	0xbd022e76	-0.03178259
212	0x3e1d8742	0.15383628
213	0xbec0a268	-0.37623906
214	0x3cea8e2f	0.028632252
215	0xbd8e1447	-0.06937461
216	0xbdd1a273	-0.10236063
217	0xbd60d6a9	-0.054892216
218	0x3d8ebea1	0.06969953
219	0x3cc2a60c	0.023760818
220	0x3d71c0aa	0.05902163
221	0xbdca57a9	-0.09880001
222	0x3cf11282	0.02942777
223	0xbdfbe6ac	-0.122998565
224	0xbcbbd77c	-0.0229299
225	0x3dde3d7a	0.108515695
226	0x3d439018	0.04774484
227	0x3d269060	0.04066503
228	0x3c83fd6e	0.016112056
229	0xbd0ff4a0	-0.035145402
230	0xbdf7fa2c	-0.121082634
231	0x3ba324bf	0.0049787457
232	0x3d8c010a	0.06836136
233	0x3d59ee05	0.05320551
234	0x3d8b9cd5	0.06817023
235	0x3dbbaeb1	0.09164179
236	0x3d98124c	0.07425365
237	0xbe75c768	-0.24001849
238	0x3db6e68a	0.089306906
239	0xba26e55e	-0.0006366576
240	0x3cdf89eb	0.027287444
241	0xbe6ab33e	-0.22919938
242	0x3e63f560	0.22261572
243	0x3dca725a	0.09885092
244	0x3c6a0581	0.014283539
245	0x3db6492f	0.089006774
246	0x3cbfcefb	0.023414126
247	0xbdaed29b	-0.085362636
248	0xbdbe019c	-0.09277651
249	0xbd78b24a	-0.060716905
250	0x3dbba81b	0.09162923
251	0xbd31ba43	-0.043390524
252	0xbd18201e	-0.037140004
253	0x3da2479b	0.07923814
254	0xbc4f0e31	-0.012637661
255	0xbda7e3f7	-0.08197778

model.l2.bias f4 [30]
0	0xbd23d79a	-0.040000536
1	0x3d2f2da0	0.04276812
2	0x3de1c44c	0.11023769
3	0x3d1e708d	0.038681556
4	0x3d9b70e7	0.07589894
5	0x3c7fefd5	0.015621145
6	0x3d120a02	0.035654075
7	0xbc0488e9	-0.008089283
8	0xbd84e43d	-0.064888455
9	0x3c9c30a8	0.01906617
10	0x3ccc781c	0.024959616
11	0x3c4b0b7d	0.012392876
12	0xbda22f7e	-0.07919215
13	0x3dd68576	0.104746744
14	0x3d8e43ce	0.069465265
15	0xbdaa142e	-0.0830463
16	0x3b18f812	0.002334122
17	0xbd9b9e4b	-0.07598551
18	0x3d1a4aef	0.03766912
19	0xbd73f252	-0.059557267
20	0xbda690e4	-0.081331044
21	0xbd3c4bf3	-0.04597087
22	0x3dcef75c	0.10105774
23	0xbd428754	-0.04749234
24	0xbce7baf2	-0.028287385
25	0xbc4e3685	-0.012586241
26	0xbd7b32c8	-0.061327726
27	0xbcd6b436	-0.026208978
28	0xbc9e47e6	-0.019321393
29	0x3d6fd216	0.058549963

model.l3.weight f4 [1, 30]
0	0x3e1856f3	0.14876918
1	0xbec60ea7	-0.38683054
2	0x3e0b6f93	0.13616781
3	0x3e651b20	0.22373629
4	0xbedd00bd	-0.43164626
5	0x3e814b5b	0.25252804
6	0xbeb33609	-0.35002163
7	0x3e878d54	0.26475012
8	0xbe6dad59	-0.23210658
9	0xbe072e32	-0.13201216
10	0xbeb911d4	-0.36146414
11	0x3e6e99e6	0.23300895
12	0x3d5449c5	0.051828165
13	0x3dd711cc	0.10501441
14	0x3e4892ca	0.19587246
15	0xbeb6eadd	-0.3572606
16	0x3e8ae2c0	0.27126122
17	0xbecd3f07	-0.4008715
18	0x3e6b7b0c	0.22996157
19	0x3e1ae7ca	0.15127483
20	0xbe568b2d	-0.20951529
21	0x3e7fbf88	0.24975407
22	0x3e3506d1	0.17678382
23	0xbe1d55a3	-0.15364699
24	0xbeb64622	-0.35600382
25	0x3e4cd7ac	0.20004147
26	0x3e254693	0.16140203
27	0xbed4f1e3	-0.41590795
28	0xbd72fb62	-0.05932177
29	0xbe6d44f9	-0.23170842
