model_dsm11rmcov/v3-[90, 60, 30]-0.0001-160.pth (torch, 148452 bytes, 7 tensors)

model.l1.weight f4 [90, 320]
000000 f4 31 9e 3e 38 2c 65 bc 1f 5e 34 be 7d 26 16 3d
       0.30897486 -0.013987593 -0.1761403 0.0366578
000010 23 e1 99 bd fa 6b 98 3d 98 0c af 3b 69 22 6a bd
       -0.075136445 0.0744247 0.0053420775 -0.057161722
000020 25 b4 8b 3e 3f c1 c6 bc 85 7d 4b bd b7 7c 09 3d
       0.27285877 -0.024262069 -0.04968025 0.033566203
000030 52 28 31 3c 21 22 7b 3c 0f f9 08 bd 5b c4 c0 3d
       0.010812836 0.015327961 -0.033440646 0.09412452
000040 47 9e 56 3d 96 80 94 bc 79 4b 51 3f ad e5 95 bd
       0.05239704 -0.01812772 0.8175579 -0.07319198
000050 7e 5a 60 bd 95 25 bf 3d 50 58 28 3d 12 71 c2 bb
       -0.0547738 0.0933334 0.041099846 -0.005933889
000060 d3 ac cd 3c a1 ed 19 be c5 f2 95 3d bf dc a7 bc
       0.025106823 -0.15032054 0.07321695 -0.020491002
000070 f3 61 f7 3d 93 5d 2d bf 24 7b c4 bc 18 18 6a 3d
       0.12079229 -0.6772091 -0.0239845 0.057151884
000080 b7 2d ba bc ab 36 0c 3d e5 f8 a4 bd 3c 36 fd bd
       -0.022726877 0.034231823 -0.08055285 -0.1236386
000090 ba a8 0f bd 9f ff 9a bc ef fd e5 3c 7f 03 1f 3d
       -0.03507302 -0.018920718 0.028075187 0.038821694
0000a0 1b 3d e7 3d 38 83 22 bd 7e f2 45 be d6 26 ef bc
       0.11290952 -0.03967592 -0.19330785 -0.029193323
0000b0 08 08 f8 be 68 1b a4 3d fc 5f 34 3c ac 30 0d bc
       -0.48443627 0.0801304 0.011009213 -0.008617561
0000c0 7e 46 1f 3d e3 73 0f 3c 15 fc b4 3d 3c 50 90 bc
       0.038885586 0.008755657 0.08837143 -0.017616384
0000d0 48 ea bc ba 9f 64 09 bd d9 0f 13 be a5 bc 82 3c
       -0.0014413083 -0.033543225 -0.14361514 0.015959093
0000e0 dd 1c 03 3d 3a 30 90 3d 89 4b a3 3d 6b 46 88 be
       0.032009948 0.070404485 0.079733916 -0.26616225
0000f0 da a9 3e 3e 10 2b 12 3d 81 56 23 3d 7b f1 8c 3d
       0.1861948 0.0356856 0.03987742 0.06881996
000100 3c cc f0 3d e4 5e 27 bd a5 5d 06 3d aa 75 03 3d
       0.117577046 -0.04086198 0.03280415 0.032094635
000110 4b 4d 91 bd 36 d6 7e 3a 95 1c d6 bd c9 24 71 3d
       -0.070948206 0.0009721251 -0.1045467 0.05887297
000120 9a e1 68 be 1b 0b bb 3c 56 b6 9f bc 19 e8 06 3e
       -0.2274231 0.022832444 -0.019496124 0.13174476
000130 18 90 bb 3e e8 87 51 3d 1d 96 cf bd eb 0c 3a be
       0.36633372 0.051155 -0.10136054 -0.1816899
000140 a0 6c 16 be 45 53 9a bd eb 8a 7a bd 37 99 53 bc
       -0.14689875 -0.07535414 -0.06116764 -0.012914947
000150 bd f4 26 3e 4f d5 08 3d 56 60 d6 3c fe 8d 09 3e
       0.16304298 0.033406552 0.026168983 0.13433072
000160 cd 54 55 3b 14 d7 d6 bd 71 fc 02 be 9b 60 a4 be
       0.0032551766 -0.10490242 -0.12791611 -0.32104954
000170 c2 97 d2 3d 06 03 93 3d db 29 6c bd ac e5 2d 3e
       0.10282852 0.07178311 -0.057657104 0.16982144
000180 2b fc 84 3d f3 cc cb be c1 b0 d4 3d 11 bc c9 bd
       0.0649341 -0.398048 0.10385276 -0.09850324
000190 99 13 c9 bb 15 35 96 3d 87 79 55 be e3 6b dd 3c
       -0.0061363694 0.07334343 -0.2084714 0.027028983
0001a0 de 59 12 be 50 80 6f bf 16 b2 49 3e 57 34 33 3d
       -0.14292094 -0.93555164 0.1969684 0.043751087
0001b0 a7 dd 88 bd 1e 27 20 3f 5f 41 bb bd 28 d2 89 bf
       -0.06682902 0.6255969 -0.09143328 -1.076726
0001c0 0a d4 56 3e d3 56 88 bd 5b 43 30 bc 45 e5 ce 3d
       0.20979324 -0.066571854 -0.010758246 0.101023234
0001d0 d6 c8 0b be a8 1c d9 bc c3 19 5e 3e 14 6e 0c be
       -0.13650832 -0.026502922 0.21689515 -0.13713866
0001e0 5f 93 03 3d 61 6e af 3b d9 54 dd 3c be 95 28 be
       0.032122966 0.0053537344 0.027017998 -0.16463372
0001f0 ae 72 3d 3d 6d e0 23 bc e9 69 b0 bc 45 9f 28 3c
       0.046251945 -0.010002238 -0.021534877 0.010291879
000200 64 5f ac bd 00 71 04 3d 1d 4d 8e 3c f7 6c 2d be
       -0.08416632 0.032334328 0.017370755 -0.16936098
000210 7a 8d f1 3d e7 d8 1e 3d 6a 06 98 bc df d8 0a bd
       0.11794563 0.038781073 -0.018557746 -0.03389823
000220 b8 6c e5 3d f0 f5 39 be 2b bc 9e bc 52 7a 7d 3c
       0.11202377 -0.18160224 -0.019376835 0.015471058
000230 97 5d b0 3d 9e f0 34 3d 1e 49 f9 ba b8 ec 5e bd
       0.08611601 0.044174783 -0.0019018983 -0.05442497
000240 40 3b c5 bc 2e 77 95 3d 8b e6 6b be 7e f8 33 3d
       -0.024076104 0.07298122 -0.23037164 0.043938152
000250 fe 34 3c bc a8 db 18 3d 19 c8 8a 3d c8 34 d3 3d
       -0.011487244 0.037318856 0.06776447 0.103128016
000260 9c 0d 9d 3c bc fb b6 bd d7 bc 53 3d 63 6d da be
       0.019171529 -0.08934733 0.051693764 -0.4266158
000270 bf ac 88 3d 27 38 d5 3c 5f bc a0 bd 78 31 55 bd
       0.06673574 0.026027752 -0.07848429 -0.05204913
000280 44 1b fd 3c ab 89 b2 be d9 09 97 3c eb ab 0b 3d
       0.03089679 -0.34870657 0.018437313 0.0340995
000290 da 38 25 3c 16 f5 1e bd d4 e7 05 be ef 82 bb 3d
       0.010084355 -0.03880795 -0.13076717 0.09155833
0002a0 ab ad 8a bd 8b 59 4b 3d 88 d7 58 be 14 1a 50 3d
       -0.06771406 0.04964594 -0.21175969 0.05080612
0002b0 37 0f eb bc bc ec 4a bd 4c 4a 88 3b 32 97 56 bd
       -0.028693778 -0.049542174 0.0041592475 -0.052390285
0002c0 77 58 89 3d ab 63 87 bd 09 76 e8 bb 49 55 83 bc
       0.067063265 -0.06610807 -0.007094149 -0.016031878
0002d0 1b fc a4 bd 1b fa 2c 3e f2 21 58 3f 4e d1 9e bc
       -0.08055898 0.16892283 0.84426796 -0.019386914
0002e0 f2 cd f4 bb 9b 4d eb 3d c8 e9 43 3d 90 89 8a bd
       -0.0074708397 0.114894114 0.047830373 -0.06764519
0002f0 fe 3f 2c 39 b8 16 d2 bc 3f 05 09 3e 6e 63 08 3c
       0.00016427037 -0.025645599 0.13380907 0.008324487
000300 c7 70 86 3b 43 43 55 bc 89 eb 14 3e 50 84 a3 bd
       0.0041027996 -0.013016525 0.14542975 -0.07984221
000310 b5 11 56 bd 3c c9 ce 3d cc d8 13 bd 18 bc 99 bd
       -0.05226298 0.10096976 -0.036095425 -0.07506579
000320 82 0b 00 3e 51 ff 0c bc fa c6 ba bc 26 a3 2e bd
       0.1250439 -0.008605794 -0.022799958 -0.04263606
000330 b7 e4 32 bc f6 94 36 bc 6e 73 f8 ba 13 e4 5b 3b
       -0.010918788 -0.0111439135 -0.0018955299 0.003355269
000340 b1 b2 02 3e 3b 8e d5 3b 70 4e cf 3c e4 d0 6e bd
       0.12763478 0.0065171993 0.025305957 -0.058304682
000350 78 c6 fe 3c 54 85 ab 3e a3 e7 bc 3d 71 bd 4e 3e
       0.031100497 0.3350016 0.09223869 0.20189454
000360 fc 60 27 39 bb ad 32 3f b4 4c ac bd 3b d3 a7 bd
       0.0001596249 0.6979634 -0.084130675 -0.08194586
000370 91 81 d5 3d 14 ba ee 3d 57 10 8e bc 56 fc a5 3d
       0.104251035 0.11656585 -0.017341776 0.0810477
000380 bb e5 b2 bd 3f 64 dc 3c 0e ff a8 bc eb af f3 bd
       -0.08735224 0.02690327 -0.020629432 -0.11898788
000390 bb 90 bd bd 62 e3 09 be 30 16 19 bd 56 84 58 3d
       -0.09256121 -0.13465646 -0.037374675 0.05286058
0003a0 8d 0f 04 bd 35 9d 28 be d7 4d a8 be ab a4 9b bb
       -0.032241393 -0.1646622 -0.32871887 -0.0047498546
0003b0 28 0b 66 be e7 30 53 be d6 c5 84 3d 05 4f c9 3c
       -0.22465193 -0.20624124 0.06483047 0.024573812
0003c0 1f 74 b3 bd af 16 9d 3b 57 64 11 bd 58 3f 45 3e
       -0.08762383 0.004793964 -0.035496082 0.19262445
0003d0 0c d1 4e 3d 7b 0a 78 3d d2 aa 81 bc b6 83 19 bc
       0.05049233 0.06055687 -0.015828524 -0.009369781
0003e0 69 8f fc 3c 00 f4 c3 bb 5f a6 0e 3e dc a1 60 3e
       0.030830102 -0.005980015 0.13930653 0.21936744
0003f0 92 20 61 3d 83 7c 9d 3c 41 3f fe 3d b8 2f 8a bb
       0.054962702 0.01922441 0.124144085 -0.0042171143

model.l1.bias f4 [90]
000000 86 94 5d 3c 4f 94 3e 3b 09 d9 a9 3c 13 63 4c bd
       0.01352418 0.0029080098 0.020733373 -0.049899172
000010 19 62 ac bc a2 de 10 bd 0b f0 91 3c 00 11 0c bd
       -0.02104287 -0.03536857 0.017814657 -0.0341959
000020 e6 b7 09 bd a8 75 da 3c 1c 7a b4 bc e6 34 0f bd
       -0.033622645 0.026667431 -0.022030883 -0.034962557
000030 7b f2 88 bc f9 bb 8a bc e2 fc 9e bc 6d fa 8a bd
       -0.016717186 -0.016935335 -0.019407693 -0.06786046
000040 98 a8 51 bb 4c 89 1f 3d 55 41 b0 bc 3d c0 3b 3d
       -0.003199136 0.038949296 -0.021515528 0.04583763
000050 bd b8 b8 bc a8 93 2f bd be 6e 7a bd 63 a3 3c bc
       -0.022549028 -0.042865425 -0.06114077 -0.011513564
000060 a9 05 4e bc 82 85 da 3c 56 a6 31 bd 56 ba 9e 36
       -0.012574592 0.02667499 -0.04337152 4.7304593e-06
000070 2f 50 0e 3d b1 b3 ee bb 52 5f 69 bd 1b e4 b1 3c
       0.034744438 -0.0072846045 -0.05697567 0.021715214
000080 08 f8 12 bc 0a db 75 bd bc da 97 bd 89 4d fd bb
       -0.008970268 -0.060023345 -0.07414767 -0.00773019
000090 85 55 04 3d 1b 37 95 3b b6 1f bb 3c 76 38 07 3d
       0.03230812 0.004553688 0.02284227 0.03301283
0000a0 31 55 13 3c 12 c7 82 bc fe 19 bc bc 8c d3 87 bd
       0.008992479 -0.015964065 -0.022961613 -0.06632146
0000b0 82 8c 95 bd d9 fe 6e 3c e2 d6 74 bc 8a ca 6e bd
       -0.0730219 0.014587128 -0.01494381 -0.058298625
0000c0 3d e3 12 bd 58 0a 8e 3c 43 5f c8 bc c0 01 96 bd
       -0.035861243 0.017338917 -0.024459487 -0.073245525
0000d0 38 b0 5a bd 76 f7 07 bd 18 f7 5d bd b2 45 5d bc
       -0.05339071 -0.03319498 -0.054190725 -0.013505386
0000e0 1a 19 9e 3b f2 82 f3 bc 04 88 30 bd a0 63 0d bd
       0.0048247697 -0.029725526 -0.043098465 -0.034518838
0000f0 74 d0 f9 3a 79 f2 f3 bb bc fd 62 bd 13 19 10 bc
       0.0019059316 -0.0074446765 -0.05541776 -0.008795041
000100 25 a2 25 bd 3d c1 50 bd 5a 6a 31 bc ff 18 46 bb
       -0.040437836 -0.050965536 -0.010828579 -0.0030227301
000110 1b 98 28 3d 00 69 6b bd d3 b5 93 bd 80 c9 3d bd
       0.041160684 -0.057473183 -0.072124146 -0.046334743
000120 1b 77 1c bd 28 64 12 bc 30 3a d7 3c 8e a1 08 bd
       -0.038199525 -0.008935012 0.026272863 -0.033357196
000130 ab 5c 83 bd 8b 08 5b bd a0 c1 a0 3c 75 95 9c bd
       -0.064141594 -0.053474944 0.019623578 -0.07645694
000140 2a ef 8e bd 1e fd 81 bd f9 7b 50 bd 9a 4d 86 bc
       -0.06979211 -0.063471064 -0.05089948 -0.016394425
000150 ac 08 fd bc 37 89 0f 3d 08 69 4f bd 5b 85 00 bd
       -0.030887924 0.035042968 -0.050637275 -0.031377178
000160 c6 4a 36 bd 8a ac 8f bd
       -0.044504903 -0.07015331

model.l2.weight f4 [60, 90]
000000 9f c7 93 3d 99 1a 00 be 7c 76 b2 bc 70 7b 07 3e
       0.07215809 -0.12510146 -0.021785013 0.13230681
000010 5b 50 1c 3d 55 e3 9d bc 54 c0 43 be cd a3 4a 3c
       0.03816257 -0.01927344 -0.19116336 0.012368155
000020 db e6 c3 bd 4b a0 31 3e 92 4f 90 be 5c 8a 5b 3d
       -0.095655166 0.17346303 -0.28185707 0.053598747
000030 58 c2 42 3d e5 f5 83 3d 5e ed 91 bb 11 f7 32 bd
       0.047548622 0.06443385 -0.004453345 -0.043692652
000040 ba 8f 96 3c 8f 19 29 bd 49 62 d8 be ab a9 8c 3e
       0.018379081 -0.04128414 -0.42262486 0.27473196
000050 2b c4 68 be 46 27 91 bc 33 6e 74 3d c9 6d 8b 3d
       -0.22731082 -0.017718922 0.059675407 0.06808049
000060 b8 7a 6e bd 9e f4 53 be e2 86 fe be bd 91 26 bd
       -0.058222502 -0.20698783 -0.49712282 -0.04066633
000070 eb 2f 15 ba b2 2e 0d bd 84 14 95 3d 7c e1 dc be
       -0.0005691039 -0.03446836 0.07279304 -0.4314078
000080 b8 7b 4d 3c f7 cd 61 be 5e 9b de bb d8 06 42 3e
       0.012541704 -0.22051226 -0.0067934236 0.18947923
000090 56 6b 17 be 6a cf 16 3b 49 61 e9 bd fa dc ea bd
       -0.14787039 0.0023011812 -0.11395509 -0.11467929
0000a0 db 3d 13 be 52 8c 85 3e 99 d4 5d 3d 9d 01 f7 3c
       -0.14379065 0.26083618 0.054157827 0.030152136
0000b0 63 a0 c3 bd 42 5e b3 bd 3d 38 0d bd d2 98 fa 3d
       -0.09552076 -0.087582126 -0.03447746 0.122361794
0000c0 8d 9c a9 3e 60 93 f6 bd af a0 0b 3e 2e 8c 05 3e
       0.3312725 -0.12039828 0.13635515 0.13041756
0000d0 2f 0f a8 bb 79 3a 21 bd 41 a2 6a bc 4d 38 49 bd
       -0.005128763 -0.039362404 -0.014320911 -0.04912596
0000e0 74 67 4b 3d 2a 62 15 bd fe 2e 18 3c 08 d8 32 bc
       0.049659207 -0.03647057 0.009288548 -0.010915764
0000f0 c4 96 cd be 11 2c 2f 3e ef 57 23 bc bf 68 98 bd
       -0.40154088 0.17106654 -0.0099696955 -0.07441854
000100 f9 83 b9 be de aa 53 3e a9 be 82 bd 19 8f 1e bd
       -0.362335 0.2067065 -0.06384022 -0.038710687
000110 9b 6c c7 bb 78 ec 85 be 60 e8 9e bd c8 c8 bf bc
       -0.006085945 -0.26156974 -0.07759166 -0.02341117
000120 55 46 8f bd e4 d8 16 3e ab 68 19 3e f2 29 8f bd
       -0.06995837 0.14731175 0.14981334 -0.06990422
000130 c2 c4 25 be c0 88 bb 3d 04 48 84 ba dc 30 c5 bd
       -0.16188338 0.09156942 -0.0010092263 -0.0962846
000140 5f dd 85 bd a6 6d 89 bd 02 da ad bc 16 bd 8d be
       -0.06536364 -0.06710367 -0.021222118 -0.27683324
000150 47 81 02 3c 26 47 51 bd 45 03 55 be af 72 43 bd
       0.007965392 -0.051093243 -0.20802028 -0.047716793
000160 7f 8e d3 bb d6 da 01 be ca f6 32 be c4 bc 32 3b
       -0.006456196 -0.12681136 -0.17476955 0.0027273158
000170 9c c8 21 bd 02 fb 84 3c ce 2d 49 bd c0 13 c2 bc
       -0.039497957 0.016232971 -0.04911595 -0.023691058
000180 4d 80 90 3e 98 18 2c 3d 00 b4 41 3d 67 24 e0 3b
       0.28222886 0.042015642 0.047290802 0.006840277
000190 1d b3 8d bd b5 02 b4 be 38 24 8d 3e e3 92 80 3c
       -0.06918929 -0.35158315 0.27566695 0.015695041
0001a0 3e 6c a6 3d 30 26 cc 3c 21 ff a9 3d 70 3a 9d ba
       0.08126114 0.024920553 0.08300615 -0.0011995565
0001b0 64 40 e5 bd 11 17 ba bc 8d f9 58 bd b7 fd f8 3c
       -0.11193922 -0.022716077 -0.052972365 0.030394418
0001c0 7a 5d 57 bd b4 a3 04 3e 00 0a ca bd 00 d5 4e 3d
       -0.05257938 0.12953073 -0.098651886 0.0504961
0001d0 b3 9c cb be 30 f8 89 3d 9d 50 40 3d c9 99 15 be
       -0.3976799 0.06736791 0.04695188 -0.14609446
0001e0 35 5c 36 bc b2 f0 f9 3d 67 1d b5 3c e7 5e 04 3e
       -0.011130382 0.12204112 0.022108747 0.12926827
0001f0 10 60 07 bd f9 03 23 3d 3f 49 5d bd 54 08 bb 3b
       -0.033050597 0.03979871 -0.05402493 0.00570778
000200 3b ae 91 3d 1b 76 1e be ab 8b 19 bd d7 ee 91 3d
       0.0711331 -0.15474741 -0.037486713 0.07125633
000210 d0 a7 80 bc 95 e6 28 3d 56 fa ab bc ea 7b 99 bd
       -0.01570502 0.041235525 -0.020993393 -0.07494338
000220 4c d8 40 bd c1 4b 0a bd 70 9d 31 bc 33 db 64 3e
       -0.047081277 -0.03376365 -0.010840759 0.22349243
000230 38 91 50 3d 2a 53 d7 3e 93 e1 61 3c 4a 16 45 bd
       0.05091974 0.42055637 0.013786691 -0.04811696
000240 6c c8 a4 be 22 31 3d 3c 7e ac 1c 3d 4f 02 0e 3e
       -0.3218416 0.011547359 0.03825044 0.13868068
000250 00 f5 cc bd 15 45 eb bc fc 37 a5 be 37 27 10 3e
       -0.100076675 -0.028719464 -0.32269275 0.1407746
000260 af 85 81 bd b9 3f 23 3e cf ee 71 be 91 26 48 3e
       -0.06324326 0.15942277 -0.23626254 0.19545962
000270 79 4d 6b bc a3 99 92 bd d3 ac 05 be 00 17 12 be
       -0.014361733 -0.0715821 -0.13054208 -0.14266586
000280 ae 35 49 3b 4e 48 0a 3d 5c 16 70 bd f7 2d 29 3e
       0.0030702162 0.03376036 -0.058615074 0.1652144
000290 40 a5 cc 3e 2e 77 ad bc 4b 4a 8a bd 8d 41 70 be
       0.39969826 -0.021174993 -0.067524515 -0.23462506
0002a0 ee 72 2d bd be 01 90 bd 36 0a 1a bd be 59 53 bd
       -0.042345934 -0.07031582 -0.037607394 -0.051599257
0002b0 a0 06 6c 3d 1c 41 bb bd 51 de 93 3d a1 e7 9a 3d
       0.057623506 -0.09143278 0.07220138 0.07563711
0002c0 56 2c 84 bc 15 f1 bb 3c f7 23 f3 3e b7 b0 52 bd
       -0.016134422 0.022942105 0.47488376 -0.05143806
0002d0 a3 87 26 be 84 b2 5e 3c df 31 59 bd 83 41 af bb
       -0.16262679 0.013592366 -0.053026076 -0.005348386
0002e0 5f 1e e5 3d 66 e5 31 3d 64 40 0a 3e 2f 36 aa 3c
       0.111874335 0.043431662 0.13501126 0.02077779
0002f0 0b 59 6a 3e 54 22 b7 bd a4 dd 24 bd a4 2f ad be
       0.2288553 -0.089420944 -0.040250435 -0.3382541
000300 7a ee 7c 3e 4c 2b 0f 3e b2 b1 8a 3d 9e 8f fb bc
       0.24700347 0.1398136 0.06772174 -0.03070813
000310 e2 60 85 3d f4 14 c5 bd ff c4 c7 3d 71 03 50 be
       0.065126196 -0.09623137 0.09754371 -0.20313813
000320 69 3f ca bd 6e 7d a3 3b 7b 29 a3 3d 69 5e d5 3d
       -0.09875376 0.0049893176 0.07966896 0.10418398
000330 4c 86 44 bc 44 a2 cb bd 21 6c 81 be b7 9a 73 bd
       -0.0119949095 -0.09943059 -0.25277808 -0.05947372
000340 a0 c3 00 bd 9d 98 09 3d f9 c7 83 3b 3d 24 71 bd
       -0.031436563 0.03359281 0.0040216413 -0.05887245
000350 0c d1 4c 3d db 61 81 3d cc 34 8c bc e4 b7 86 bc
       0.05000405 0.063174926 -0.01711502 -0.016445108
000360 ba 0c 7e 3d d2 f1 aa bd 3d 1b c9 bd a3 8d 97 3d
       0.062023856 -0.08346905 -0.098196484 0.07400062
000370 1c 19 45 bd 20 79 a6 3d d7 48 c8 3c d4 05 94 bc
       -0.04811965 0.081285715 0.024448795 -0.018069185
000380 1e b8 2f 3d 6a c5 50 bd 61 c8 91 bd 53 96 4c 3d
       0.042900197 -0.05096952 -0.07118297 0.049948048
000390 3a 78 c7 bd c2 1c 97 3e a1 cf eb bb d4 79 ed 3e
       -0.09739728 0.29514128 -0.007196382 0.4638201
0003a0 96 28 d4 3c 0e b5 06 be e7 e4 41 be f0 12 81 3d
       0.02589826 -0.13155004 -0.18934976 0.0630244
0003b0 71 64 89 3c 97 91 32 3b d2 d7 86 bb ec 3a 8a 3d
       0.016771527 0.0027247423 -0.0041150833 0.0674952
0003c0 8d 9b 69 be 26 48 82 bd 11 a6 b9 bd 51 3c 92 3e
       -0.22813244 -0.063614175 -0.09064878 0.28561643
0003d0 2e cf 0f be 3d a8 f5 3d 3a 52 2b be 7c 2e b1 bd
       -0.14043877 0.119949795 -0.16730586 -0.08651444
0003e0 f8 02 61 be c0 72 cd bd 2c 26 c8 3a 91 52 3b bd
       -0.21973789 -0.100316525 0.0015270165 -0.04573304
0003f0 1a 20 4f bd 2f 3b 0b 3e 25 b8 0a 3f a3 58 c9 3d
       -0.050567724 0.13596795 0.5418723 0.09831359

model.l2.bias f4 [60]
000000 8f 34 8f bc 03 36 00 3d 22 53 90 3d ee 85 27 3d
       -0.017481117 0.03130151 0.07047106 0.04089921
000010 95 c3 3c 3d 00 1b 8c 3d 29 3d d6 3c e3 5d 18 3d
       0.04608496 0.06841087 0.02615221 0.037198912
000020 2e 8b 33 bd 36 3b 56 3d 7d d7 98 bd 9c 66 46 3d
       -0.043833904 0.05230256 -0.07462976 0.0484377
000030 5d ae 8e 3d a3 74 8c bc 09 4b b2 bc 84 aa 26 bd
       0.06966851 -0.01714546 -0.021764295 -0.04068996
000040 01 84 ba 3d 93 54 c8 3d 55 52 11 bd 4d 1a 06 3c
       0.09107209 0.09781756 -0.03547891 0.0081849815
000050 43 70 d0 bc 9e 1f c2 3c 16 d9 6f bd 9b 33 7e 3d
       -0.025444156 0.023696717 -0.05855664 0.062060934
000060 b0 b3 3f 3d ee 25 c4 bc f9 50 fd 3b 0d b9 e7 bd
       0.046802223 -0.023943868 0.0077306 -0.113145925
000070 b3 3a 80 3b 42 aa 1b 3a 57 32 ee bc 81 d8 fd bc
       0.0039132475 0.0005938151 -0.029076738 -0.030987026
000080 e9 44 d9 bc 9c 7c c3 bd fe fe 00 3d 13 00 92 3a
       -0.026522117 -0.09545252 0.03149318 0.0011138938
000090 61 29 92 bc 37 87 27 3d f8 0c 2e 3d a4 e0 8e 3d
       -0.017841997 0.040900435 0.042492837 0.069764405
0000a0 da ca 85 bd 21 20 4e bd 28 6a f1 3c 54 c2 06 3d
       -0.065328315 -0.05032361 0.029469565 0.03290017
0000b0 07 73 2b bc e1 a3 9e bc 12 43 f8 3c 35 c5 65 bc
       -0.010464436 -0.019365253 0.03030542 -0.014024069
0000c0 28 3c 30 3d 85 b5 d8 bc bf a3 49 3d ee 19 48 3d
       0.04302612 -0.026453743 0.049228426 0.048852853
0000d0 54 66 02 3d c1 a7 22 bd d4 1b 6c bd c9 7e 3a 3c
       0.03183587 -0.039710764 -0.057643726 0.011382767
0000e0 ed fa a2 3d aa 79 b4 3c 61 bc bd 3c 81 cb 01 bd
       0.079580165 0.02203067 0.023161115 -0.031688217

model.l3.weight f4 [30, 60]
000000 01 f1 03 bf b8 25 3e 3d 7f 83 89 3d 73 88 a2 be
       -0.5153962 0.04642269 0.06714534 -0.31744727
000010 4f 9b 62 3e c8 50 9e bb b2 7e da bd 26 da 54 bd
       0.22129558 -0.004831407 -0.106686965 -0.051965855
000020 41 ea 68 bd 11 d1 4f 3d 0c 83 5d bb fa 40 fd 3c
       -0.056864027 0.05073649 -0.0033800034 0.030914772
000030 9f 63 a0 3e 75 46 86 bd 22 7b 9b be 03 1c a0 be
       0.31326005 -0.06556407 -0.3036738 -0.3127137
000040 5e be b8 bc 04 2d 84 3e f0 bc 31 bc 4c 6b 6d bf
       -0.022551712 0.25815594 -0.010848269 -0.9274185
000050 c6 5e 85 be 91 99 33 3e 6f e0 3b be 43 33 a3 3e
       -0.2604887 0.1753905 -0.18347333 0.31875047
000060 43 49 98 3e 39 46 1a be 8a 57 2c 3e 87 a6 02 be
       0.29743394 -0.1506585 0.16830269 -0.12758838
000070 eb a0 57 3e c7 e3 bd bd 09 5d 03 3e 6d ce 87 be
       0.21057479 -0.09271961 0.12828459 -0.26524678
000080 03 b9 7f bd fb 08 2e be 54 ae 37 bd 16 2e 81 be
       -0.0624323 -0.16995613 -0.044843987 -0.25230473
000090 22 78 cc bd 0d e9 99 3d fa 33 21 3e 29 80 f0 3d
       -0.09983851 0.07515154 0.15742484 0.117431946
0000a0 7b 7a c2 be d6 9c 59 be a0 3f 68 3e 7d 78 37 bd
       -0.3798407 -0.21251234 0.22680521 -0.04479264
0000b0 c2 a7 2c bf c7 ff 3b bf ac 32 1a bf 42 2f 26 bd
       -0.6744348 -0.7343716 -0.6023357 -0.040572412
0000c0 2b 52 91 3e c5 7f 96 bd fb 97 15 3e 25 0c 17 3e
       0.28383002 -0.07348589 0.14608757 0.14750727
0000d0 41 d2 cb 3e 45 40 98 be 54 0a ee bd 79 ad fe be
       0.39808849 -0.29736534 -0.11623064 -0.49741724
0000e0 9a 95 ed bc f8 4d 24 3e 4a 7f e9 3c 67 86 fa bc
       -0.029002 0.16045368 0.028503079 -0.030581666
0000f0 27 08 31 3e 6e 26 1f be 87 3d 57 be 81 4a bf 3c
       0.17288266 -0.15542004 -0.21019565 0.023350956
000100 f0 b2 5d bd e5 03 b4 be 9d b3 8e 3d dc 78 a1 3d
       -0.054125726 -0.3515922 0.06967852 0.0788438
000110 e9 c3 51 be 4d 30 97 be 89 59 a2 3d 1f 98 d1 be
       -0.2048489 -0.29529038 0.07927234 -0.40936372
000120 80 65 4b be 08 38 b0 be 4e ea af bc 5d 17 63 be
       -0.19862938 -0.34417748 -0.02147403 -0.22176881
000130 1a b6 e4 3d 31 4e 4a 3e 7c 87 8b bc c5 ba 75 3e
       0.111675456 0.1975639 -0.017032377 0.23997028
000140 84 80 b8 3d 7b 18 42 3e 01 65 5d 3e af 0b 66 bc
       0.090088874 0.18954651 0.21620561 -0.0140408715
000150 6d c9 57 3e 8b e6 f0 3e f5 20 66 be 85 f9 27 3e
       0.21072932 0.4705089 -0.2247351 0.16403778
000160 58 1d 37 3e 8f 14 ce 3e f4 79 9a bd 0f 12 d0 3d
       0.17882288 0.4025006 -0.07542792 0.101596944
000170 26 55 a2 be 71 77 da bd 57 a7 c8 3d 87 84 91 3d
       -0.31705588 -0.10667313 0.097975425 0.07105356
000180 00 f1 de 3d 4f dd 84 bd 6a 34 aa be fc 87 53 3e
       0.10885811 -0.06487524 -0.33243114 0.20657343
000190 a3 6d 7e bd 63 c6 1e 3d 4f ec 44 3c 8c ae 42 bd
       -0.062116276 0.038763415 0.012019231 -0.047529742
0001a0 8f 36 f0 3e 8d 69 0a 3f a5 36 0a 3d 0f d8 c7 be
       0.46916625 0.5406731 0.03374352 -0.39032027
0001b0 5b 66 0d bd 69 9e a3 be 83 d9 9b be 28 a9 a1 3d
       -0.034521442 -0.31956795 -0.30439386 0.07893592
0001c0 ac 05 73 3c 75 8c b9 3e 8b 6e 38 3e 79 b4 4e 3e
       0.014832895 0.36239973 0.18010919 0.20186032
0001d0 11 79 46 be 5d cf fc 3d 54 b1 c8 bd 41 a4 5b bd
       -0.1938212 0.12344239 -0.09799448 -0.05362344
0001e0 c1 e3 c3 be 77 53 c8 bd 83 19 04 3c 74 bb 8d bd
       -0.382597 -0.09781545 0.008062723 -0.069205195
0001f0 6f 3f 20 bd a7 e5 8a 3c 47 0d a5 be cc b5 8f 3c
       -0.039122995 0.01695521 -0.32236692 0.017542742
000200 99 18 e2 3d 1a 25 b2 bc ee 6a 3f be 5c 35 8a bd
       0.11039848 -0.021746207 -0.18693134 -0.06748459
000210 12 43 49 3e c5 b2 a3 bd 5c 08 8b be 6a 21 b2 be
       0.19654492 -0.07993082 -0.27154815 -0.34791118
000220 e3 f6 a3 3d bd 47 40 bd 4a 5d 31 bd f2 ee d3 bd
       0.08006074 -0.046943415 -0.043301858 -0.103483096
000230 5a 7d 26 3b 08 68 68 3e dc fd 81 be c1 b4 f8 bd
       0.0025404305 0.22695935 -0.25388992 -0.12143851
000240 69 01 78 3d 0a a6 d0 bd f9 0d 21 be c1 2f 00 bf
       0.06054822 -0.101879194 -0.15727986 -0.50072867
000250 d9 ce dd 3d c3 95 60 bd f9 1d 94 3d f0 cd 75 be
       0.10830469 -0.054830324 0.07232279 -0.2400434
000260 2b 7f 9e 3e d0 a3 b3 bd a1 ba 21 be 6e 37 07 3e
       0.30956396 -0.08771479 -0.1579385 0.13204738
000270 09 8b 70 bd 05 d0 70 3d 4f 1f 2e bc 5b 49 81 3e
       -0.058726344 0.058792133 -0.010627582 0.25251278
000280 06 77 95 be e7 ae 20 be 43 8a 77 3e b8 a1 d4 be
       -0.2919237 -0.1569172 0.24173836 -0.41529632
000290 a9 d3 24 be cd af 32 3c 4b d6 19 bc 90 e2 a3 bd
       -0.16096367 0.010906172 -0.00938947 -0.08002198
0002a0 b2 1f 60 bd 83 61 75 3d 9e 98 b9 be f1 22 37 be
       -0.054717727 0.059907448 -0.3624925 -0.17884423
0002b0 72 73 f3 3e 4c 92 a2 be 0e f4 9f bd fa 0f e5 be
       0.47549015 -0.3175224 -0.078102216 -0.44738752
0002c0 05 10 20 3e af 56 80 bd 82 35 0e 3e 27 43 af be
       0.15631111 -0.062665336 0.13887599 -0.3423092
0002d0 b0 f5 06 be 38 1d be be 9a b7 8b be a3 c0 7c 3e
       -0.1317966 -0.37131667 -0.27288514 0.2468286
0002e0 c5 7f 15 bd c7 f9 51 be c4 1d 12 3e ec 1d 6a 3e
       -0.036498804 -0.20505439 0.14269167 0.22862977
0002f0 77 01 74 be 21 a7 3c be b9 db 69 3e 5b b9 2c be
       -0.23828684 -0.1842313 0.22837724 -0.16867582
000300 96 a8 7d be 90 02 c5 bc e8 47 70 bd c9 c2 2a 3b
       -0.24771342 -0.024049073 -0.058662325 0.0026056042
000310 62 cc bc bd 6f 48 f9 3d e9 ca 7c 3e f8 d6 03 3d
       -0.092186704 0.12172019 0.24686779 0.032187432
000320 22 8a be 3d 02 57 74 3d 2d 7a c4 3c 5b f5 42 be
       0.093036905 0.05965329 0.02398404 -0.19038908
000330 a0 87 26 3e 74 69 79 3d af 94 18 be 90 68 81 bd
       0.16262674 0.060891584 -0.14900468 -0.06318772
000340 22 27 43 3e bb 78 2e 3e 91 bd 57 bd f2 22 80 3e
       0.19057897 0.17038243 -0.05267102 0.2502666
000350 f1 0b 68 be bf 2a b2 bd 49 07 3e 3e bf 7d 30 3e
       -0.22660805 -0.086995594 0.18557467 0.17235468
000360 9b d6 1b 3e 55 f7 55 be 96 c9 2a be da cb 3b 3e
       0.15218584 -0.20895131 -0.16678461 0.18339482
000370 3f dd ce bc 79 49 5d 3e 45 b2 b5 bd 2b bb 8a 3e
       -0.025251983 0.21610059 -0.08871893 0.27095923
000380 a9 89 e2 3d fd 96 56 3e 4a e5 d7 3d 11 81 50 be
       0.11061413 0.20956035 0.1054178 -0.20361735
000390 d2 26 0a be 5d 97 4d be f9 0f 25 be ad 91 39 3e
       -0.13491371 -0.20077272 -0.16119374 0.18121977
0003a0 b3 3f d3 be 3e a7 49 3e 15 71 1f 3e 43 d8 9b 3e
       -0.41259536 0.19692704 0.15570481 0.30438432
0003b0 62 5f 37 be 1e 1c 94 3d 07 92 91 be 05 bb bc 3d
       -0.1790748 0.072319254 -0.28431723 0.09215359
0003c0 1f 13 51 bf e3 78 c8 bd 7f 60 02 3e 73 2b 02 be
       -0.816698 -0.09788682 0.12732123 -0.12711887
0003d0 bf d8 90 3d 7b 53 20 be 82 36 be bd cf 3e 65 bd
       0.07072591 -0.15656845 -0.0928774 -0.055968102
0003e0 65 5d c9 3d d3 f1 82 3e 6a 09 4f be 5f 5f 6c bd
       0.09832267 0.25575122 -0.20218435 -0.05770814
0003f0 f9 dc b7 3e 89 c3 80 bd 42 a2 84 be 66 5f 33 be
       0.35910776 -0.06287295 -0.25905043 -0.1751686

model.l3.bias f4 [30]
000000 c5 7c ee bc 82 01 ef bc 28 72 b2 3d df ce 29 3d
       -0.02911223 -0.029175524 0.0871318 0.041457053
000010 0e 16 b5 3c 94 12 a5 3d 1e 4c 0b 3e da 89 a0 3d
       0.022105243 0.08060184 0.13603255 0.07838793
000020 f0 08 f7 bc fd b6 bd 3d 3c 84 ee 3d 0c b7 97 3c
       -0.030155629 0.09263418 0.116463155 0.0185199
000030 f6 7d f1 3c 8e d5 af 3d 89 c9 d3 3c 53 83 75 3d
       0.029479008 0.08585654 0.025852935 0.059939694
000040 51 7a 6e 3d 14 f1 d1 bc a1 78 2f 3d f5 a6 d0 3b
       0.05822212 -0.02562765 0.04283965 0.006367559
000050 f2 64 a7 bb 83 7f 8e 3d c1 f1 02 3e 60 d5 88 3c
       -0.005108469 0.06957915 0.12787534 0.016703308
000060 8d 15 e0 3c a4 6a 64 3d 94 a0 bd 3d b3 bc 43 bb
       0.027354026 0.055765763 0.092591435 -0.0029867112
000070 9e eb 9e 3b 61 f3 d8 bb
       0.004849865 -0.00662081

model.l4.weight f4 [1, 30]
000000 4c 11 fc 3e 66 c3 ca be a9 ff 4f 3e ae c3 c3 be
       0.49231946 -0.39602202 0.2031237 -0.3823523
000010 e3 2a b6 3e f2 9d 44 3e 20 55 88 3e 28 53 28 3e
       0.35579595 0.19200876 0.26627445 0.16437972
000020 93 f5 01 bf 35 77 9c 3e a7 d1 0f 3e 63 03 2b be
       -0.5076534 0.30559698 0.1404482 -0.1670051
000030 ac b8 82 be 06 fe c8 3e 1f b5 e0 be ba dd f1 3e
       -0.25531518 0.39256305 -0.43888184 0.47239476
000040 84 c7 58 3e 4d d3 8f be 98 5d cb be 58 63 be 3e
       0.21169859 -0.28090897 -0.39719844 0.37185168
000050 3a b2 50 3f d2 82 80 3e 31 16 86 be a1 f6 1a bf
       0.8152195 0.25099808 -0.26188806 -0.60532576
000060 76 26 f7 3e cf 11 c5 3e af 3d 4f 3e c4 dd 9c be
       0.4827153 0.3849015 0.20238374 -0.30637944
000070 8b 74 a0 be 24 b4 af be
       -0.31338915 -0.34317124
