model_dsm11rmcov/v3-[90, 30]-0.0001-200.pth (torch, 129502 bytes, 5 tensors)

model.l1.weight f4 [90, 320]
0	0x3de2872c	0.11060938
1	0x3d26f823	0.040763985
2	0x3dd6815f	0.10473894
3	0x3e1881f1	0.14893319
4	0xbd0ddc80	-0.034634113
5	0xbc3334d2	-0.010937886
6	0x3e6e8190	0.23291612
7	0x3dbdf745	0.092756785
8	0xbd191d34	-0.037381366
9	0xbc189f3d	-0.009315309
10	0xbc48686c	-0.012231927
11	0xbd9644a4	-0.07337311
12	0x3d4ca4c7	0.04996183
13	0x3d927959	0.071520515
14	0xbc66d467	-0.014088727
15	0xbd19ce45	-0.03755023
16	0xbb9c61e9	-0.004772414
17	0xbdf2fdd0	-0.11864817
18	0xbe1163f4	-0.14198285
19	0x3ca58c34	0.020208456
20	0xbd872e6f	-0.066006534
21	0x3cace71d	0.021106297
22	0xbe41e46b	-0.18934791
23	0xbe144ff3	-0.14483623
24	0x3d2ad15e	0.041703574
25	0x3d83c2fc	0.06433675
26	0xbcf41b74	-0.029798247
27	0x3dd88d00	0.105737686
28	0x3dfe8252	0.124272004
29	0xbdc703c8	-0.09717518
30	0xbd6f72b4	-0.058459
31	0x3d8f2e00	0.06991196
32	0x3c78d33a	0.015187079
33	0xbd9c9f4e	-0.076475725
34	0x3da4e17e	0.08050822
35	0x3b97d35f	0.0046333517
36	0x3d6cccf2	0.05781264
37	0xbe03cf66	-0.12872085
38	0xbcfc205e	-0.030777153
39	0xbc90fbc4	-0.017698176
40	0xbd0aaf86	-0.0338588
41	0xbd970b3e	-0.07375191
42	0xbd7b5db9	-0.061368678
43	0x3cc90878	0.024540171
44	0xbd1a9cda	-0.03774724
45	0xbe28ac65	-0.16472013
46	0xbc091ef9	-0.008369201
47	0x3db293cf	0.087195985
48	0xbdc2686c	-0.09492573
49	0xbbacd310	-0.005274184
50	0xbd9497ea	-0.07255538
51	0xbb74f0f4	-0.0037375065
52	0x3e380a3e	0.17972657
53	0x3e3264b1	0.17421223
54	0xbd8b3ab9	-0.0679831
55	0xbd15ba26	-0.036554478
56	0xbd0ee9d1	-0.034890953
57	0x3d9222c0	0.07135534
58	0xbdb61b8c	-0.08891973
59	0x3c201fea	0.009773234
60	0xbe9dd97b	-0.30829987
61	0xbd3cc124	-0.04608263
62	0x3d3ea109	0.046540294
63	0x3d9a47f7	0.075332575
64	0xbcbc9d47	-0.023024214
65	0xbc5b1146	-0.0133708175
66	0x3d9ff8d3	0.07811131
67	0xbdad6ea3	-0.08468368
68	0xbd2edccf	-0.04269105
69	0x3e5b53fd	0.21418758
70	0x3daf840d	0.085701086
71	0xbd7568a8	-0.05991426
72	0xbde9414a	-0.11389406
73	0x3cb46d05	0.02202464
74	0xbe3cf565	-0.18452986
75	0xbdb1b0a8	-0.08676273
76	0xbd4a329b	-0.049364667
77	0xbdfe9f79	-0.12432761
78	0x3d1ad318	0.03779897
79	0x3c7edaa0	0.015555054
80	0x3d700ef7	0.05860802
81	0xbd43b10f	-0.047776278
82	0xbde4bba5	-0.11168603
83	0x3d782336	0.060580455
84	0xbe1897b2	-0.14901617
85	0xbcd6d5c0	-0.02622497
86	0x3ce18a57	0.027531786
87	0xbe1d966e	-0.15389416
88	0x3db2d297	0.08731573
89	0x3d5c8fc7	0.053848054
90	0x3d330f93	0.043716025
91	0x3d83bdfb	0.0643272
92	0xbd1c585b	-0.0381702
93	0x3da7677b	0.08174034
94	0xbda53761	-0.08067203
95	0xbd788195	-0.060670454
96	0xbe2587aa	-0.16165033
97	0x3ddff5e2	0.1093557
98	0x3db73baa	0.08946927
99	0x3ccbbf88	0.024871603
100	0x3ce7e6c9	0.02830829
101	0xbd4d53f7	-0.050128903
102	0xbda4ad4c	-0.08040866
103	0xbd9cb434	-0.076515585
104	0x3d37068a	0.04468397
105	0xbd5a28c1	-0.053261522
106	0x3c6fb982	0.014631631
107	0x3b1d24b9	0.0023978187
108	0xbc931915	-0.017956296
109	0xbc91398f	-0.017727641
110	0xbbb6dbb9	-0.005580392
111	0x380ed592	3.405434e-05
112	0x3d85f245	0.0654035
113	0xbe0ffd32	-0.1406143
114	0x3d8217ea	0.063522175
115	0x3ca12286	0.019669782
116	0xbdd380ce	-0.10327302
117	0xbd367f51	-0.044555012
118	0x3d1b79f0	0.037958086
119	0xbd1d051d	-0.038334955
120	0xbacfc699	-0.0015852033
121	0xbda82630	-0.08210409
122	0xbdf18d28	-0.117945015
123	0x3d11324b	0.035448354
124	0xbe008c31	-0.12553479
125	0xbcbdce9c	-0.023169808
126	0x3d47eb80	0.048808575
127	0x3dccd1e7	0.10000973
128	0x3d654f2e	0.055983715
129	0xbe4d101b	-0.20025675
130	0x3c038447	0.008027143
131	0x3d2bd97a	0.04195545
132	0x3e147971	0.14499451
133	0x3d239ff8	0.03994748
134	0xbca4b1d1	-0.02010432
135	0xbb51f5bb	-0.0032037336
136	0xbcc0ae6e	-0.023520675
137	0xbdb7753d	-0.08957908
138	0xbbac54d6	-0.0052591367
139	0xbafd8ac9	-0.0019343729
140	0xbdbf1286	-0.09329705
141	0xbdb14787	-0.08656221
142	0x3e22a900	0.15884781
143	0x3da988be	0.082780346
144	0x3d10554e	0.035237603
145	0x3dc2701c	0.094940394
146	0x3e350a06	0.17679605
147	0xbdd259e2	-0.1027105
148	0x3d17ec76	0.03709074
149	0x3ccf3d26	0.025297713
150	0x3ca18af4	0.019719578
151	0x3d05c3d1	0.03265745
152	0x3d0a2819	0.033729646
153	0x3cd140f4	0.025543667
154	0x3d72d275	0.05928274
155	0x3dd49b73	0.10381212
156	0x3d1db4d0	0.038502514
157	0x3c091435	0.008366634
158	0xbd8f8816	-0.07008378
159	0x3bbef370	0.00582736
160	0xbc4ea78e	-0.01261319
161	0xbe1d445b	-0.15358107
162	0xbdc6bb6a	-0.09703715
163	0xbd105566	-0.035237692
164	0x3e36cd21	0.17851688
165	0xbdbbf800	-0.091781616
166	0x3dac8662	0.08424069
167	0x3da4fe41	0.080563076
168	0xbdfebe4f	-0.12438642
169	0xbda0dea1	-0.07854963
170	0xbdc1ab7b	-0.094565354
171	0xbceb7b25	-0.028745243
172	0xbd01ce9e	-0.031691186
173	0x3cdacc91	0.026708873
174	0x3e0ce5f4	0.13759595
175	0x3e112e7e	0.14177892
176	0xbd32dded	-0.043668676
177	0x3d8e9231	0.069614775
178	0x3dc357cf	0.095382325
179	0x3c2a956b	0.010411601
180	0x3d5c2a51	0.053751294
181	0xbcf606a6	-0.030032467
182	0xbd665306	-0.05623152
183	0xbdd6c2cf	-0.104863755
184	0xbde106d8	-0.109876335
185	0x3dad2e00	0.084560394
186	0xbc6b39ee	-0.014357073
187	0xbc454007	-0.012039191
188	0xbd12b976	-0.0358214
189	0x3d14fdc9	0.03637484
190	0x3d431eb3	0.0476367
191	0x3c1a9026	0.009433782
192	0xbe2b0155	-0.16699727
193	0xbd3fdfa1	-0.04684413
194	0xbd2774c4	-0.04088284
195	0x3ca34990	0.019932538
196	0xbcc8f518	-0.024530932
197	0x3b830cb0	0.003999315
198	0xbda7fe89	-0.082028456
199	0x3daab852	0.083359376
200	0xbe2ac797	-0.166777
201	0x3d56b87e	0.05242204
202	0x3d0523e0	0.032504916
203	0x3bc5b46d	0.0060334713
204	0x3d88c8a8	0.06678897
205	0x3de79a7c	0.113087624
206	0x3e1ad892	0.15121678
207	0x3c858a84	0.016301401
208	0x3cc64aec	0.024205647
209	0x3c177be0	0.009245843
210	0xb98a3bd2	-0.0002636598
211	0xbb951f0d	-0.0045508207
212	0xbc83694f	-0.016041426
213	0x3c7f7e79	0.015594118
214	0x3ca590fa	0.020210732
215	0xbd805d12	-0.06267752
216	0xbd636491	-0.05551583
217	0xbdd9ef28	-0.106413186
218	0x3e3d4827	0.18484555
219	0x3c81ccd8	0.015844747
220	0xb9eb47c3	-0.0004487616
221	0x3c6ead96	0.014567753
222	0xbdb41363	-0.0879276
223	0x3d893f1b	0.067014895
224	0xbc2daccd	-0.010600281
225	0x3e5ac5ae	0.21364471
226	0xbd8202eb	-0.06348213
227	0xbdb3ee52	-0.0878569
228	0x3df95ab3	0.12175503
229	0x3dd6c72c	0.10487208
230	0x3d8e9ade	0.06963132
231	0xbcac0661	-0.020999135
232	0x3e0624ee	0.13100025
233	0xbbba6252	-0.00568799
234	0xbdd638e2	-0.10460068
235	0xbcc65aa0	-0.024213135
236	0x3e8daf60	0.27672863
237	0xbdd0b6e5	-0.10191134
238	0x3d8492a3	0.06473281
239	0x3d8ddb77	0.06926625
240	0x3dbde2ff	0.09271812
241	0x3cedb4eb	0.029016932
242	0x3d5b8b76	0.053599797
243	0x3d8bcbb6	0.06825964
244	0x3d9a3c15	0.07530991
245	0x3d69c6c2	0.057074316
246	0x3e13a926	0.14419994
247	0xbcf7107d	-0.03015923
248	0xbdaa71bd	-0.08322475
249	0xbccb1ec7	-0.02479495
250	0x3d670585	0.05640175
251	0x3e0ea9b5	0.13931926
252	0xbce15f11	-0.027511152
253	0x3deac411	0.11463178
254	0xbd4ab61b	-0.049490076
255	0xbde8e978	-0.11372656

model.l1.bias f4 [90]
0	0xbc83ddc9	-0.016096966
1	0x3ccf8fae	0.025337067
2	0x3d257767	0.040397074
3	0x3d55fecf	0.052244958
4	0xb9f20529	-0.00046161682
5	0xbbfce76f	-0.0077180187
6	0xbd4f9b60	-0.050685287
7	0xbb475f44	-0.0030421773
8	0xbd00aa11	-0.031412188
9	0xbced8fe4	-0.028999276
10	0x3d0929f4	0.033487275
11	0xbd0c8876	-0.034309827
12	0xbc898585	-0.0167873
13	0x3c422a70	0.011850938
14	0xba1ec8ba	-0.0006057132
15	0xbc65ec23	-0.01403335
16	0xbb18aeb1	-0.0023297484
17	0xbd723380	-0.059131145
18	0xbd5fe301	-0.054659847
19	0xbc8335ab	-0.016016802
20	0xbd39cde0	-0.045362353
21	0xbd75973c	-0.05995868
22	0xbd74eb80	-0.059794903
23	0x3af6079d	0.001877058
24	0xbc3fdcb9	-0.011710339
25	0xbd919f4d	-0.07110462
26	0xbba7986b	-0.005114605
27	0x3d1cbab1	0.03826398
28	0x3d600970	0.0546965
29	0x3cf5dd90	0.030012876
30	0x3cee3a12	0.029080424
31	0xbbbfe610	-0.005856283
32	0xbd12050c	-0.035649344
33	0x3cdb93c4	0.026803859
34	0xbd8ab15d	-0.067721106
35	0xbc46b794	-0.012128729
36	0x3cfcb3b3	0.030847406
37	0xbc72251a	-0.0147793535
38	0xbd1402e1	-0.036135558
39	0xbd9dbba9	-0.07701809
40	0xbd4c9639	-0.04994795
41	0xbcb79501	-0.022409918
42	0xbcea7e4c	-0.028624676
43	0xbd8654a3	-0.06559112
44	0xbd161107	-0.036637332
45	0x3b8c34c7	0.0042787525
46	0xbd239669	-0.039938364
47	0xbd407bdd	-0.046993125
48	0xbd01c9e7	-0.03168669
49	0x3d0a9a09	0.033838306
50	0xbc83690c	-0.016041301
51	0xbd03948f	-0.0321241
52	0xbd7f6138	-0.062348574
53	0xbd82bf69	-0.06384165
54	0xbd160430	-0.036625087
55	0xbd6349e0	-0.055490375
56	0xbcb05c77	-0.021528466
57	0xbd72376e	-0.059134893
58	0x3c15aaea	0.009134987
59	0xbd42a23e	-0.047518007
60	0xbbf4b2e6	-0.0074676154
61	0xbd05188c	-0.032494113
62	0x3d2d1b77	0.04226252
63	0xbc98584f	-0.018596796
64	0xbcd48f25	-0.025947163
65	0xbcafcfca	-0.021461386
66	0x3cf49986	0.029858362
67	0x3cb75097	0.022377295
68	0xbdaa5d84	-0.08318618
69	0xbd179d1f	-0.037015077
70	0xbd995adc	-0.07488033
71	0xbd316d13	-0.043316912
72	0xbcbbb901	-0.022915365
73	0xbc567cf7	-0.013091317
74	0xbbb12e8e	-0.005407161
75	0xbd0eca66	-0.03486099
76	0xbd2c3941	-0.04204679
77	0xbc0b040d	-0.0084848525
78	0xbd83ad39	-0.06429524
79	0x3cdc8086	0.026916754
80	0x3a84ee35	0.0010141792
81	0xbc213d21	-0.009841234
82	0xbd5963ac	-0.05307357
83	0x3cb5df8c	0.022201322
84	0xbd8ec8c7	-0.06971889
85	0x3d0ac260	0.033876777
86	0xbd89faa0	-0.06737256
87	0x3d1604b4	0.03662558
88	0x3c81ef84	0.01586128
89	0xbd7e2cd5	-0.062054474

model.l2.weight f4 [30, 90]
0	0x3c70a566	0.014687872
1	0xbeaba6d0	-0.33525705
2	0xbdc76ebd	-0.097379185
3	0xbd1f7ee8	-0.038939387
4	0xbb27d373	-0.0025608211
5	0xbf428a78	-0.75992537
6	0x3f61cfa3	0.88207453
7	0xbd411f13	-0.047148775
8	0xbdf7f33c	-0.1210694
9	0xbd960d62	-0.07326771
10	0xbc281a95	-0.010260244
11	0xbb04f94e	-0.0020290199
12	0xbc132240	-0.008980334
13	0xbe2b3bcd	-0.16722031
14	0xbd73f5ef	-0.059560712
15	0x3da15f24	0.07879475
16	0x3db92e5a	0.09042044
17	0x3de82515	0.11335198
18	0xbf2b4e5f	-0.6691646
19	0x3ebce9ff	0.36897275
20	0x3e999650	0.29997492
21	0xbea3966e	-0.31950706
22	0xbc80e454	-0.015733875
23	0xbd27f30b	-0.04100327
24	0xbf0203da	-0.50787127
25	0x3d472c6c	0.04862635
26	0xbc706799	-0.014673137
27	0x3ecbfad7	0.39839813
28	0xbe1268d2	-0.14297798
29	0x3db09d5d	0.08623765
30	0xbdc51f43	-0.09625103
31	0x3e34325c	0.17597336
32	0x3d9fe9c9	0.07808263
33	0x3d2248b7	0.039620128
34	0x3e33b85c	0.17550796
35	0x3c56927c	0.013096448
36	0x3d95453f	0.07288598
37	0x3da7edb8	0.08199638
38	0xba9d961e	-0.0012022888
39	0x3eaed6b6	0.34148186
40	0x3ce2c46c	0.027681552
41	0x3dd0a9a4	0.101886064
42	0x3ddb02de	0.10693906
43	0xbefd91e1	-0.4952536
44	0x3b05051c	0.0020297235
45	0x3d17a55f	0.037022945
46	0x3e95dfe5	0.2927238
47	0x3b340f46	0.0027474924
48	0x3e2a5813	0.1663516
49	0x3e0d0e86	0.13775072
50	0xbe0b773f	-0.13619708
51	0x3c0d086a	0.008607963
52	0x3dc7fc03	0.09764864
53	0xbcb81b83	-0.022474056
54	0x3e06a55f	0.13149022
55	0x3d05ee1d	0.032697786
56	0x3bba2bcf	0.005681492
57	0x3f2d12ac	0.67606616
58	0xbd7aebae	-0.061259918
59	0xbd40fd95	-0.047116835
60	0x3e012317	0.12611042
61	0x3e72b700	0.23702621
62	0x3db3a767	0.08772164
63	0x3eb2c585	0.3491632
64	0x3de10829	0.109878846
65	0xbe21ced6	-0.15801558
66	0xbeb34b96	-0.35018605
67	0x3bc9c624	0.0061576534
68	0xbc47bc55	-0.012190898
69	0xbd1de6a5	-0.038550038
70	0xbd1f4c12	-0.038890906
71	0xbaf90640	-0.0018999055
72	0xbd0a9965	-0.033837695
73	0x3e0c249e	0.13685843
74	0x3d19fc2c	0.037594005
75	0xbb388043	-0.0028152622
76	0xbc94bd2c	-0.01815661
77	0xbf099b3e	-0.53752506
78	0x3e85f7a3	0.26165494
79	0xbdf86e5e	-0.12130426
80	0xbcd37090	-0.02581051
81	0xba73ef63	-0.0009305386
82	0x3edbacee	0.42905372
83	0xbdc80425	-0.097664155
84	0x3f0f8d37	0.5607485
85	0xbc76430a	-0.015030632
86	0x3e84a2f0	0.2590556
87	0x3c9458dc	0.018108778
88	0x3e362b20	0.17789888
89	0x3e92de6b	0.28685316
90	0x3dd6c890	0.10487473
91	0x3e828a70	0.25496244
92	0xbe53897c	-0.20657915
93	0x3c8c18d0	0.017101675
94	0x3c496cf1	0.01229404
95	0x3e93c3a0	0.28860188
96	0xbf34faea	-0.70695364
97	0xbde5bc38	-0.112175405
98	0x3ca47399	0.020074653
99	0xbd0baabe	-0.03409838
100	0xbaa59a05	-0.0012634402
101	0xbc711ea7	-0.014716781
102	0xbdbbedb9	-0.091762014
103	0x3d142a96	0.036173426
104	0xbd4d1ebf	-0.05007815
105	0xbba4bc59	-0.0050273356
106	0x3d882d06	0.066492125
107	0xbdf53980	-0.11973858
108	0x3e9f40f1	0.31104234
109	0xbcf08bf0	-0.029363602
110	0x3dc74ff5	0.097320475
111	0xbdcb0559	-0.09913129
112	0xbe04ce0f	-0.1296923
113	0x3ec94b8a	0.39315444
114	0x3e504dc7	0.2034217
115	0x3c545389	0.012959369
116	0xbca2bab2	-0.019864414
117	0x3ebcf1eb	0.3690332
118	0xbc0423f2	-0.008065211
119	0x3e0edf8a	0.13952461
120	0xbdd196a0	-0.102338076
121	0xbe87501e	-0.26428312
122	0xbe256289	-0.1615087
123	0x3ccb55b6	0.024821144
124	0xbe2f394c	-0.17111701
125	0xbd4bf138	-0.04979059
126	0xbd1a1bfa	-0.037624337
127	0xbd1fa0c3	-0.038971674
128	0x3c8be725	0.017077992
129	0xbe0ebccc	-0.13939208
130	0x3db9d5a1	0.090739496
131	0x3da9335a	0.08261748
132	0xbddf0c39	-0.10891003
133	0x3da15ffa	0.07879634
134	0x3da4ad81	0.08040906
135	0x3dab2b0d	0.08357821
136	0xbd9252c3	-0.07144692
137	0x3ddb582d	0.107101776
138	0xbb71b4be	-0.0036881412
139	0xbe709204	-0.234932
140	0xbba8625b	-0.005138678
141	0xbc91099e	-0.017704781
142	0xbe7a0675	-0.24416526
143	0x3ca25e0b	0.019820234
144	0x3dabb17c	0.08383462
145	0xbdac3e5f	-0.08410334
146	0xbc0b64d9	-0.008507931
147	0xba822d8c	-0.0009931787
148	0xbcd88c67	-0.026434137
149	0xbdcb3b6f	-0.099234454
150	0x3c4d07a0	0.012514025
151	0xbc88feb0	-0.016723007
152	0x3d231a28	0.039819866
153	0x3ebe7f78	0.37206626
154	0x3d99cbd6	0.07509582
155	0xbe1df1c9	-0.15424265
156	0x3eb38780	0.35064316
157	0x3d05a7f2	0.03263087
158	0xbc90076d	-0.017581666
159	0xbe6764fa	-0.22597113
160	0x3d5a7bb3	0.053340625
161	0xbd681eff	-0.056670185
162	0x3d06079c	0.0327221
163	0x3bcb4d7f	0.0062043066
164	0xb609ec7b	-2.055224e-06
165	0x3db771b9	0.08957238
166	0xbd712a07	-0.05887797
167	0xbe01d2ab	-0.1267802
168	0xbc1f7b58	-0.009733997
169	0xbe154e48	-0.14580643
170	0xbc772c3b	-0.015086229
171	0xbdb90abf	-0.09035253
172	0x3eb259e2	0.348342
173	0xbda2ed4d	-0.07955418
174	0xbe7b746c	-0.2455613
175	0x3ccbb7de	0.024867948
176	0xbe4e6df1	-0.20159127
177	0x3d6fede2	0.058576472
178	0xbdbf912f	-0.093538634
179	0xbedf4874	-0.43609965
180	0x3c32bdfc	0.010909554
181	0xbe854313	-0.26027736
182	0xbd8357fa	-0.064132646
183	0xbe6e4649	-0.23268999
184	0xbdbe5b15	-0.09294716
185	0xbf1d9354	-0.6155293
186	0x3f82bc37	1.0213689
187	0xbd06e67e	-0.03293466
188	0xbd96f90b	-0.0737172
189	0xbe0fed31	-0.14055325
190	0x3d537c92	0.05163247
191	0x3d7713b7	0.060321536
192	0xbdbf6feb	-0.093475185
193	0xbd80ffcd	-0.0629879
194	0x3b66f25f	0.003523968
195	0x3bcfa1ad	0.006336412
196	0x3d9571c9	0.072970934
197	0x3d0a75dc	0.033803806
198	0xbf302ac3	-0.6881525
199	0x3f0d0f78	0.5510173
200	0x3e5f6bfa	0.21818534
201	0xbd6470d9	-0.055771682
202	0x3ccc8645	0.024966368
203	0x3e86c86c	0.26324785
204	0xbf10a3a2	-0.56499684
205	0x3d4ab6d4	0.049490765
206	0xbc3b68f2	-0.011438595
207	0x3eef1b45	0.46700493
208	0xbd660a85	-0.056162376
209	0xbd6f8487	-0.058475997
210	0xbe1b0292	-0.15137699
211	0x3e28c7a9	0.16482414
212	0x3e98b278	0.2982366
213	0x3c35ffd9	0.011108362
214	0x3e786fab	0.24261348
215	0x3d555eed	0.05209248
216	0x3cfe0ace	0.031011011
217	0x3df79923	0.120897554
218	0xbc81cd7b	-0.015845051
219	0x3eab6c7d	0.33481207
220	0x3cd07607	0.025446905
221	0x3e590c55	0.2119611
222	0x3d40daca	0.047083654
223	0xbef81ecf	-0.48461005
224	0x3d579cb2	0.05263967
225	0x3d5dbb53	0.054133724
226	0x3e0fe4b6	0.1405209
227	0x3b2cd319	0.0026370941
228	0x3e9163be	0.2839641
229	0x3e95b48c	0.2923931
230	0x3ce0aa0b	0.027424833
231	0xbc13e391	-0.009026424
232	0x3e3ebb38	0.18626106
233	0xbb69778e	-0.0035624239
234	0x3ddf141c	0.108925074
235	0xbc143f53	-0.009048301
236	0x3c209f3e	0.009803591
237	0x3f093649	0.5359846
238	0x3d8e3fb3	0.069457434
239	0x3d8e156b	0.06937679
240	0xbcdad031	-0.026710602
241	0x3e120a47	0.14261733
242	0x3db69710	0.08915532
243	0x3e6b43b3	0.22975044
244	0x3dd7f26a	0.10544284
245	0xbe39357d	-0.1808681
246	0xbf12c6cf	-0.5733461
247	0x3c576588	0.0131467655
248	0x3cd1e763	0.02562303
249	0x3d0b7de4	0.034055606
250	0xbd1a6b32	-0.037699886
251	0xba1d1498	-0.00059921434
252	0x3d3c03b3	0.045901965
253	0xbc4a04d1	-0.01233025
254	0xbb84e39b	-0.004055453
255	0x3b632345	0.0034658473

model.l2.bias f4 [30]
0	0xbc2f8884	-0.0107137
1	0xbd26f756	-0.04076322
2	0x3d0d60ec	0.03451626
3	0xbd6ab1b3	-0.057298373
4	0xbcec0308	-0.02881004
5	0x3cdf2a47	0.02724184
6	0x3dbc3ce4	0.091913015
7	0x3cd64b27	0.026158882
8	0x3d311745	0.043235082
9	0x3ddeef29	0.1088546
10	0xbdc6331f	-0.09677719
11	0x3d9f15c5	0.07767824
12	0xbd4fa242	-0.05069185
13	0x3d904bc6	0.07045703
14	0x3c926f33	0.01787529
15	0x3b79d45c	0.003812096
16	0xbd70fe91	-0.058836523
17	0xbda5098f	-0.08058464
18	0xbd0f7619	-0.035024736
19	0xbd022782	-0.03177596
20	0x3c49bd6f	0.012313231
21	0x3be1d66f	0.0068920176
22	0xbd8043eb	-0.06262954
23	0x3cc47ef9	0.023986327
24	0x3c184d30	0.009295747
25	0xbcb53800	-0.02212143
26	0xbc6864b4	-0.014184166
27	0xbd381c5e	-0.044948928
28	0xbd2899ca	-0.04116229
29	0xbd13c9bf	-0.036081072

model.l3.weight f4 [1, 30]
0	0xbf6cb3b6	-0.9246172
1	0x3ee71846	0.45135707
2	0xbf3f6607	-0.74765056
3	0x3f073b9e	0.52825344
4	0x3f19de5e	0.6010493
5	0xbec6235c	-0.38698852
6	0x3ec97bc1	0.3935223
7	0x3f69db00	0.9134979
8	0x3f1eb80a	0.6199957
9	0x3ed9e8a5	0.42560306
10	0xbf49c43d	-0.7881506
11	0x3ea95bce	0.33077854
12	0xbf9536ad	-1.1657311
13	0x3eaae21a	0.33375627
14	0xbf22e4da	-0.6363045
15	0x3eb4a1fd	0.35279837
16	0xbf5dd899	-0.86658627
17	0xbf9917a5	-1.1960341
18	0xbf57d75d	-0.84312993
19	0x3f4f8649	0.8106428
20	0x3f696c0c	0.9118049
21	0x3f1a7333	0.6033203
22	0x3ea4c7a3	0.3218356
23	0xbf197dfd	-0.5995787
24	0xbf3e4c6b	-0.74335355
25	0x3eae58dd	0.34052172
26	0x3f20ea84	0.6285784
27	0x3e9c1bbb	0.30489907
28	0x3ebd35dc	0.36955154
29	0xbf034c65	-0.51288444
