model_dsm11rmcov/v3-[30]-0.0001-130.pth (torch, 40936 bytes, 3 tensors)

model.l1.weight f4 [30, 320]
0	0x3cabfbb2	0.020994041
1	0xbe0bdcd6	-0.13658461
2	0x3e3a4eb2	0.18194082
3	0x3e3cccc6	0.1843749
4	0xbd6abb7c	-0.057307705
5	0x3b95c8bf	0.00457105
6	0x3dc5b3a1	0.09653402
7	0x3d78d416	0.060749136
8	0xbd9f1814	-0.077682644
9	0xbc3dbbc2	-0.0115804095
10	0xbcbcc52d	-0.02304324
11	0x3c8c3bae	0.017118301
12	0x3de6c4a5	0.11267976
13	0x3d4ab416	0.04948815
14	0xbd8766bc	-0.06611392
15	0xbe069bd6	-0.13145384
16	0xbda3a005	-0.07989506
17	0xbd571e6d	-0.05251925
18	0xbd1cc2fc	-0.03827189
19	0x3d5e8f53	0.054335903
20	0xbc281a97	-0.010260246
21	0x3de03d94	0.10949245
22	0xbe315836	-0.17318806
23	0x3da3c1a9	0.07995922
24	0x3e225058	0.15850961
25	0x3dd90a67	0.10597687
26	0xbe403be1	-0.18772842
27	0x3e0ada91	0.13559939
28	0x3e47762c	0.19478673
29	0xbdde5b13	-0.10857215
30	0x3ccbccb3	0.024877882
31	0x3ae05674	0.0017115609
32	0xbcf35f51	-0.029708536
33	0xbe491a51	-0.19638945
34	0x3e249c92	0.16075352
35	0x3d42c1b0	0.047547996
36	0x3d0a759d	0.03380357
37	0xbe78c44c	-0.24293631
38	0x3c94e430	0.018175215
39	0x3d90a952	0.07063545
40	0xbd34e887	-0.044167068
41	0xbcbaba38	-0.022793874
42	0xbce78819	-0.028263139
43	0xbd899533	-0.067179106
44	0xbe131bb8	-0.14366043
45	0xbe176c8d	-0.14787503
46	0xbd9a3c5d	-0.07531045
47	0xbb2e69b1	-0.002661329
48	0xbdac3209	-0.08407981
49	0x3e037e97	0.12841259
50	0xbccb0165	-0.024780938
51	0xbd58ca67	-0.0529274
52	0x3cefc43e	0.02926838
53	0x3d91c07b	0.07116791
54	0x3cfdb1ba	0.030968536
55	0x3d848bec	0.064720005
56	0x3bc358dc	0.0059615206
57	0x3e15b63c	0.14620298
58	0xbcc655d0	-0.02421084
59	0xbd0a4944	-0.033761278
60	0xbe8821bf	-0.26588246
61	0x3dc5ff19	0.09667797
62	0x3c92303a	0.017845262
63	0xbc1158d3	-0.008871275
64	0xbd89dd61	-0.06731678
65	0xbd8af714	-0.06785408
66	0x3db955a9	0.090495415
67	0xbd528b0d	-0.05140214
68	0xbded5103	-0.115877174
69	0x3e1d02fc	0.1533317
70	0xbd80af32	-0.06283416
71	0xbe2b6be3	-0.16740374
72	0xbe16fadb	-0.14744131
73	0x3da95a3e	0.082691655
74	0xbe9c5b8d	-0.30538598
75	0xbcf2033a	-0.029542554
76	0xbd3ed013	-0.046585154
77	0xbd77a391	-0.060458723
78	0x3df6c17e	0.120486245
79	0xbde994e7	-0.11405354
80	0x3d411ad0	0.04714471
81	0xbd2264a4	-0.03964676
82	0xbbf62105	-0.0075112605
83	0x3de69f81	0.11260892
84	0xbdc9e665	-0.098583974
85	0xbcc4c18a	-0.024018068
86	0x3d95fe2b	0.07323869
87	0x3d85f72b	0.06541284
88	0x3d0b4e64	0.034010306
89	0x3d83ecb9	0.06441636
90	0xbd3e6a10	-0.046487868
91	0x3b793d3b	0.003803088
92	0xbdf85588	-0.12125689
93	0x3d3d1924	0.046166554
94	0xbdc6930c	-0.09696016
95	0xbd769039	-0.060196135
96	0xbe284423	-0.16432242
97	0x3e3efaba	0.18650332
98	0x3d86d879	0.06584258
99	0x3d4bcb4f	0.049754437
100	0x3d963df8	0.07336038
101	0xbd9f4358	-0.07776517
102	0xbdb5776c	-0.088606685
103	0xbe16a476	-0.14711174
104	0x3d352f99	0.044234846
105	0x3c499162	0.012302728
106	0x3d4ded4f	0.050275143
107	0x3e05095d	0.12991853
108	0x3bd6ede9	0.006559123
109	0xbe0799ad	-0.13242216
110	0x3d46d10c	0.048539206
111	0x3cd8a4f3	0.026445841
112	0x3d4e4c2f	0.050365623
113	0xbd0cbf3d	-0.034362067
114	0xbd50d2c2	-0.050982244
115	0xbe0ac528	-0.13551772
116	0xbe18c0ff	-0.14917372
117	0xbd8a1079	-0.06741423
118	0xbd8dd6d5	-0.069257416
119	0xbc8963bb	-0.016771188
120	0xbc733ee0	-0.014846534
121	0xbd370ff8	-0.044692963
122	0xba33276c	-0.00068341824
123	0xbd8eafbe	-0.06967114
124	0xbd772596	-0.06033858
125	0x3d6b6b03	0.0574751
126	0x3d89ccc7	0.06728511
127	0x3db098d8	0.08622903
128	0xbc9ac9b8	-0.018895015
129	0xbe0f2b2c	-0.13981313
130	0xbd87fcab	-0.066399895
131	0x3de11f04	0.10992244
132	0x3dbb5bc7	0.091483645
133	0x3e262f9a	0.16229096
134	0xbc808eda	-0.015693117
135	0x3d082b1a	0.03324423
136	0x3db8cc2f	0.0902332
137	0xbd538c41	-0.05164743
138	0xbda4b131	-0.08041609
139	0x3d47b13a	0.048753
140	0x3d805359	0.06265897
141	0xbdc060fd	-0.09393499
142	0x3e39ef45	0.1815768
143	0x3caa397f	0.02077937
144	0x3d43538f	0.04768711
145	0x3dfebecd	0.12438736
146	0x3e00dc0a	0.12583938
147	0xbdbf33b4	-0.093360335
148	0x3a4cbf0d	0.0007810451
149	0x3d0ed443	0.034870397
150	0xbda0d693	-0.07853427
151	0x3d6fe3c2	0.058566816
152	0xbd37111a	-0.044694044
153	0x3cac716c	0.021050178
154	0x3e1c1fb8	0.15246475
155	0x3c9f01dc	0.019410066
156	0x3dffcb4b	0.12489947
157	0x3da9c710	0.08289921
158	0xbdae5bf1	-0.0851363
159	0x3cada52c	0.021196924
160	0x3d40c58e	0.047063403
161	0xbe0f534f	-0.13996623
162	0xbe107b26	-0.14109477
163	0xbdad7472	-0.08469476
164	0x3d9e8d57	0.07741802
165	0xbd8301b0	-0.06396806
166	0xbd61f905	-0.055169124
167	0xbcf092d2	-0.029366884
168	0xbe1a2e75	-0.15056784
169	0x3bbf1169	0.005830933
170	0xbe2721f8	-0.16321552
171	0x3d890e5d	0.06692193
172	0x3c7d785b	0.0154705895
173	0xbb710699	-0.0036777614
174	0x3d9610be	0.07327412
175	0x3d7b88b6	0.061409675
176	0x3d3ed033	0.046585273
177	0x3d6fe19c	0.058564767
178	0x3dcbaa2a	0.099445656
179	0x3cd03a69	0.025418477
180	0x3dd42498	0.10358542
181	0xbcce93eb	-0.025217017
182	0x3d964fc9	0.073394366
183	0xbe0c2c80	-0.1368885
184	0xbdee327b	-0.11630722
185	0x3d092cdd	0.03349005
186	0xbd8652fd	-0.065587975
187	0xba8b3413	-0.0010620378
188	0x3d305442	0.043049105
189	0xbc28b35e	-0.010296671
190	0x3d376c7c	0.044781193
191	0x3c8176da	0.015803743
192	0xbd6af2b3	-0.057360362
193	0x3bba17ff	0.00567913
194	0xbb97bb44	-0.004630478
195	0xbdc728c0	-0.09724569
196	0xbdb96678	-0.090527475
197	0x3d5bac87	0.05363133
198	0xbcefaa3b	-0.029255977
199	0x3d3f8737	0.04675981
200	0xbe88185b	-0.26581082
201	0x3d9157bc	0.07096812
202	0x3da54b1d	0.08070967
203	0xbd39e8db	-0.045388084
204	0x3e3ba67e	0.1832523
205	0x3e179451	0.14802672
206	0x3e951660	0.29118633
207	0xbd3438d3	-0.043999504
208	0xbd46f3da	-0.0485724
209	0x3e3cda92	0.18442753
210	0x3d4fe183	0.050752174
211	0x3c10611a	0.008812213
212	0xbddfe50e	-0.109323606
213	0xbc02db5d	-0.007986871
214	0xbd1b1666	-0.037863158
215	0xbe03b1f8	-0.12860858
216	0xbe9ba630	-0.30400229
217	0x3d5808a3	0.05274261
218	0x3e00b543	0.12569146
219	0xbdd1030d	-0.1020566
220	0x3c1bbd0d	0.009505522
221	0xbdfa5e5d	-0.122250296
222	0xbd4dc8aa	-0.050240196
223	0xbcb831ff	-0.022484777
224	0x3c359c48	0.011084624
225	0x3e4d11e8	0.20026362
226	0x3d9c7929	0.07640297
227	0x3c852cd6	0.016256731
228	0x3dce6a5a	0.10078879
229	0x3e3acb05	0.18241508
230	0xbd40fead	-0.047117878
231	0xbd8e5058	-0.06948918
232	0x3dc833be	0.09775494
233	0xbd57b771	-0.052665178
234	0xbc94618c	-0.01811292
235	0x3da77418	0.0817644
236	0x3db0815f	0.086184256
237	0x3b1a56a8	0.0023550186
238	0x3d3103c0	0.043216467
239	0x3dd2d654	0.10294786
240	0x3e1c0eae	0.15239975
241	0xbc0fedb3	-0.008784699
242	0xbcd5c75e	-0.026096042
243	0x3ce4ddc1	0.027937772
244	0x3e2624ef	0.16225027
245	0x3de3943e	0.11112259
246	0x3d824528	0.06360847
247	0xbd538160	-0.051637053
248	0xbcafb5ba	-0.021448959
249	0x3e040c18	0.12895238
250	0x3d5b146a	0.053486265
251	0x3e78ec69	0.24308933
252	0x3d693248	0.056932718
253	0x3d06d1f9	0.03291509
254	0xbccebae1	-0.025235595
255	0xbc7d727f	-0.0154691925

model.l1.bias f4 [30]
0	0xbcf28714	-0.029605426
1	0x3d0d1604	0.034444824
2	0xbd45d314	-0.048297003
3	0x3a125d3d	0.00055833516
4	0x3be468ee	0.0069705164
5	0xbd849ade	-0.06474851
6	0xbd07c7af	-0.033149417
7	0x3d5e0390	0.054202616
8	0xbd865d98	-0.0656082
9	0x3c1e2dee	0.009654505
10	0xbd4ce972	-0.05002732
11	0x3cc9888e	0.024601247
12	0x3d08431d	0.03326713
13	0xbd24d0c8	-0.04023817
14	0xbd182421	-0.03714383
15	0xbb3fd62f	-0.002927195
16	0xbcceef69	-0.025260644
17	0x3b147736	0.0022654063
18	0xbd120a3f	-0.035654303
19	0xbcb1f080	-0.021721125
20	0x3d3877bc	0.045036063
21	0x3c90b289	0.017663257
22	0xbd6f18ca	-0.05837325
23	0xbd4c71c8	-0.049913198
24	0xbc98d78b	-0.018657466
25	0xbc9d5f92	-0.01921061
26	0xbd343af6	-0.044001542
27	0xbc8ceb00	-0.0172019
28	0xbd71e6da	-0.059058048
29	0xbc1cd64e	-0.009572579

model.l2.weight f4 [1, 30]
0	0xbe890f13	-0.26769313
1	0x3f6dd1c6	0.92898214
2	0xbf94e3b0	-1.1631985
3	0x3e9fb4ae	0.31192535
4	0x3f913962	1.1345637
5	0x3e5b1ccb	0.21397702
6	0x3eb0db4a	0.34542304
7	0xbf97ecf6	-1.186919
8	0xbf8889f8	-1.0667105
9	0x3f8072d5	1.0035044
10	0x3f6a3a29	0.91494995
11	0x3fa57826	1.2927291
12	0xbf2fcbb9	-0.6867023
13	0x3f3d5423	0.7395651
14	0x3e72549d	0.2366509
15	0x3e8a1690	0.2697034
16	0x3e59b384	0.21259886
17	0x3e882117	0.26587746
18	0x3df881c4	0.12134126
19	0x3e3d855f	0.18507908
20	0x3e495a45	0.19663341
21	0x3e60909a	0.21930161
22	0xbf391767	-0.72301334
23	0x3e818ebc	0.2530421
24	0x3eb831d6	0.35975522
25	0xbf28c053	-0.65918463
26	0x3f69c889	0.9132162
27	0x3e6c6d37	0.23088537
28	0xbfceb9f6	-1.6150501
29	0x3f8a6674	1.0812516
