model_dsm11rmcov/v3d-[90, 60, 30, 30]-0.0001-200.pth (torch, 152968 bytes, 9 tensors)

model.l1.weight f4 [90, 320]
0	0xbd672039	-0.056427214
1	0xbd9e5b5b	-0.077322684
2	0xbdc6e45e	-0.09711526
3	0xbd644988	-0.055734187
4	0xbd80a423	-0.062813066
5	0xbdec5cff	-0.11541175
6	0xbdb40821	-0.08790613
7	0xbe3f5e45	-0.18688305
8	0xbe01c18f	-0.12671493
9	0xbda6af47	-0.081389
10	0x3e145ee9	0.1448933
11	0xbcd5a394	-0.026078977
12	0x3d1d60b9	0.03842232
13	0xbe4f0dd2	-0.20220116
14	0xbcf62589	-0.030047195
15	0x3d8a33bf	0.06748151
16	0x3c87b071	0.016563626
17	0x3dfcf8a5	0.12352113
18	0x3e0f0896	0.13968119
19	0xbb19516c	-0.0023394478
20	0x3a9cbfc7	0.001195901
21	0x3b8c92a7	0.0042899433
22	0xbb475436	-0.0030415184
23	0x3daa023d	0.08301208
24	0xbd3a40a6	-0.04547181
25	0x3c730642	0.014833035
26	0xbd5ca18d	-0.053865004
27	0xbd11b390	-0.035571635
28	0xbdf8c2e1	-0.12146545
29	0x3d6a0341	0.05713201
30	0xbcb2a461	-0.021806898
31	0x3e2bb75f	0.1676917
32	0x3dad42c2	0.08459999
33	0x3ce9d80e	0.028545406
34	0xbde0fc45	-0.109856166
35	0xbdcd3c52	-0.10021271
36	0xbdffcdc7	-0.12490421
37	0x3e9bef4f	0.30456015
38	0xbd50146d	-0.05080073
39	0xbd54fb86	-0.051997684
40	0x3d3f9266	0.046770476
41	0x3dcb7399	0.09934158
42	0x3ca1ac04	0.019735344
43	0x3d06da44	0.032922998
44	0xbd033a00	-0.032037735
45	0x3e1a8048	0.15087998
46	0xbb01e2f4	-0.0019819112
47	0x3d40324e	0.046922974
48	0x3d415a83	0.04720546
49	0x3d1f74b6	0.038929664
50	0x3d865f8b	0.06561192
51	0xba613ada	-0.00085918384
52	0xbe314638	-0.17311943
53	0xbdf043ec	-0.11731705
54	0x3cc84333	0.024446106
55	0xbd31897c	-0.043344006
56	0x3d710950	0.05884677
57	0xbdc50da6	-0.09621744
58	0x3ded3992	0.11583246
59	0xbe1867f6	-0.14883408
60	0x3e95d1f0	0.29261732
61	0x3d049737	0.032370772
62	0x3d439ce4	0.047757044
63	0x3d29fb94	0.04149969
64	0x3dd43e6f	0.10363471
65	0xbc8fcf97	-0.017555041
66	0xbe30f958	-0.17282617
67	0x3cfa5ffc	0.030563347
68	0x3dc6b1b9	0.09701867
69	0xbe41aabe	-0.18912789
70	0x3c0f31f0	0.008739933
71	0x3e49708b	0.19671838
72	0x3dd066c2	0.101758495
73	0xbd5fc247	-0.054628637
74	0x3d418f60	0.047255874
75	0xbddf5f17	-0.10906809
76	0x3d4b663c	0.049658045
77	0x3c1c432b	0.0095374985
78	0xbdbe5c1e	-0.09294914
79	0x3dd81641	0.105511196
80	0xbda258be	-0.079270825
81	0x3d1b96a6	0.037985466
82	0x3d66cc09	0.056346927
83	0xbe5ba7b2	-0.2145069
84	0x3e278f8c	0.16363353
85	0xbdb176d1	-0.086652406
86	0xbb6fc83c	-0.0036587855
87	0x3e2dacf5	0.16960509
88	0xbdd1174e	-0.10209523
89	0x3c9b5662	0.018962089
90	0x3d151bbf	0.036403414
91	0xbe100f16	-0.14068255
92	0x3adfdd0a	0.0017079425
93	0xbe74ea3c	-0.23917478
94	0xbd441d1a	-0.047879316
95	0x3d40ec88	0.047100574
96	0x3dc2086d	0.09474263
97	0x3d958d29	0.07302315
98	0xbe076a6c	-0.1322419
99	0x3de9141c	0.11380789
100	0x3caf29f5	0.021382311
101	0x3da2e5d3	0.07953992
102	0x3b1b6f4a	0.0023717456
103	0x3d8500e9	0.06494314
104	0x3daf89d9	0.08571214
105	0xbd3cc0ec	-0.046082422
106	0x3cd71e1d	0.026259476
107	0xbddb461f	-0.10706734
108	0xbd06b565	-0.032887835
109	0x3e5371ae	0.20648834
110	0xbe452c49	-0.19255175
111	0x3d4c2448	0.049839288
112	0xbd8d526c	-0.06900486
113	0x3c769497	0.015050075
114	0xbd3714b6	-0.044697486
115	0x3d3c0588	0.045903713
116	0xbd008d63	-0.031384837
117	0xbba258e7	-0.0049544456
118	0xbdc19d70	-0.09453857
119	0x3db78fc2	0.089629665
120	0x3e0b522b	0.13605563
121	0x3de66002	0.11248781
122	0x3d551831	0.052025024
123	0x3ca7554e	0.020426419
124	0x3c07ff66	0.008300638
125	0xbda81e60	-0.082089186
126	0xbdf4a481	-0.11945439
127	0xbd62a5df	-0.05533397
128	0xbd818938	-0.063250005
129	0x3dadce1f	0.0848658
130	0xbc937480	-0.017999887
131	0x3bd578ae	0.0065146303
132	0xbddf651a	-0.109079555
133	0xbd682323	-0.056674134
134	0x3d1cdd27	0.038296845
135	0x3d809c47	0.062798075
136	0xbbd599b7	-0.0065185684
137	0x3c8face0	0.017538488
138	0xbcee26e8	-0.029071286
139	0x3d3836aa	0.044974007
140	0x3e06e9a3	0.13175063
141	0x3a2f59c5	0.0006689097
142	0xbd3a5863	-0.04549445
143	0xbd7d4293	-0.06183107
144	0xbd456605	-0.048192997
145	0xbe6f3eec	-0.23363847
146	0xbe46b3a4	-0.19404465
147	0x3dbfae99	0.09359474
148	0xbba71158	-0.005098503
149	0x3d33a698	0.043860048
150	0x3d27d6ac	0.04097621
151	0x3d9da7ea	0.07698043
152	0xbd5eaff7	-0.054367032
153	0xbd7b1d96	-0.061307512
154	0x3cfb234b	0.030656477
155	0xbe41a71f	-0.18911408
156	0xbdfe3bc2	-0.12413742
157	0xbc57e008	-0.013175972
158	0x3d5e6a00	0.05430031
159	0xbe0aa855	-0.13540776
160	0xbe298c4b	-0.16557424
161	0x3d6c03ae	0.057620697
162	0x3cbd7c31	0.023130508
163	0xbd2b3eef	-0.041808065
164	0xbcdc6a30	-0.026906103
165	0x3e0431cb	0.1290962
166	0x3d8c3112	0.06845297
167	0xbc7ab4c7	-0.01530189
168	0x3e2501e8	0.16114008
169	0xb9c08ed6	-0.00036727515
170	0x3e3d0c2b	0.18461673
171	0x3dbdb62e	0.09263264
172	0xbdc6a41c	-0.0969927
173	0xbc472953	-0.012155849
174	0xbe7dd37f	-0.2478771
175	0xbcac68b6	-0.021046024
176	0xbc3cec89	-0.011531004
177	0xbdc56264	-0.09637907
178	0x3e028fea	0.12750211
179	0xbcc594f0	-0.02411887
180	0xbc8edafe	-0.017438408
181	0xbc0cca84	-0.008593205
182	0x3cd3532c	0.025796495
183	0x3e0b52a7	0.13605748
184	0x3e7d0bd0	0.24711537
185	0xbd8e68fe	-0.069536194
186	0xbd9051bf	-0.07046842
187	0x3d57663b	0.05258773
188	0xbe394e94	-0.18096381
189	0xbd36f0d4	-0.044663265
190	0xbde47b82	-0.1115637
191	0xbe28216f	-0.16419004
192	0x398af076	0.00026500568
193	0xbd68fc67	-0.056881335
194	0x3dc48a0e	0.09596644
195	0xbdf08adc	-0.11745235
196	0xbd80a571	-0.062815554
197	0xbd675653	-0.05647881
198	0xbc639452	-0.013890343
199	0xbc7ebfb0	-0.015548632
200	0x3e0ab768	0.13546526
201	0x3c1466ac	0.009057682
202	0xbdf3f357	-0.11911648
203	0xbdd5ff84	-0.10449126
204	0xbd20099b	-0.03907166
205	0xbd9d16a6	-0.076703355
206	0xbd77a6fd	-0.060461987
207	0xbd6c5a4f	-0.057703312
208	0xbdea4333	-0.114385985
209	0xbe427c07	-0.18992625
210	0x3d7b3f58	0.061339706
211	0xbc0dfde3	-0.008666488
212	0xbcc7bd74	-0.02438233
213	0x3d1e7ab0	0.038691223
214	0xb86f53dd	-5.7060144e-05
215	0x3d80dc21	0.06291986
216	0x3deb0395	0.114752926
217	0xbcfeaa8f	-0.031087188
218	0xbdc3293d	-0.0952935
219	0xbd34d7f6	-0.04415127
220	0xbd4112b5	-0.04713698
221	0xbd8a6a13	-0.06758513
222	0x3d8c26f3	0.068433665
223	0xbcc9a394	-0.024614133
224	0xbe2db9a6	-0.1696535
225	0xbe00b80f	-0.12570213
226	0xbbaacde4	-0.0052125324
227	0x3d6e806f	0.058227953
228	0xbe1b78eb	-0.15182845
229	0xbd400d47	-0.046887662
230	0xbdd00bf6	-0.10158531
231	0x3e1c9533	0.1529129
232	0xbe0c61ee	-0.13709232
233	0x3c08bcab	0.008345763
234	0x3e165303	0.14680104
235	0xbc96b8b4	-0.01839862
236	0xbe1b1f26	-0.15148601
237	0xbdbdda1b	-0.09270116
238	0xbd65143e	-0.055927508
239	0x3d96945d	0.07352517
240	0xbcdce96f	-0.026966779
241	0xbb5e8ca5	-0.0033958342
242	0x3db34c92	0.08754839
243	0x3d6b8efc	0.057509407
244	0xbd277ce0	-0.040890574
245	0x39e2491b	0.00043160547
246	0x3cfe576b	0.031047544
247	0xbd9fa86d	-0.077957965
248	0x3e3768c6	0.17911062
249	0x3d9e7938	0.077379644
250	0xbdefbe0c	-0.117061704
251	0xbe0d0187	-0.13770114
252	0xbd3f8830	-0.046760738
253	0xbddac56c	-0.106821865
254	0xbe4fedc8	-0.2030555
255	0xbe0637d3	-0.13107233

model.l1.bias f4 [90]
0	0x3c80dcbe	0.015730258
1	0xbd3b0ee3	-0.045668494
2	0xbc05af04	-0.008159403
3	0xbd79d6ce	-0.06099587
4	0xbd8c35d1	-0.06846202
5	0x3cabc2cd	0.020966912
6	0xbd34a202	-0.044099815
7	0xbd4019fb	-0.046899777
8	0xbba08ef6	-0.004899855
9	0xbc1eb54e	-0.009686781
10	0xbd3cef0e	-0.046126418
11	0x3b8cd592	0.0042979205
12	0xbd907cd3	-0.07055058
13	0x3c23f79b	0.010007764
14	0xbca85d39	-0.020552265
15	0xbca61c26	-0.020277094
16	0xbd833fa2	-0.06408621
17	0xba882135	-0.0010385873
18	0xbd5b7fa7	-0.053588536
19	0x3b776ad7	0.003775289
20	0xbd10c896	-0.035347544
21	0xbd8d1e45	-0.06890539
22	0xbd3d1eb8	-0.046171874
23	0xbd4de328	-0.05026546
24	0x3c90751b	0.017633965
25	0xbd78d1de	-0.06074702
26	0x3d2ed485	0.042683143
27	0x3d22b498	0.03972301
28	0xbd23105e	-0.03981053
29	0xbc600896	-0.013673922
30	0xbd7eca9f	-0.062204953
31	0xbb1e9436	-0.0024197227
32	0xbc6a776f	-0.014310702
33	0x3c9ae1da	0.018906523
34	0xbc6e432e	-0.014542384
35	0xbbd2a47a	-0.0064282985
36	0x3cca68f9	0.024708258
37	0xbcd61315	-0.026132146
38	0x3ad67504	0.0016361778
39	0xbd7ab80b	-0.061210673
40	0x3d19ace5	0.0375184
41	0xbd2901d5	-0.041261513
42	0x3cdc1995	0.026867667
43	0xbd430a37	-0.047617164
44	0xbd3f6107	-0.04672339
45	0xbd6aeb09	-0.057353053
46	0xbd75252e	-0.05984991
47	0xbd41f17a	-0.04734943
48	0xbd4015b0	-0.046895683
49	0xbbc77de5	-0.006088006
50	0x3cbf62a5	0.023362467
51	0x3ca2608d	0.01982143
52	0xbca0672d	-0.019580448
53	0x3c5abb65	0.013350342
54	0xbd23f368	-0.040027052
55	0x3d143249	0.03618077
56	0xbd8ba9e6	-0.06819515
57	0x3cd65260	0.026162326
58	0xbd8d9cce	-0.06914674
59	0xbd40d2d9	-0.04707608
60	0xbc931a60	-0.017956913
61	0x3b958c2c	0.004563829
62	0x3d02c0fb	0.03192232
63	0xbd9102b7	-0.07080596
64	0xbd71a128	-0.05899158
65	0xbd9d3581	-0.07676221
66	0xbd12f5cc	-0.03587894
67	0xbdb5fe71	-0.088864215
68	0x3cd3ce5a	0.025855232
69	0x3d197a78	0.03747031
70	0xbd0df343	-0.03465582
71	0xbbb4a796	-0.005513142
72	0xbd67d6bd	-0.056601275
73	0x3c7b1012	0.015323656
74	0xbd3eef14	-0.04661472
75	0xbd221185	-0.03956749
76	0xbd7b86ab	-0.061407726
77	0xbd830014	-0.06396499
78	0xbd66bac0	-0.056330442
79	0xbd8808ee	-0.06642328
80	0xbccc057b	-0.024904957
81	0xbce06b55	-0.02739493
82	0xbd903491	-0.07041276
83	0xbdbc48c6	-0.09193568
84	0xbd5bde04	-0.053678527
85	0xbcb25c39	-0.02177249
86	0x3cf693fa	0.030099858
87	0x3d027a07	0.031854656
88	0xbd0f9d41	-0.03506208
89	0xbd37dfed	-0.044891287

model.l2.weight f4 [60, 90]
0	0x3dfab992	0.12242426
1	0x3c89e794	0.016834058
2	0xbd9027a0	-0.07038808
3	0xbe4abc95	-0.19798501
4	0x3b0ecd96	0.002179002
5	0xbe204852	-0.15652588
6	0xbe9247fa	-0.2857054
7	0x3e36eeff	0.17864607
8	0x3da3934e	0.079870805
9	0xbe6361cb	-0.22205274
10	0x3ddd1b40	0.10796213
11	0xbc234d52	-0.009967165
12	0x3d5cf598	0.053945154
13	0xbe909bf2	-0.28243977
14	0xbef42d1c	-0.47690666
15	0xbeae5544	-0.34049428
16	0xbe68e428	-0.22743285
17	0x3cbe4253	0.023224985
18	0xbf1cf50b	-0.61311406
19	0xbdec24c0	-0.11530447
20	0xbc53bcca	-0.012923429
21	0xbe109f34	-0.14123231
22	0xbec15609	-0.37760952
23	0xbd37ecab	-0.04490344
24	0xbdecf5b7	-0.11570304
25	0x3dca57f6	0.098800585
26	0x3d783764	0.0605997
27	0xbd1cb1c2	-0.03825546
28	0xbe9e43a3	-0.30910978
29	0xbe3f6ee0	-0.18694639
30	0x3dbeaa50	0.09309828
31	0xbead861d	-0.33891383
32	0x3cb7988f	0.022411613
33	0xbe4ae426	-0.19813594
34	0x3c3cf0b2	0.011531996
35	0xbeb30692	-0.3496595
36	0xbde011df	-0.10940909
37	0x3e49b832	0.19699171
38	0x3d69b5f3	0.057058286
39	0x3b079b18	0.0020691808
40	0xbe30b479	-0.17256345
41	0xbe4a2962	-0.19742349
42	0xbe9389f0	-0.28816175
43	0xbd91ec3a	-0.07125135
44	0xbdb1ee2d	-0.086880066
45	0x3d127e09	0.035764728
46	0xbeb404f6	-0.35160035
47	0xbe4f1d4c	-0.2022602
48	0x3c6ac79b	0.014329816
49	0x3be798d6	0.00706778
50	0xbdadc1cc	-0.084842294
51	0x3d0ccf5a	0.034377433
52	0x3daf5c03	0.08562472
53	0x3d71a829	0.05899826
54	0xbe5496af	-0.20760606
55	0x3d39118f	0.04518276
56	0xbde78609	-0.11304862
57	0xbe0e84fc	-0.13917917
58	0xbec59dee	-0.38597053
59	0xbe64c743	-0.22341637
60	0xbe0bde37	-0.13658987
61	0x3dc970b6	0.09835951
62	0xbc342a14	-0.01099636
63	0x3b531ebf	0.003221437
64	0xbd03a37e	-0.03213834
65	0xbcc3a8f7	-0.02388428
66	0xbf204100	-0.6259918
67	0xbec3ba20	-0.3822794
68	0x3b1e5d35	0.0024164442
69	0xbe33b02f	-0.17547677
70	0xbdccda76	-0.100026056
71	0x3dddda34	0.108326346
72	0xbe95b64b	-0.2924064
73	0x3d0d5ac8	0.034510404
74	0xbe856743	-0.26055345
75	0x3e3e9976	0.18613228
76	0xbe1d1a12	-0.15341976
77	0xbda07766	-0.078352734
78	0x3e35abc4	0.17741305
79	0xbe0c7d30	-0.1371963
80	0xbd715f8b	-0.058929008
81	0x3bad1d6e	0.0052830493
82	0xbd535912	-0.051598616
83	0xbda3407a	-0.07971282
84	0xbd8090d2	-0.06277622
85	0xbd81261d	-0.06306098
86	0xbddc48a0	-0.107560396
87	0xbd294998	-0.04132995
88	0x3d827083	0.06369116
89	0xbce52d99	-0.027975844
90	0x3dcfb6f6	0.10142319
91	0x3f0cb584	0.5496447
92	0x3bc41422	0.0059838453
93	0x3d7abaae	0.061213188
94	0x3d7ce9e0	0.061746478
95	0x3c9500a0	0.018188775
96	0x3cbdef24	0.02318532
97	0xbd8b747f	-0.06809329
98	0x3dc23984	0.094836265
99	0x3d23eee9	0.040022764
100	0x3df121eb	0.117740475
101	0xbc6adf03	-0.014335397
102	0x3ed80ff8	0.42199683
103	0x3d823e97	0.06359594
104	0xbdd09e8e	-0.10186492
105	0xbc23d3bf	-0.009999215
106	0x3d67d6f9	0.0566015
107	0xbcdb1118	-0.02674155
108	0x3de97f6d	0.11401258
109	0x3e078a44	0.13236338
110	0x3e1046ee	0.14089558
111	0x3d431e29	0.047636185
112	0xbd380f59	-0.04493651
113	0xbcceafb5	-0.025230268
114	0x3e29d40b	0.16584794
115	0x3cd01140	0.02539885
116	0x3ddf219a	0.10895081
117	0xbde57516	-0.11203973
118	0xbe0ba2e7	-0.13636361
119	0x3dddae15	0.10824219
120	0x3db42b98	0.08797377
121	0x3d84a7d8	0.06477326
122	0x3ca09797	0.019603534
123	0xbda5274d	-0.08064137
124	0x3daec82d	0.08534274
125	0xbe275848	-0.1634227
126	0xbd33e819	-0.043922517
127	0xbb9b3a55	-0.0047371783
128	0x3dfbe5d8	0.122996986
129	0xba1002ee	-0.00054936006
130	0x3e317921	0.17331363
131	0xbe23f259	-0.16010417
132	0x3c5cda55	0.013479789
133	0x3df96e55	0.12179247
134	0x3dd8a194	0.105776936
135	0x3eacac03	0.33724985
136	0xbec78826	-0.3897106
137	0xbdde04e3	-0.10840776
138	0xbc72eb4e	-0.014826609
139	0x3e8ac2ca	0.27101737
140	0x3d08445a	0.03326831
141	0x3bf20eed	0.007387033
142	0xbdd6d83b	-0.104904614
143	0xbcad493c	-0.021153085
144	0x3d7b3742	0.061331995
145	0xbcd6d117	-0.026222749
146	0xbdc00ed5	-0.09377829
147	0x3e9a3175	0.30115858
148	0xbd293cb9	-0.041317675
149	0xbd7f0a90	-0.062265933
150	0x3d4677e6	0.048454188
151	0x3ddfe9a3	0.109332345
152	0x3ddfdc0a	0.10930641
153	0x3d491350	0.049090683
154	0x3d80d9e6	0.06291561
155	0x3d4e725e	0.050402038
156	0x3dc03dcd	0.093867876
157	0xbed59781	-0.4171715
158	0x3e24b74a	0.16085544
159	0x3d62b3bd	0.055347193
160	0x3eccb44a	0.399813
161	0xbd8cd8fc	-0.06877324
162	0x3cfec5d9	0.0311002
163	0xbd930e25	-0.07180432
164	0xbd8b78e4	-0.068101674
165	0x3db20d94	0.08693996
166	0xbd4c6aba	-0.04990647
167	0x3eec6429	0.46170166
168	0x3c80481b	0.015659383
169	0xbd478866	-0.048714064
170	0xbd6ce77a	-0.05783794
171	0x3e0e795d	0.13913484
172	0x3d5e7c3f	0.05431771
173	0x3ce5fb7f	0.028074024
174	0x3daf57e3	0.08561685
175	0x3efdd3e0	0.4957571
176	0xbc4fd197	-0.012684247
177	0x3e410aeb	0.18851821
178	0x3ef9a015	0.48754945
179	0x3da3bd27	0.07995062
180	0x3b881bc0	0.0041536987
181	0x3f14baa8	0.58097315
182	0x3befd464	0.00731902
183	0x3ce2c082	0.027679686
184	0x3caf1c30	0.021375746
185	0x3a1b9402	0.00059348356
186	0xbd26aa82	-0.040689953
187	0xbdad6bc1	-0.08467818
188	0x3caac1b5	0.02084432
189	0x3d94de46	0.07268958
190	0xbccef4b9	-0.025263177
191	0x3da99e77	0.08282178
192	0x3e898c98	0.26865077
193	0x3d0ae757	0.03391203
194	0xbc702dfd	-0.014659402
195	0xbd15defe	-0.036589615
196	0xbc7a755e	-0.015286772
197	0x3d690607	0.056890514
198	0x3dc58471	0.09644402
199	0x3d19b71e	0.03752815
200	0x3d289083	0.041153442
201	0x3c62bae1	0.013838501
202	0xbddce74b	-0.10786303
203	0xbd736c64	-0.05942954
204	0x3e192b89	0.14958014
205	0xbc565842	-0.013082566
206	0xbd54243c	-0.05179237
207	0xbe04166d	-0.1289918
208	0xbc3d483e	-0.011552868
209	0x3d0d0cb9	0.03443596
210	0x3d9e3649	0.07725198
211	0x3d7db881	0.061943535
212	0xbd305c93	-0.043057036
213	0xbd330637	-0.0437071
214	0x3d0ec2e5	0.034853835
215	0xbde88ce4	-0.11354998
216	0x3dbd3eda	0.092405036
217	0xbd0db0b9	-0.034592364
218	0x3ca045a9	0.019564467
219	0xbc6ff5a6	-0.0146459695
220	0x3e6ed856	0.23324713
221	0xbdb69c78	-0.08916563
222	0x3d62c85a	0.05536685
223	0xbbd39ef9	-0.00645816
224	0x3e03cdbe	0.12871453
225	0x3eb5cfab	0.3551
226	0xbead5949	-0.33857182
227	0x3c3d1d23	0.011542591
228	0xbdcfe58f	-0.10151207
229	0x3e68fcd9	0.22752704
230	0xbda0ef91	-0.07858194
231	0xbd80ef0f	-0.06295597
232	0x3d6ab8b8	0.057305068
233	0xbd105443	-0.03523661
234	0x3dbb6708	0.09150511
235	0x3d2e8cba	0.042614676
236	0x3de789e3	0.11305597
237	0x3eae636d	0.3406023
238	0xbe4874e7	-0.19575845
239	0x3d87fe1f	0.066402666
240	0xbdec4cc2	-0.11538078
241	0x3d3536eb	0.044241827
242	0xbd780463	-0.06055106
243	0x3ca70343	0.020387297
244	0xbca8704a	-0.020561356
245	0x3bb2eeb3	0.005460584
246	0xbddb07a1	-0.106948145
247	0xbece1991	-0.4025388
248	0x3e1d571a	0.15365258
249	0x3e33bed8	0.1755327
250	0x3ee1ce6e	0.44102806
251	0x3d139398	0.03602943
252	0x3c4514b4	0.012028862
253	0xbc9be55f	-0.019030271
254	0x3bf3ee47	0.0074441764
255	0xbd45ba26	-0.048273228

model.l2.bias f4 [60]
0	0x3bb416af	0.005495868
1	0xbe00988c	-0.12558192
2	0xbdd2f3e0	-0.10300422
3	0xbcb56194	-0.022141255
4	0x3a34af7f	0.0006892606
5	0xbd331961	-0.043725375
6	0x3d56a38a	0.052402057
7	0xbb73d972	-0.0037208465
8	0xbccf40f2	-0.025299523
9	0x3c1d2627	0.009591616
10	0xbc9d4050	-0.019195706
11	0x3c9cd8e9	0.0191464
12	0xb9f87ab1	-0.00047393658
13	0xbc14cfea	-0.009082774
14	0xbd0056e7	-0.031332877
15	0xbdc80352	-0.09766258
16	0xbcdcb359	-0.026940988
17	0xbc6e9d9b	-0.014563943
18	0x3cc9f9f1	0.024655314
19	0x3d7611db	0.060075622
20	0x3cf23475	0.02956603
21	0xbbd32453	-0.006443539
22	0x3d83ed66	0.064417645
23	0x3d6cfb7d	0.057857025
24	0x3d9be0bf	0.07611226
25	0x3d55246c	0.052036688
26	0xbc802263	-0.015641397
27	0xbde6248c	-0.112374395
28	0x3d3c07bc	0.045905814
29	0xbb2651ac	-0.002537827
30	0xbd8f6628	-0.07001907
31	0xbc2775fb	-0.010221
32	0xbc8e5d30	-0.01737842
33	0x3c692570	0.014230117
34	0xbdd8b959	-0.10582227
35	0x3d7c8ab5	0.06165572
36	0xbada7ec7	-0.0016669863
37	0xbc52b5e4	-0.012860749
38	0x3d8305e4	0.06397608
39	0xbb182f8f	-0.0023221707
40	0xbbcea358	-0.006306093
41	0xbcefaa46	-0.029255997
42	0xbc6ca4d6	-0.014443597
43	0x3afc649c	0.0019256058
44	0x3d7b1188	0.061296016
45	0x3b73c13f	0.003719404
46	0x3b72de1f	0.0037058664
47	0xbdce8542	-0.10084011
48	0xbdb07815	-0.08616654
49	0xbdd2a578	-0.10285467
50	0x3d8eaecc	0.069669336
51	0x3bd9df40	0.006648928
52	0xbd0c2a7b	-0.0342202
53	0x3d352659	0.044226024
54	0x3d088aa9	0.03333536
55	0xbc5ed653	-0.013600904
56	0xbc92128d	-0.017831111
57	0xb6c548e2	-5.879542e-06
58	0xbccefd9e	-0.025267418
59	0xbdc68e95	-0.09695164

model.l3.weight f4 [30, 60]
0	0xbbb25c69	-0.005443145
1	0xbe319afe	-0.17344281
2	0xbe5d0d14	-0.2158702
3	0x3e2617ca	0.16220012
4	0xbde9a4c4	-0.1140838
5	0x3d981027	0.07424956
6	0xbd398a02	-0.04529763
7	0x3d704654	0.05866082
8	0x3e8e624f	0.27809379
9	0x3e07a39b	0.13246004
10	0x3db49cfa	0.088190034
11	0x3d6b4218	0.05743608
12	0x3d69a372	0.05704064
13	0xbb9949e0	-0.004677996
14	0x3da40ce8	0.08010274
15	0xbeb1586a	-0.34637767
16	0x3d4466db	0.047949653
17	0xbd819c7d	-0.06328676
18	0xbea29c3c	-0.31759822
19	0xbe32c8da	-0.17459431
20	0xbe1d773b	-0.15377514
21	0xbc3432d1	-0.010998444
22	0xbdb93b18	-0.09044474
23	0xbe4fe5fc	-0.20302576
24	0xbe4b1f5d	-0.19836183
25	0xbe0ef040	-0.13958836
26	0x3e1d93d3	0.15388422
27	0xbe5a2afe	-0.21305463
28	0xbd7f6653	-0.062353443
29	0xbc88e170	-0.01670906
30	0x3e1e8ab7	0.15482603
31	0xbeaf536b	-0.3424333
32	0xbd80e1e6	-0.06293087
33	0xbdea1a54	-0.11430803
34	0xbe6cb588	-0.23116124
35	0xbe652fdf	-0.22381543
36	0xbe1b0512	-0.15138653
37	0x3d3cf2f0	0.04613012
38	0xbd1bc1c5	-0.03802659
39	0xbd6cacad	-0.057781864
40	0x3dadeef0	0.08492839
41	0x3e1b4af5	0.15165313
42	0x3e16af8f	0.14715408
43	0x3d5620f8	0.052277535
44	0xbe44e920	-0.19229555
45	0xbd045b41	-0.03231359
46	0xbdf6a5b9	-0.12043328
47	0xbe0d2436	-0.13783345
48	0xbd602aa6	-0.054728173
49	0xbec462ab	-0.38356528
50	0xbddc4177	-0.10754674
51	0xbc4c5945	-0.012472455
52	0x3e38b8f3	0.18039303
53	0xbd82ca47	-0.063862376
54	0xbccffe1e	-0.025389727
55	0x3c9c48e7	0.019077731
56	0x3d40dca3	0.047085416
57	0x3db8b591	0.09019006
58	0x3d65d298	0.05610904
59	0xbe797023	-0.24359183
60	0x3d96e418	0.07367724
61	0x3e13e7c3	0.14443879
62	0x3dad704c	0.084686846
63	0xbd1edcfb	-0.038784962
64	0x3e7804ac	0.24220532
65	0xbd651c2f	-0.05593508
66	0x3e56c665	0.20974119
67	0xbd212e48	-0.039350778
68	0x3d3ec5f5	0.046575505
69	0xbd81d482	-0.06339361
70	0xbd2bcc4f	-0.04194289
71	0x3e199d63	0.15001445
72	0xbd8a4ad7	-0.06752556
73	0x3d0a5cdc	0.033779964
74	0x3e1f2efd	0.15545268
75	0x3e5c76d7	0.21529709
76	0x3d245b47	0.04012611
77	0xbd2402e8	-0.040041834
78	0x3e31d3e7	0.1736599
79	0x3bacb56e	0.0052706515
80	0x3e818b84	0.25301754
81	0x3cdad724	0.026713915
82	0x3d10c4db	0.035343986
83	0x3b2548d3	0.0025220409
84	0xbcb60baf	-0.022222368
85	0x3b28c250	0.0025750585
86	0x3e8ae8d2	0.27130753
87	0x3e52e44f	0.20594905
88	0x3e0c1772	0.13680819
89	0x3b9cc2f3	0.004783982
90	0x3db7dad6	0.089772865
91	0x3c9a06a3	0.018801993
92	0xbe6f788f	-0.23385833
93	0x3ca404b5	0.020021776
94	0x3e211070	0.15728927
95	0x3e265563	0.1624351
96	0xbe876111	-0.26441243
97	0x3dceca43	0.10097172
98	0x3e5eca86	0.21756944
99	0x3e158146	0.14600095
100	0x3e09bd56	0.13451132
101	0x3d6b9d7a	0.05752323
102	0x3d4cadd5	0.049970467
103	0xbd73a86b	-0.059486788
104	0xbe0bea24	-0.13663536
105	0x3e196850	0.14981198
106	0xbc060f3e	-0.008182345
107	0x3e1d3838	0.15353477
108	0x3e08c34c	0.1335575
109	0x3e60c5eb	0.219505
110	0x3d36911d	0.044571985
111	0x3def61ee	0.116886005
112	0x3e0bfdb2	0.13670996
113	0x3e1de345	0.15418728
114	0x3d9f0887	0.07765298
115	0x3e238ab3	0.15970878
116	0x3db26d12	0.0871221
117	0xbc221858	-0.009893499
118	0x3d2044d2	0.039128132
119	0x3e499c4e	0.19688532
120	0xbe12a159	-0.14319362
121	0xbe12bed2	-0.14330605
122	0xbde4c9eb	-0.11171325
123	0x3e835020	0.25647068
124	0xbe18437b	-0.14869492
125	0x3d856bc4	0.06514695
126	0xbca1f1fa	-0.019768704
127	0xbc63ea14	-0.013910789
128	0x3e264b1a	0.16239586
129	0x3dc0c6cc	0.094129175
130	0x3cee557e	0.0290935
131	0xbe4832f8	-0.19550693
132	0xbc15d123	-0.0091441
133	0x3e215feb	0.15759246
134	0x3d220b78	0.03956172
135	0xbed9193d	-0.42402068
136	0x3e010c41	0.1260233
137	0x3dc64b86	0.09682374
138	0xbe672d73	-0.22575931
139	0xbda76264	-0.081730634
140	0xbe127a0c	-0.1430437
141	0x3db26916	0.0871145
142	0xbe3356b6	-0.17513546
143	0xbe3a4182	-0.18189052
144	0xbe5fa0b6	-0.2183865
145	0xbe29dd63	-0.16588359
146	0x3e058710	0.13039804
147	0xbe5ab4fa	-0.213581
148	0xbd70fe0a	-0.05883602
149	0xbdfb4a5d	-0.12270043
150	0x3e675a9e	0.22593161
151	0xbbb4fea9	-0.005523522
152	0xbbee9811	-0.0072813113
153	0xbe012de2	-0.12615159
154	0xbe714fc8	-0.2356559
155	0xbe4edeea	-0.20202222
156	0xbe3c237d	-0.18372913
157	0x3c81ce3a	0.015845407
158	0xbe5e8f6f	-0.21734403
159	0xbd40b46b	-0.04704706
160	0xbd9250db	-0.07144328
161	0x3d4653dd	0.048419822
162	0x3e3729cf	0.17887042
163	0x3d7250f1	0.059159223
164	0xbe598eb5	-0.21245845
165	0xbd41c0bb	-0.047302943
166	0xbe1bd5b9	-0.15218247
167	0xbe99d067	-0.3004181
168	0xbd37f7ff	-0.044914242
169	0xbe81b46d	-0.25332966
170	0xbe2e4ade	-0.17020747
171	0xbe7e110b	-0.24811189
172	0x3d939612	0.07206358
173	0xbe2a9512	-0.16658428
174	0xbe7ee05a	-0.24890271
175	0x3e076ffb	0.13226311
176	0x3d8d5d30	0.0690254
177	0x3e16ce1b	0.1472706
178	0x3d90c4da	0.070687965
179	0xbd8f3ba8	-0.069938004
180	0x3d3288ef	0.04358762
181	0xbe805eb1	-0.25072244
182	0xbe48a35e	-0.1959357
183	0x3e426e43	0.18987374
184	0xbe77ef3f	-0.24212359
185	0x3d8538f7	0.06505006
186	0xbe828954	-0.25495398
187	0xbdc2e21d	-0.09515784
188	0xbd0fa67c	-0.03507088
189	0xbd7a929e	-0.06117498
190	0x3ca7efa4	0.020500012
191	0xbe671475	-0.22566397
192	0xbc1b08ff	-0.009462594
193	0x3de7c615	0.11317078
194	0x3de968be	0.11396931
195	0xbe34e03b	-0.17663662
196	0x3e0c23ee	0.13685581
197	0x3d42338f	0.04741245
198	0xbe10c230	-0.14136577
199	0xbe06b8a3	-0.13156371
200	0xbe317b7a	-0.17332259
201	0xbda5fff1	-0.081054576
202	0xbe76542b	-0.24055545
203	0xbe55f3aa	-0.20893732
204	0xbe8d8ea8	-0.276479
205	0xbdeb0fe9	-0.11477644
206	0xbd73e709	-0.059546504
207	0xbe8b6be1	-0.27230743
208	0xbde6bcbd	-0.11266468
209	0xbe31e2c4	-0.1737166
210	0x3cf7d957	0.030255003
211	0x3df45404	0.11930087
212	0x3d79632e	0.0608856
213	0xbea68a44	-0.32527363
214	0xbb6be54c	-0.0035994826
215	0xbeae6bea	-0.34066707
216	0xbe7e63c9	-0.24842753
217	0xbd4fd676	-0.050741635
218	0xbe87ab41	-0.26497844
219	0x3c1673f0	0.009182915
220	0xbe31a833	-0.17349319
221	0x3de96e02	0.113979355
222	0xbc4a3526	-0.012341773
223	0xbdfbcd73	-0.12295046
224	0xbe9608d5	-0.29303613
225	0xbdfa20cc	-0.12213287
226	0xbe5fbf14	-0.21850234
227	0xbe52e05c	-0.20593399
228	0x3bce8c69	0.0063033593
229	0xbe087fff	-0.13330077
230	0xbe92fb1c	-0.28707206
231	0xbeca7b49	-0.39547184
232	0x3df5c714	0.12000862
233	0xbe2226a7	-0.15835057
234	0xbe6843a4	-0.22682053
235	0x3da48056	0.08032291
236	0x3d3a4d1d	0.045483697
237	0x3dd59d41	0.104303844
238	0x3d895e33	0.0670742
239	0xbe2ad01c	-0.1668095
240	0xbe762f02	-0.2404137
241	0xbe9a2e46	-0.3011343
242	0xbeb75899	-0.35809782
243	0x3e5c76f2	0.21529749
244	0xbe47eb43	-0.19523339
245	0x3d8f39c1	0.069934376
246	0xbeaa644e	-0.3327965
247	0xbd1d4537	-0.038396087
248	0x3da33344	0.079687625
249	0x3d8a0264	0.06738737
250	0x3d2730e5	0.040818114
251	0xbedba14c	-0.42896497
252	0x3d8c2d20	0.068445444
253	0x3d8b0ebe	0.06789921
254	0x3c48cb6f	0.012255534
255	0xbe66e8cf	-0.22549747

model.l3.bias f4 [30]
0	0x3d5affa1	0.053466443
1	0xbe835587	-0.2565119
2	0x3d7cf37e	0.06175565
3	0x3db98259	0.09058065
4	0x3d5477f2	0.0518722
5	0x3ccb5098	0.024818704
6	0x3d9a906d	0.07547078
7	0x3d30ca25	0.04316153
8	0x3db5e996	0.088824436
9	0x3dc02a54	0.093830734
10	0x3da9149f	0.08255886
11	0x3da28a5d	0.07936547
12	0x3c0e2f32	0.008678244
13	0x3ae05606	0.0017115481
14	0x3c4b6394	0.012413878
15	0x3d551a7b	0.052027207
16	0xbcb8d482	-0.02256227
17	0x3d0f1ba8	0.034938484
18	0x3c98abd1	0.018636616
19	0x3dc6c3ac	0.0970529
20	0x3bfbf9c1	0.007689685
21	0x3c9086f4	0.017642476
22	0x3da9209b	0.08258172
23	0xbea48eff	-0.32140347
24	0x3c88eb84	0.016713865
25	0xbd1978dd	-0.03746878
26	0x3c8ab235	0.016930679
27	0x3dc77f40	0.09741068
28	0x3d87e6aa	0.066357926
29	0xbe5766c3	-0.21035294

model.l4.weight f4 [30, 30]
0	0x3d3d3230	0.04619044
1	0xbe5176ff	-0.2045555
2	0x3df0e295	0.11761967
3	0x3e88a3c6	0.2668745
4	0x3e69693a	0.22794047
5	0x3e722e72	0.2365053
6	0x3e0863be	0.13319299
7	0xbe672daf	-0.2257602
8	0x3e191f14	0.14953262
9	0x3e94ec84	0.29086697
10	0xbd9c6926	-0.07637243
11	0xbe11f53e	-0.14253709
12	0xbe14b594	-0.14522392
13	0xbd36dd3a	-0.04464457
14	0xbeab300c	-0.33435094
15	0xbe1585e1	-0.14601852
16	0xbdad188d	-0.08451948
17	0x3e4509fd	0.19242091
18	0x3e52a6db	0.20571463
19	0xbb4b7903	-0.003104747
20	0xbeddebc7	-0.43343946
21	0xbe59bf0b	-0.21264283
22	0xbddd677d	-0.108107544
23	0x3dc9d5af	0.0985521
24	0xbbfed53a	-0.0077768834
25	0xbd0ce7ea	-0.034400858
26	0xbe9d5f7f	-0.3073692
27	0x3e14f3a6	0.1454607
28	0x3dff6d54	0.124720246
29	0xbe852803	-0.2600709
30	0x3cc2fe4e	0.023802903
31	0x3e1a0eb5	0.15044673
32	0x3da81e4c	0.08208904
33	0xbd9c2101	-0.076234825
34	0x3e8e02f5	0.2773663
35	0x3e15a362	0.14613107
36	0x3e81f346	0.25380915
37	0xbea14aa6	-0.31502265
38	0xbba861f7	-0.0051386314
39	0x3e8128a0	0.25226307
40	0x3c953515	0.018213788
41	0x3e248c47	0.16069137
42	0x3dc52681	0.09626485
43	0x3e0271ad	0.12738676
44	0xbdd8a1b3	-0.10577717
45	0xbe5528b8	-0.20816314
46	0xbc47977a	-0.012182111
47	0x3e54137a	0.20710555
48	0x3dd9e133	0.106386565
49	0x3cc7931c	0.02436214
50	0x3dc65e11	0.096859105
51	0xbe44a07f	-0.1920185
52	0xbe193fab	-0.14965694
53	0x3ef971a0	0.48719501
54	0x3d2e5919	0.04256544
55	0xbdf4162e	-0.11918293
56	0x3c67216b	0.014107089
57	0x3e308ff2	0.17242411
58	0xbc2a7a99	-0.010405206
59	0x3e3ff2e0	0.18744993
60	0x3d295e5d	0.041349757
61	0x3d38b85e	0.0450977
62	0x3cba336e	0.022729602
63	0xbe0daa61	-0.13834526
64	0xbe883222	-0.26600748
65	0xbd59e759	-0.053199146
66	0xbe812d71	-0.25229982
67	0xbc9ab3b9	-0.018884527
68	0xbe947715	-0.28997102
69	0xbe16c919	-0.1472515
70	0xbd6c59b0	-0.05770272
71	0xbdfd6e05	-0.123745
72	0x3e23a114	0.15979415
73	0xbe161e2a	-0.14659944
74	0x3e18f552	0.14937332
75	0xbddaafe6	-0.10678081
76	0xbe1ab12e	-0.15106651
77	0xbe6177c4	-0.22018343
78	0xbe78cb2d	-0.24296255
79	0x3d036317	0.03207692
80	0x3e8f1d95	0.27952257
81	0x3e50202c	0.20324773
82	0xbe2ae290	-0.16687989
83	0xbe6c780a	-0.23092666
84	0xbc9ae547	-0.018908156
85	0xbdcd7fc9	-0.10034139
86	0x3dfbb74d	0.12290821
87	0xbe8eb4ef	-0.27872416
88	0xbddaadca	-0.10677679
89	0x3e2a96c7	0.1665908
90	0xbe237fb0	-0.15966678
91	0xbd6da53e	-0.058018915
92	0xbe9eb137	-0.3099458
93	0xbef22028	-0.47290158
94	0xbe9499e1	-0.2902365
95	0xbeaf1233	-0.34193572
96	0xbeb8e494	-0.3611189
97	0x3dcfd6a3	0.101483606
98	0xbea02d37	-0.31284496
99	0xbeba8ec9	-0.3643706
100	0xbd76aedc	-0.060225353
101	0xbe162e73	-0.14666156
102	0x3e17d2da	0.14826527
103	0xbed2e700	-0.41191864
104	0x3e225071	0.15850998
105	0xbdfacc21	-0.12245966
106	0xbe7d09f7	-0.24710833
107	0xbe9315fc	-0.2872771
108	0xbea5f5fc	-0.32414234
109	0x3d87fb90	0.066397786
110	0x3e8f8b28	0.28035855
111	0xbbce309a	-0.006292415
112	0xbdb63b1d	-0.08897994
113	0x3e3f5c5e	0.18687579
114	0xbec0382c	-0.37542856
115	0xbe7311aa	-0.23737207
116	0x3d314910	0.04328257
117	0xbe7b85d4	-0.2456277
118	0xbec82687	-0.39091894
119	0x3d40585f	0.046959277
120	0xbe8b1729	-0.27166107
121	0x3dc25d6b	0.09490474
122	0xbe441742	-0.19149497
123	0xbe6b740c	-0.22993487
124	0xbe7451ab	-0.23859279
125	0xbd25dc63	-0.04049338
126	0xbeb528a2	-0.35382563
127	0x3e1ae998	0.15128171
128	0xbeae31c0	-0.3402233
129	0xbebd5d08	-0.3698504
130	0x3d666a2c	0.056253597
131	0xbe2c7100	-0.16839981
132	0x3e33c761	0.17556526
133	0xbe0136cc	-0.1261856
134	0x3ecc9482	0.39957052
135	0xbd86f074	-0.065888315
136	0xbe4d2fe1	-0.20037796
137	0xbee2c362	-0.4428969
138	0xbe6f0d94	-0.23345023
139	0x3de36876	0.11103909
140	0x3e8f4eb4	0.27989733
141	0xbdf982df	-0.12183165
142	0xbdda317b	-0.10653969
143	0x3e290199	0.16504516
144	0xbe2bea98	-0.16788709
145	0xbe3b4684	-0.18288618
146	0xbd8ef9ff	-0.06981277
147	0xbe5aabf3	-0.21354656
148	0xbefe2619	-0.4963844
149	0xbc92ce60	-0.017920673
150	0x3d955309	0.07291228
151	0xbeba84e6	-0.36429518
152	0xbcd0b218	-0.025475547
153	0x3e594426	0.21217403
154	0x3e864860	0.26227093
155	0xbd372152	-0.04470951
156	0x3e22b4fa	0.1588935
157	0xbecd32b7	-0.40077755
158	0x3e35e49b	0.17762987
159	0x3e04edc0	0.1298132
160	0xbe667a9a	-0.22507706
161	0x3cf405c1	0.0297879
162	0xbe96af57	-0.2943065
163	0xbc23b91f	-0.009992867
164	0xbebffa13	-0.3749548
165	0xbc9e3a6b	-0.019314965
166	0xbd949b59	-0.07256193
167	0x3c39ebeb	0.011347751
168	0x3e89bca2	0.26901728
169	0xbe4f4f89	-0.20245184
170	0xbea0d7c6	-0.31414622
171	0xbeaf4a2a	-0.3423627
172	0xbdb1a7aa	-0.086745575
173	0xbd846bc1	-0.06465865
174	0xbcd0284d	-0.025409842
175	0xbd350221	-0.044191483
176	0xbf106b8e	-0.56414115
177	0x3d77042a	0.060306706
178	0x3e29f9e1	0.16599227
179	0xbefa4c78	-0.48886466
180	0xbd3b21ab	-0.045686405
181	0x3d52d264	0.051470175
182	0xbc23217e	-0.009956716
183	0x3df51221	0.119663484
184	0x3e11ca35	0.14237292
185	0x3d925f2c	0.07147059
186	0x3db0637b	0.086127244
187	0x3d961c4d	0.07329617
188	0x3e23d646	0.15999708
189	0x3e6ee1a1	0.23328258
190	0xbcac9679	-0.021067845
191	0x3d9b9728	0.0759719
192	0x3d0a69af	0.033792194
193	0x3d79d90c	0.060998008
194	0xbe336299	-0.17518081
195	0x3d9ad7da	0.07560702
196	0x3d22ca19	0.039743517
197	0x3a852116	0.0010156955
198	0x3dca5d42	0.09881069
199	0xbdb24fcb	-0.087066256
200	0x3d0eba01	0.034845356
201	0xbd29c378	-0.04144618
202	0x3c95998d	0.018261695
203	0xbc8bad2f	-0.017050354
204	0x3e3e4de5	0.18584402
205	0xbd986006	-0.0744019
206	0xbd2db907	-0.042412784
207	0x3e003fb0	0.12524295
208	0x3e0cc474	0.13746816
209	0x3dd3ff77	0.103514604
210	0xbb9f702a	-0.004865666
211	0xbe5e031c	-0.21680874
212	0x3dcb8cd3	0.099389695
213	0x3d8d1bd7	0.06890076
214	0x3e160fd6	0.14654478
215	0xbb809999	-0.0039245603
216	0x3e9e6ce7	0.3094246
217	0xbe73b17c	-0.23798174
218	0x3e4a316e	0.19745418
219	0x3e9b222b	0.30299506
220	0xbe3a869a	-0.18215409
221	0xbc3f03a6	-0.011658585
222	0xbe98774b	-0.29778513
223	0x3d73062a	0.05933205
224	0xbeb9799d	-0.36225596
225	0xbdbeb398	-0.093115985
226	0xbc50f352	-0.012753325
227	0xbc1252e9	-0.0089309
228	0xbd93bd1c	-0.07213804
229	0xbdb5d5e2	-0.088786855
230	0xbe8b57ae	-0.27215332
231	0xbe8085e6	-0.25102156
232	0xbbcda986	-0.0062763123
233	0x3e6a56b6	0.2288464
234	0x3e0e3f7b	0.13891403
235	0xbe11e66b	-0.14248054
236	0xbeb5c0db	-0.354987
237	0x3e674fc0	0.22589016
238	0x3b1fe183	0.002439589
239	0xbe945620	-0.28971958
240	0xbdbd2044	-0.0923467
241	0x3bcef650	0.006315984
242	0xbe8b02d4	-0.27150595
243	0xbd772a06	-0.06034281
244	0xbeefa1bc	-0.4680308
245	0xbe256216	-0.16150698
246	0xbe886850	-0.26642084
247	0x3e00d008	0.12579358
248	0xbe737678	-0.23775661
249	0xbee02375	-0.43777052
250	0x3d41dabd	0.047327746
251	0xbe836aeb	-0.2566751
252	0x3b3a8bdb	0.0028464708
253	0x3db1043e	0.08643387
254	0x3e7f25fb	0.24916832
255	0xbd9c7a85	-0.07640556

model.l4.bias f4 [30]
0	0x3dc12715	0.094312824
1	0xbec308ee	-0.3809275
2	0x3db5c460	0.08875346
3	0x3db9f718	0.090803325
4	0x3d8c4d5a	0.06850691
5	0x3da02801	0.0782013
6	0xbe89a78a	-0.26885635
7	0x3d81e408	0.06342322
8	0x3e3c0e79	0.18364896
9	0x3dd5430f	0.10413181
10	0x3dd27e3e	0.10277985
11	0x3d6a4c4a	0.05720166
12	0x3d9af5b8	0.075663984
13	0x3d347bbe	0.044063322
14	0x3daa9494	0.0832912
15	0x3dd12bbe	0.10213421
16	0x3d7035c4	0.058645025
17	0x3e16d4d6	0.14729628
18	0x3db5bbdb	0.08873721
19	0x3dd221e1	0.10260368
20	0x3cb90845	0.022586951
21	0x3deab5fb	0.11460491
22	0x3d47c2ac	0.048769638
23	0x3dd96378	0.10614675
24	0x3da4f59d	0.080546595
25	0x3daafcf5	0.08349029
26	0x3e0ed670	0.13948989
27	0x3d53e7a9	0.0517346
28	0x3e2e1d2a	0.17003313
29	0x3d9ec746	0.07752852

model.l5.weight f4 [1, 30]
0	0xbdf30eac	-0.11868033
1	0x3e948d02	0.2901383
2	0x3e10fe0e	0.14159414
3	0x3e392bb1	0.18083073
4	0x3e0fdebb	0.14049809
5	0xbe5dc6e9	-0.2165791
6	0x3d9a15ea	0.07523711
7	0xbe3d5331	-0.18488766
8	0x3dfb4a87	0.12270074
9	0x3dc71bd9	0.097221084
10	0xbe5298f6	-0.20566162
11	0xbda17227	-0.07883101
12	0xbe30b548	-0.17256653
13	0xbe0f7d4e	-0.14012644
14	0xbde0c661	-0.10975338
15	0xbe478bc8	-0.19486916
16	0x3e9221b3	0.28541335
17	0x3dd1be0d	0.102413274
18	0xbe1e7725	-0.15475138
19	0x3e05de5d	0.13073106
20	0x3e050163	0.1298881
21	0x3df97943	0.12181332
22	0xbe3e13c4	-0.18562227
23	0xbddfaa61	-0.10921169
24	0xbe194ab5	-0.14969905
25	0x3df13bae	0.11778961
26	0x3e36db52	0.17857102
27	0xbde2f2f9	-0.110814996
28	0x3e0bd3bb	0.13654988
29	0xbe4d960e	-0.20076773
