model_dsm11rmcov/v3d-[30]-0.0001-30.pth (torch, 40936 bytes, 3 tensors)

model.l1.weight f4 [30, 320]
00000000: fa21 183d d84b 083d 5c85 193d bd75 9b3d
00000010: cd06 acbd 9d9b 78bc fd01 61bc e873 c0ba
00000020: 9b92 893d 24d5 c7ba f459 4fbd d949 9d3c
00000030: e8bc 753d 4a8f fbbc 51c5 92bd bd9f 99bd
00000040: ac7d 8bbc 7113 12bd 2ab9 babc 398d b73b
00000050: 6e14 e1bc 604f edbc 11bb 14be f62a ee3c
00000060: abc1 5e3d dc5f 18bd baa1 8fbd bfdd ccbc
00000070: d5aa 563c 62c7 76bb cb28 683d ca80 5ebd
00000080: 749b fdbc 7c00 78bb 3c38 87bc 4684 723d
00000090: 13aa 993c 1079 09be 0faa bfbb 6739 48bc
000000a0: e09f 54bc bbbf 06bd d2b7 893c 606f 243d
000000b0: c1a8 00be 516d 043d 854c 6a3c f69c dd3c
000000c0: 6eac e63c 5189 493c ee45 afbd 6709 a43b
000000d0: 31f2 7b3c 3d23 923c 95de 10bb ad70 213c
000000e0: c648 44bd bfb5 853d ca65 7ebd 9e4a febb
000000f0: 3ea2 f5bd 801e 573d 839e 583d 053e 0e3b
00000100: 35af 08bc 508b 2bbb bf98 e03d e8fb 4e3b
00000110: 13d2 db3c 7f4d 8a3c ade8 333d 0be8 80bc
00000120: a16b 81bd 68b0 5f3d 1021 b6bd a020 913c
00000130: 9f03 37bd a395 1f3d 6b41 833d 3998 8bbc
00000140: 457e d13c 7faf 2fbd 5ee7 973c 0dbe 963d
00000150: a571 f4ba c264 bd3c ddfb 953c a810 053d
00000160: 74dd f53c 6051 9b3c 2bba c9bb 1f4c 2e3c
00000170: 1337 bebd 7636 1b3c 1cdf 53bc cb99 b1bb
00000180: d408 6cbd 0efc fd3c f3c7 c13b fc11 b13d
00000190: cdab f9bc a0ac 39bb fabd 1dbc fbf9 73bd
000001a0: f544 8e3d 6097 86bd bbd6 c93c 0349 153d
000001b0: 14fb 62bd 1996 cbbc 8c3e c93b 574d 213d
000001c0: f868 f9bc b3fb 8fbd 0a8b 95bc f586 b1bd
000001d0: 87bf 30bd dcb4 b1bd c527 523c 8026 de3b
000001e0: 418a 9dbc 5f7b b2bd 092b 70bd 2ef2 ac3c
000001f0: 6b03 25bc cb3f 133e 79fb 833d 00a7 df3d
00000200: 63c5 003d 1b03 d6bd 3030 d3bc 060b 143c
00000210: 12ea b13c ada0 6e3d c262 56bd 8f81 803c
00000220: c27f 683d 1d16 403d 419a ff3c fcdb 513c
00000230: 2ea5 c9bc 9d67 1a3c 4112 08bc 8d1f e3bd
00000240: 42c8 f93c 037b ac3c 1b95 08bc b040 e3bc
00000250: cc89 81bd 2aaf 383d 720c e3bd 171b 68bd
00000260: 2851 aa3c 312a 653c b1d3 b23c d3d3 893d
00000270: ff6f a13d 0c1d 1cbd 4437 0b3c 420b f93c
00000280: e347 0d3d af55 a0bd ab9d a1bd caec 9bbd
00000290: 5173 ac3d 2ef2 82bd 7096 e93c c24f 943c
000002a0: c218 bbbd e6ea ae39 b1b2 b8bd b5ba c83d
000002b0: fe3b 0b3c 9319 05bd 984f af3c 3af3 d13c
000002c0: 9a18 a43c 5b44 323d d434 a13d ed95 65bc
000002d0: d318 3e3c c95d cbbc fee2 44bc b2d7 a6bd
000002e0: 2eb0 cf3b 8c8e 883d 2874 693d f788 fabb
000002f0: 7b97 f0ba f6ea 373d 1c8f f83c 80c6 ab3d
00000300: 5490 52bc 537f edbc a35e 153d 5f19 543d
00000310: 7aa1 07bc dedb ad3c 295f 30bd c514 a6bc
00000320: 79db 03bd f5c4 7abd 765f 373d 7726 b93b
00000330: 45bd 1b39 d075 03bb 61bf ae3d 0d55 12bc
00000340: dc83 f43c fd77 af3d a3b7 90bc d46e 95bd
00000350: 7368 f1bb f177 983d 6a7f 36bd b633 c8bd
00000360: bfa4 dfbd ceb8 a53d c25e 733d cab6 db3c
00000370: dc85 893c 9625 a63d fbba 7a3c ec3f 0c3d
00000380: 43f8 c2bc ca0c 273e 5db8 623d dfa0 09b9
00000390: 798f c83d 733f e73a 58a8 c43c 08cd 12bd
000003a0: 738c 403b e899 20bc bff8 18bd 29aa 573c
000003b0: 2121 d43d 02f1 61bd d6c4 1d3b 5b72 5ebd
000003c0: fe41 c03c 1c8a 123c 4781 8a3a a2a3 69bd
000003d0: c747 833d 38ca 9f3d ff75 cdbb 38cb aabd
000003e0: b5f0 6c3d 6775 8c3c 4767 9a3d 7757 7a3d
000003f0: a21d 8eba ef3e 313b 7dbb 943c 6996 073d
0.037141778 0.033275455 0.037480697 0.07590816 -0.08399735 -0.01517382 -0.013733384 -0.001468298
0.06717416 -0.0015246016 -0.050622895 0.019200252 0.05999461 -0.030707974 -0.07166541 -0.07501171
-0.017027698 -0.035663072 -0.022793371 0.005601552 -0.027475562 -0.028968513 -0.14524485 0.02907322
0.054383915 -0.037200794 -0.07013269 -0.02500808 0.013102253 -0.0037655463 0.05667953 -0.05432204
-0.030957915 -0.0037842086 -0.016506307 0.059208177 0.018757856 -0.13425088 -0.00584913 -0.012220717
-0.01297757 -0.032897692 0.016811285 0.040145278 -0.12564375 0.032330815 0.01430047 0.027052384
0.028158393 0.012300805 -0.0855826 0.0050060037 0.015377567 0.017839069 -0.0022105325 0.009853524
-0.047920965 0.06528806 -0.062108792 -0.00776036 -0.11993836 0.05251932 0.052885544 0.0021704447
-0.008342554 -0.0026175566 0.10966634 0.0031583253 0.02683357 0.016882656 0.04392307 -0.015735647
-0.06319357 0.054611593 -0.08893025 0.017715752 -0.044681188 0.038961064 0.06408962 -0.017040359
0.025572905 -0.042891975 0.018542942 0.07360468 -0.0018649591 0.023119334 0.018308574 0.032486588
0.030012824 0.018959701 -0.006156226 0.010638266 -0.09287848 0.009473434 -0.012931611 -0.005419945
-0.057625607 0.031003978 0.0059137284 0.08646008 -0.030477429 -0.0028331652 -0.0096278135 -0.05956457
0.06946746 -0.06571841 0.024638524 0.036446583 -0.055415228 -0.024851846 0.0061414894 0.039380398
-0.03044556 -0.0703043 -0.018254776 -0.08668319 -0.043151405 -0.08677074 0.012826865 0.006779492
-0.019230964 -0.087149374 -0.05863479 0.021111574 -0.010071616 0.14379804 0.06444449 0.109205246
0.031438243 -0.10449811 -0.025779814 0.009035831 0.021718059 0.0582587 -0.052340277 0.015686778
0.056762464 0.04689609 0.031201484 0.012808796 -0.024614897 0.009424117 -0.008305133 -0.11090002
0.030490998 0.02105475 -0.008336331 -0.027740806 -0.06325111 0.045088924 -0.11086358 -0.05666646
0.020790651 0.01398711 0.021829458 0.067298554 0.0788269 -0.03811364 0.008497063 0.030400876
0.034492385 -0.07828843 -0.07891401 -0.07613523 0.08420432 -0.06393848 0.028514117 0.018104438
-0.091355816 0.0003336288 -0.09018458 0.098012365 0.00849819 -0.032495093 0.021400258 0.025628675
0.020031262 0.04352222 0.07871404 -0.014012796 0.011602598 -0.024824994 -0.01201701 -0.08146609
0.006338141 0.06667814 0.05699554 -0.007645722 -0.0018355692 0.04490181 0.030341677 0.0838747
-0.012851793 -0.028991377 0.036467206 0.05178201 -0.008278245 0.021223005 -0.0430595 -0.020273576
-0.032191727 -0.06122299 0.044768773 0.0056503373 0.0001485246 -0.0020059235 0.085325964 -0.0089314105
0.029848032 0.08567808 -0.01766569 -0.072965294 -0.0073671876 0.07444752 -0.044555105 -0.09775488
-0.10920095 0.08091889 0.05941654 0.026820559 0.016787462 0.08112638 0.015303369 0.03424065
-0.023800021 0.16313472 0.055351604 -0.00013125267 0.0979299 0.0017642811 0.024006054 -0.035840064
0.002938059 -0.009802319 -0.037346598 0.013163128 0.10357881 -0.055161484 0.0024073622 -0.054308277
0.023468968 0.008944061 0.0010567092 -0.057040818 0.06410175 0.07802242 -0.0062701697 -0.08339542
0.057846744 0.017145826 0.0753923 0.06111857 -0.0010842572 0.0027045568 0.018155808 0.033102427

model.l1.bias f4 [30]
00000000: 1a01 85bd 2ebf 6c3d 3aa2 193d 6bcb 5fbc
00000010: d7c4 82bd 76da 1c3c 82c5 e93c 3a09 15bd
00000020: 1ee1 153c b026 6abc b0ca ad3c 6355 34bd
00000030: f805 2cbc 65f9 37bc 1421 8e3c b541 eebb
00000040: 766b e03c 00d9 e2bb 86e1 fa3c ca6b 9cbb
00000050: ff1c 55bc 4280 1cbd 23d7 cdba a9fd f9bc
00000060: 9cf0 88bd 2e8a d63c 8da0 c3bc fe55 00bc
00000070: 6e42 8d3c e412 f33c
-0.06494351 0.05779951 0.037508227 -0.0136593385 -0.063852005 0.0095735695 0.028536562 -0.036385752
0.00914791 -0.01429145 0.021214813 -0.044026744 -0.01049947 -0.011228894 0.017349757 -0.0072710165
0.027394991 -0.006922841 0.030625116 -0.0047735916 -0.0130074015 -0.038208254 -0.0015704375 -0.030516462
-0.066865176 0.026188936 -0.023880268 -0.007833002 0.01724359 0.029672094

model.l2.weight f4 [1, 30]
00000000: 6c99 4bbd e2e7 20bc c19f 143e f4fb 0e3e
00000010: d715 733d d837 3fbf 0f1c 71be 37e0 74be
00000020: b332 213e b4f5 9fbe 6670 22bb 99e8 05be
00000030: 4dea 07be 7a48 ea3d 3cd9 673e 9fb2 14bf
00000040: 3ed9 6b3e e838 2ebe 5b90 f4bb a0a3 183b
00000050: 468c 943d 55e7 debc 631d e13e f41f 713e
00000060: a0d6 03bd ea05 9bbd 56a5 7cbd 1973 fbbe
00000070: 73a2 da3e 4871 afbc
-0.04970686 -0.00982091 0.14514066 0.139633 0.059347 -0.74694586 -0.2354586 -0.23913656
0.15741996 -0.31242144 -0.0024786233 -0.1307701 -0.13272972 0.11439605 0.22641462 -0.58085054
0.2303209 -0.17013896 -0.0074634976 0.0023290887 0.072533175 -0.027209917 0.43967733 0.23547345
-0.032187104 -0.075694874 -0.061681114 -0.4911125 0.42702064 -0.021416321
