model_dsm11rmcov/v3d-[90, 60, 30, 30]-0.0001-280.pth (torch, 152968 bytes, 9 tensors)

model.l1.weight f4 [90, 320]
00000000: e89b 333c d221 0bbc 1c91 91bd 7f62 b9bd
00000010: 149e 54bc eea1 31bc 8231 15be 727c 2fbe
00000020: 0c83 5d3c 7922 8cbd 6ea6 aa3d fd4c dd3c
00000030: 9a24 efbc 2290 25be 30c2 043d 7965 513d
00000040: 3eac 92bc a9af 273e d17d 053e f770 583d
00000050: 36b8 2c3d 1caa ddbc eb9f b93b 0186 dc3d
00000060: a049 06bd 867f f9bc be10 a53c caa9 cabd
00000070: 0fc4 17bc 4238 d03d 1a66 39bd 921f 493d
00000080: df41 f13c db69 a53d bf2f 0abe 0b50 5abd
00000090: 9384 43bd 1e43 713e 43c5 b7bc a7ad a0bc
000000a0: 62fd ca3d 9973 7f3d ce9d 153e 44bb babd
000000b0: cf99 fbbc 647b 003e 0448 3fbd 1006 ebbc
000000c0: 9410 9b3c f0aa d63c 62d8 adbb 622c 8abd
000000d0: b7e2 56be 864b da3c cd96 3e3d ab6c 2e3d
000000e0: 1366 0b3d 0d9c b0bd d9c7 4f3c ec3a 77bd
000000f0: 81a7 0b3e 3849 103d 5d88 263d 5705 13bc
00000100: abc0 d63d 87f8 303c cf93 37be 2150 e83c
00000110: e4fd 803d 54de 98be a5f0 95bd d23f 2c3e
00000120: 6c66 263c e933 a5bd ebdf edbb 6bf5 b9ba
00000130: 853e ae3d 7ec1 1c3e ed91 23be 47a5 ab3d
00000140: 5c0c b6bd 470a c6bd d6c8 f33d 57ae 1dbe
00000150: 9d82 3b3d ed5c dc3b 6452 c43d ae67 13bd
00000160: 6652 dcbd 4b60 f6bc e149 44bd f440 0ebd
00000170: 25a7 153c 9cfd 81be 34bb 22bd b64d 1f3d
00000180: d0b8 8f3e a1b9 793d a679 8ebd d6f9 953d
00000190: 366a a73d 4bb0 1a3d 6aa0 19bd eb8c 3b3d
000001a0: 4ec1 653d 873c 25bc f636 f5bb 986d 44bd
000001b0: ed07 243d 4192 703e 1aba 67be 45e0 1c3d
000001c0: 7c65 d3bb 719a 7cbd e7d1 0ebe ab7a 3abb
000001d0: 9b37 853d 3870 b03b 5cf4 b6bd f6fe f23d
000001e0: 301b c83d 9749 a33d a7be 713d ddd0 203d
000001f0: 77c4 d43d 6ffd 1abd cdad 9ebd 62d7 c5bd
00000200: 7192 3cbd 1a7f 503d ce67 d4bc f171 15bd
00000210: 8cd4 8dbd 22be cabc 6959 5b3d 724f 87bc
00000220: 565e 92bd 839e fe3b d582 9f3c 4e50 89bb
00000230: 811c 28bd d837 ba3b f31b 15bd 8c47 dc3b
00000240: 319a 27bd df7e 2cbe 4bc0 e0bd dd36 0d3d
00000250: a9e1 e13c 0f5b 1f3d 766c 843d fd9b d4bb
00000260: ee41 833c adff a7bc 32fc 37bd 6e88 12bd
00000270: e755 e1bd c25a cdbc d272 513d a9d6 4bbe
00000280: 1a8e 27be 18b4 103d 31aa f93c 0609 073e
00000290: 0ecc d4bd 1e43 da3c 44c5 073e 95f8 0bbd
000002a0: e973 003e c176 06bd 174b 4e3e efb1 0f3e
000002b0: 8379 80bd 9dd8 39b9 fb25 f1bd 318f 51bd
000002c0: e00e 993c 5660 163b d9cf a83c c36b 9f3d
000002d0: 7229 0ebd d1f3 d53c d4cf ba3d e8df 063e
000002e0: 3697 043e 64c1 cbbd 6d61 0abd 3c1e 21bd
000002f0: b1f2 2fbe 1a36 aebd 2fb6 f5bd 371c 9d3d
00000300: e4ff 3d3d e610 4b3d 3410 ff3a d370 08be
00000310: 1fbe 283d 14dc 043d 48b1 86bd 468a 883c
00000320: ba5a d93c b857 22bd ec78 673c 355b 1abe
00000330: 9248 273d ae72 d1bd 39dd 7cbd b202 a83b
00000340: 2b7d 47bd c36f 9ebd 234c 973d 8d07 8ebc
00000350: d748 613c 9933 603c fab6 a73d d7a6 293d
00000360: e30b 0d3d 2b31 a4bc e62c 73ba a334 46bd
00000370: cf39 51bc 82ae 303d f060 183b 7a7f d03c
00000380: bb9e 44bd b84e 56be 6206 a4bd 3024 ac3b
00000390: 983e 04be 5337 7dbd ec8b 2a3c a20d 563d
000003a0: 63c0 1dbe ba8e 8dbd d4e0 bd3d 218a 9fbd
000003b0: 4b0e 87be 16c5 12bd 3bda 99bc ba69 6c3d
000003c0: 6fa3 df3d d4e1 80bb a1f8 263e e3a5 ca3d
000003d0: ab6c c13b bfb3 383d 7b15 7dbd 0a72 7ebd
000003e0: 4479 d93d 0084 1d3e c491 41bd a444 09be
000003f0: 890c 3cbd 6e56 a4bd 2a92 03be b3f3 82bd
0.010962464 -0.00849195 -0.071077555 -0.0905199 -0.012977142 -0.01084183 -0.14569667 -0.17137316
0.013520014 -0.06842513 0.08332525 0.02701425 -0.029192258 -0.16168264 0.032411754 0.051122162
-0.017904397 0.16375603 0.13036276 0.052842107 0.042167865 -0.027058654 0.0056648157 0.10767747
-0.032785058 -0.030456316 0.020149585 -0.09895666 -0.009263053 0.1016698 -0.045263387 0.049102373
0.029450355 0.08076831 -0.13494776 -0.05329899 -0.047733855 0.2356076 -0.022432929 -0.019614054
0.0991161 0.062366102 0.14610979 -0.09117749 -0.03071299 0.1254707 -0.04669954 -0.028689414
0.018928804 0.026204556 -0.005305336 -0.067467466 -0.20984922 0.02664734 0.046530534 0.042584103
0.034032892 -0.08623514 0.012681925 -0.060358927 0.13638116 0.035226077 0.04065739 -0.008973441
0.10485967 0.010801441 -0.17927478 0.028358521 0.06298426 -0.29857123 -0.0732129 0.1682122
0.010156255 -0.08066542 -0.007259359 -0.001418752 0.085080184 0.15308186 -0.15973635 0.083811335
-0.08889076 -0.09669929 0.11903541 -0.15398537 0.04577886 0.006724945 0.09586027 -0.03598755
-0.10757904 -0.030075213 -0.04792202 -0.034729913 0.009134089 -0.253888 -0.039729312 0.03889247
0.28070688 0.060968045 -0.06956796 0.07323043 0.08174555 0.037765782 -0.0375065 0.045788687
0.056092553 -0.010085232 -0.0074833585 -0.04795608 0.04004662 0.23493291 -0.22629586 0.038299818
-0.006451307 -0.061670724 -0.13947259 -0.0028454463 0.065047465 0.0053844713 -0.089333266 0.11865036
0.097708106 0.079730205 0.05901971 0.039261688 0.10389035 -0.03783935 -0.077479936 -0.09660222
-0.046038095 0.050902463 -0.025928404 -0.036485616 -0.06925306 -0.024748866 0.053552065 -0.016517375
-0.071468994 0.007770361 0.019471565 -0.0041904813 -0.04104281 0.0056829266 -0.036403608 0.0067223962
-0.040918533 -0.16845272 -0.10974177 0.03447615 0.027573423 0.0389052 0.06466 -0.006488322
0.016022649 -0.020507658 -0.044918247 -0.03577464 -0.11002713 -0.02506769 0.05113489 -0.19906105
-0.16362801 0.035328 0.030476661 0.13187036 -0.10390483 0.026643332 0.13258845 -0.034172613
0.12544216 -0.032828096 0.20145832 0.1403272 -0.062731765 -0.0001772367 -0.11774822 -0.05116195
0.01868385 0.0022945604 0.020606922 0.07784226 -0.034707494 0.026117237 0.09121671 0.13171351
0.12948307 -0.09948996 -0.03378432 -0.039335474 -0.17182423 -0.08506413 -0.119976394 0.07671397
0.046386614 0.049576662 0.0019459785 -0.13324289 0.04119694 0.032436445 -0.065767825 0.016667496
0.02653252 -0.039634436 0.014127951 -0.15073855 0.040840693 -0.102269515 -0.061734412 0.0051272744
-0.048703354 -0.077361606 0.07387569 -0.017337585 0.0137502765 0.013684177 0.08189197 0.041418876
0.034435164 -0.020042976 -0.0009276405 -0.048390042 -0.01277013 0.043135174 0.0023251139 0.02545141
-0.04800294 -0.20928466 -0.0800903 0.0052533373 -0.12914503 -0.06182034 0.010409337 0.052259095
-0.15405421 -0.069119886 0.09271398 -0.07790018 -0.26378092 -0.035832487 -0.018780818 0.057718016
0.10919844 -0.003933171 0.16305782 0.09894922 0.005902847 0.045093294 -0.061788063 -0.062120475
0.10618833 0.15382385 -0.047258154 -0.1340509 -0.045910392 -0.08024298 -0.12848726 -0.06394138

model.l1.bias f4 [90]
00000000: 93b4 913c 527a d1bd 01a7 6fbc 984f c8bb
00000010: 2f45 56bd 4d67 1dbd 3117 81bd 2be0 49bd
00000020: 5011 8fbd 0947 a3bc b85d 4dbd 63a9 cfbc
00000030: a361 86bd a85a 51bd c2e4 f33c 3dc3 a2bd
00000040: 6eb6 68bd 6d7d 9f3c 3ed3 4f3c b92e bbbc
00000050: 9cf3 bf3c 02b0 2d3c 72ff 5fbd 1b12 0d3d
00000060: 2bee bcba 2709 66bd a115 1b3d 963a bdbc
00000070: 7f06 683b 1979 febc 764e 1abc 6f5f 10bd
00000080: 5edb 12bd 475b d5bc 7f4b 4abd 55be 2b3d
00000090: 0c4f ad3a 489a 8bbc 9ba7 3fbc 80b5 62bb
000000a0: 2d8e 18bd f797 02bd ab3a 353c 83e0 c73c
000000b0: 4f28 8fbd a84c 733c cf61 a53c 5c0f 9d3a
000000c0: 134b 0d3d e58d 64bd bb2e 21bd d337 2abd
000000d0: 33b2 a8bd d8f5 d9bd 68e3 65bd 20a0 e2bc
000000e0: bc71 e63c afa5 88bd f02f 5ebd 7241 afbd
000000f0: 0bb1 8dbb edbd abba 3586 0f3d 6979 d13c
00000100: fe66 77bd 00ba 523c 5d12 88bd d77e 12bd
00000110: b04f 7dbd 4fa9 f53c 5cbe a4bd 6d1b 91bd
00000120: ecef f93c 9763 663d c637 df3c 9e90 323c
00000130: 9adb 60bd 6a74 943b 55df 53bd 2187 a4bd
00000140: f30d 233d 4cee 1abd bfd2 303c 5abc 6abd
00000150: e658 99bd b430 a5bd 78f8 f7ba 3836 74bd
00000160: 3dad aabd 7843 9fbc
0.0177863 -0.10228409 -0.014627219 -0.006113004 -0.052312072 -0.038428593 -0.063032515 -0.04928605
-0.06985724 -0.019931333 -0.050138205 -0.025349325 -0.065615915 -0.051111847 0.029772166 -0.07947395
-0.056814604 0.019468987 0.012684641 -0.022849428 0.023431592 0.010601046 -0.05468697 0.034441095
-0.0014414241 -0.056161072 0.037862424 -0.023099225 0.0035404263 -0.031063603 -0.009418121 -0.035247263
-0.035853736 -0.026044501 -0.049388405 0.04192956 0.001322241 -0.01704134 -0.011697675 -0.0034593046
-0.037244964 -0.031883206 0.011061351 0.024399048 -0.0699011 0.014849819 0.02018824 0.0011982727
0.034495424 -0.055799384 -0.039351206 -0.041557144 -0.08237114 -0.10642594 -0.056125075 -0.027664244
0.028130405 -0.06672227 -0.054244936 -0.085574046 -0.0043240837 -0.0013102867 0.0350401 0.025570588
-0.060400955 0.012861729 -0.066441275 -0.035765495 -0.061843574 0.02998796 -0.08044121 -0.07085309
0.030509911 0.05624732 0.027248275 0.010898737 -0.05489693 0.004530479 -0.051726658 -0.08033586
0.039808225 -0.037824914 0.010792433 -0.057308532 -0.07487659 -0.0806593 -0.0018918654 -0.05962202
-0.08333824 -0.019441351

model.l2.weight f4 [60, 90]
00000000: ee38 2fbd 6b50 b8be 42f4 3fbe 81ee 9abe
00000010: c86c 0bbe 33a3 b73d 1e25 80bc 8394 09bd
00000020: e5fa bb3c b109 973e 3e37 38be 64db 26bd
00000030: 0efd 6d3e 53eb 26bd 2c81 2a3d dd82 62be
00000040: de2c 1a3e bfda 9cbd 2395 ddbc ef43 0dbd
00000050: c742 f3be f1d0 8a3c 5fa4 4a3d 2f7f 9dbd
00000060: fd7f 3f3e aaa7 f1be 2ed7 913d 039e 34be
00000070: 957f 453d e199 37bf f331 c63d 0a30 04be
00000080: 6ffa 8abd f27c acbd 9dde ff3c 443b 973d
00000090: e69f bdbd fb06 f73b 723d ab3d 0c49 9fbd
000000a0: a677 3a3e c253 afbc 86ec 91bd 6cdd 46bd
000000b0: 323d 05be 40a2 1a3d 9149 3fbc 8229 06be
000000c0: fabf 49be 27f6 6cbe 0465 e8bc ad25 01bf
000000d0: c525 b4bd 957d 8bbe dfc9 e43d ea5b fbbc
000000e0: 21ee 8bbe 624c 7c3e a510 c83d be7a 7cbe
000000f0: 5999 b63d 9dae 8e3e a4ea 9f3c 9b54 1c3e
00000100: ecd6 d4bd f162 1dbe e9a6 2fbd 9036 24be
00000110: 7e61 24bd 8120 5dbc eec3 573e b503 3fbc
00000120: 4520 dd3c 9b51 293e 3492 50be b285 edbe
00000130: eb46 3bbc 4550 d0bd 1816 06bd c3a4 c1bd
00000140: 1d65 a7bd 28e9 bfbd e040 7d3e e4e2 2bbc
00000150: fd65 debd a0e7 77bc 271c c8be 25cc 543c
00000160: fd57 48be f71a da3d b859 2c3d d06c b4be
00000170: 81ee afbd 8b10 febe cd70 08be 9df2 eb3d
00000180: 0c33 85bd 6312 8cbd c216 14bd 8c1e 8b3d
00000190: c7f1 6fbe 7c2c 74bd 8b68 93bd 85f8 bcbd
000001a0: 7790 96bd 43dd 48be 6f7e 8c3d 3ec2 82bc
000001b0: b109 cabd eb63 203d 4ddf 5dbe 51de 7ebc
000001c0: d00b adbe f140 b6bc 46b3 c13d 9fc7 25bf
000001d0: 0b1c 483d 6723 59bd fb24 5c3d 450c 2dbf
000001e0: 46d1 a13d eec7 13be 6712 5cbc ae93 07be
000001f0: 3cc5 243a 64cd 2d3e 4945 cbbd 2bb9 d9bd
00000200: 6295 f3bd 01be a1bd bacc ebbc 6858 3dbe
00000210: 701b 3cbe 1801 64be f23e f1bd 3dad ac3c
00000220: 9683 74bd 2b15 e3bc 0613 0ebe f820 33be
00000230: 16ca 05be 2a96 91be 37b3 adbc 559d 00bf
00000240: e6a3 a3bd 2a5b 31be a5c1 9bbe 522c 15be
00000250: 6d58 4e3b 4772 4ebe d76b a8bd c8f9 173e
00000260: a231 0e3e 0aed 8a3e 49d4 dabb 45b6 60be
00000270: e64b cb3c c311 42be fa60 bebd 0bfb 2c3e
00000280: ea83 9c3c fa78 2ebe 0640 8abd d34e e73d
00000290: 2d7a d2be 9443 3bbf 49f0 dfbd b671 babd
000002a0: 5c94 5dbc 9d1f bebd 882b de3d 0782 843c
000002b0: 6d72 21bd e434 72bd 426c acbe 5004 97bd
000002c0: 3d9a 46bf c47e 64bd 3e21 b3bd 8fdd 2c3d
000002d0: 0247 af3c 64fb 413e 5488 9e3c 63b4 19bf
000002e0: 0872 273d 5b80 e2bc e6ae a13d 1670 a03d
000002f0: c984 823d ff36 6dbe dc1a fd3d 63f3 02bc
00000300: 16b7 3cbe 5514 5dbc 8295 b6bc 3c05 0e3e
00000310: 9001 dcbd 72f6 673d 3351 873d aaf6 803c
00000320: 39e2 043e fd99 1bbd 17ca 09bf 4554 223e
00000330: c584 eabd 2531 0cbf 0ec3 afbe 4094 37be
00000340: 1e27 17be 5a8d 483f 958c d0bd cfd7 8abe
00000350: 3446 8a3b 74ff 3f3c 001c 28bd a740 02be
00000360: 672f 5d3d 67ff 463d 2be3 11be f8d9 d6bd
00000370: 0f6c 49be e0fa 963d 5ddc ecbc 146d 87be
00000380: 1a72 d23c 601d 73bc e0d3 65bd e1b6 d1bd
00000390: b97c babe f8f2 523c 23d1 f3bd 6938 bfbd
000003a0: f122 9e3d 9a57 dbbe 9b06 15be 25e0 d3be
000003b0: d33d 59bc a4e5 cbbe acd0 e8bd e661 033e
000003c0: 48b6 4cbe 098c c6bd 5409 afbd b1e6 f6bd
000003d0: 47a1 543b 5343 543e d45e c6bb e202 0e3e
000003e0: 7d56 2cbe afdc 83bd ebc3 1abe 6983 2ebe
000003f0: bfd7 ff3d 6e97 2dbe c33e 583e b669 983e
-0.0427789 -0.35998854 -0.1874552 -0.3026009 -0.13615716 0.08966675 -0.015642699 -0.033588897
0.022946784 0.2949958 -0.17989823 -0.04073657 0.23241064 -0.040751766 0.041627094 -0.22120233
0.15056178 -0.0765891 -0.027048653 -0.034488615 -0.47511885 0.016945334 0.049473163 -0.07690274
0.18701167 -0.4719823 0.071211204 -0.17638402 0.048217375 -0.71719176 0.09677496 -0.1290895
-0.06786048 -0.08422269 0.03123408 0.07384351 -0.09259014 0.007538674 0.08361329 -0.077776045
0.18209705 -0.021402244 -0.071251914 -0.048551008 -0.13011625 0.03775239 -0.011675254 -0.13101771
-0.1970214 -0.23140775 -0.02836848 -0.50448114 -0.087962665 -0.2724425 0.11171316 -0.030683476
-0.27330115 0.24638513 0.097688 -0.24656197 0.089159675 0.27867594 0.019521065 0.1526665
-0.103925556 -0.15369774 -0.042883787 -0.16036439 -0.04013204 -0.013496519 0.21070835 -0.011658599
0.026992926 0.16535036 -0.20368272 -0.46391064 -0.011430482 -0.1017156 -0.032735914 -0.09455254
-0.08173583 -0.09370643 0.24731779 -0.010491107 -0.108592965 -0.015130907 -0.3908398 0.012988125
-0.19564815 0.106496744 0.04207775 -0.35239267 -0.08590413 -0.49621996 -0.1332428 0.11520884
-0.06503877 -0.068394445 -0.036154516 0.06792936 -0.23432074 -0.059612736 -0.07197674 -0.09227089
-0.07351773 -0.19615655 0.06860053 -0.015961763 -0.0986513 0.03915779 -0.21667214 -0.015555934
-0.33798075 -0.022247763 0.09458022 -0.6475772 0.04885487 -0.053012278 0.053746205 -0.67596847
0.07901244 -0.14431736 -0.013432122 -0.13239929 0.0006285494 0.16972882 -0.099253245 -0.10631021
-0.11893727 -0.078975685 -0.028784145 -0.18490756 -0.18369842 -0.22266042 -0.11779584 0.0210787
-0.059695803 -0.027720055 -0.13874444 -0.17493045 -0.13065371 -0.2843488 -0.02120362 -0.5024007
-0.079902455 -0.17319933 -0.30421177 -0.14567688 0.0031485811 -0.20160781 -0.08223694 0.14841378
0.13886121 0.2713397 -0.0066781384 -0.2194453 0.024816465 -0.18952088 -0.092958406 0.1689264
0.01910587 -0.17038336 -0.06750493 0.112943314 -0.41108838 -0.7314999 -0.10934503 -0.0910372
-0.013524141 -0.092833735 0.10848147 0.016175283 -0.039415766 -0.05913247 -0.33676344 -0.073738694
-0.775791 -0.055784956 -0.08746575 0.042203482 0.021396164 0.18943554 0.019352116 -0.60040873
0.040880233 -0.027649095 0.07894687 0.07833879 0.06372983 -0.2316551 0.12358639 -0.007992598
-0.18429217 -0.013493617 -0.022288088 0.13869184 -0.107424855 0.056631513 0.066072844 0.015742619
0.12976922 -0.03798865 -0.5382399 0.15852459 -0.11451105 -0.5476249 -0.34328502 -0.17927647
-0.14761016 0.78340685 -0.10183064 -0.27117774 0.0042197946 0.01171862 -0.041042328 -0.12719975
0.054000285 0.048583414 -0.14246814 -0.10490793 -0.19670127 0.07372069 -0.028913671 -0.26450408
0.025689173 -0.0148385465 -0.056110263 -0.102399595 -0.3642328 0.012875311 -0.11905124 -0.09336931
0.07721508 -0.42840272 -0.14553301 -0.41381946 -0.013259369 -0.3982364 -0.11367926 0.12830314
-0.1999141 -0.09694678 -0.08546701 -0.1205572 0.0032444762 0.20728807 -0.006053785 0.13868287
-0.16829868 -0.064385764 -0.151138 -0.17042316 0.12492322 -0.16952297 0.21117692 0.2976815

model.l2.bias f4 [60]
00000000: 44b1 e83c befb 6a3d 28c3 0f3d 72aa 00be
00000010: f909 4ebc 3beb 843d 9617 653c 003b 9ebc
00000020: d67b 9d3c ded1 d3bd db81 90bd 228d 6fbc
00000030: 2ba0 dcbc 4423 62bd 8baf 3ebc 41a4 2abc
00000040: 78ed 95bb 216e 81bb 4c17 633d e4c3 8dbc
00000050: 2e92 ad3b 04d3 9c3d 4710 cdbb 0a6e 3a3d
00000060: 62c5 02bc 529b b33d dd23 76be d966 6a3c
00000070: 6792 e43c 76ad 9e3b 27a6 c6bc 06ae 613c
00000080: 4a0d 013d f9c2 f83c 8858 deba 2e9d fbbd
00000090: 4521 20bc c266 923c 4ade 88bd d528 b4b9
000000a0: 23e4 263c 5018 08bd 8d4f 8e3d e134 8cbc
000000b0: f2a8 57bc 70c2 12bd 42a7 893d 4750 8cbc
000000c0: 88b2 a13c 0b82 9abc eec3 07bc f051 23bc
000000d0: 52c8 d2bc 27f5 783d 9e49 08be 6377 16bd
000000e0: c651 99bc 67cb 6c3d c7bb acba f850 14be
0.02840484 0.057368986 0.035098225 -0.1256502 -0.01257562 0.06490179 0.013982674 -0.019315243
0.019224089 -0.10342763 -0.07056018 -0.014621051 -0.026931843 -0.055209413 -0.011638532 -0.010415138
-0.0045754276 -0.003949896 0.05544214 -0.017305322 0.005296967 0.076574355 -0.006258044 0.045515098
-0.00798163 0.087698594 -0.24037118 0.014306747 0.027901841 0.0048424555 -0.02424915 0.013774401
0.031506814 0.030366408 -0.001696364 -0.12285839 -0.009773557 0.017871264 -0.06683023 -0.00034362698
0.010186228 -0.03322631 0.06948767 -0.017115058 -0.013162838 -0.03582996 0.06721355 -0.017128123
0.01973845 -0.018860837 -0.008286459 -0.009968266 -0.025730286 0.06078067 -0.13309333 -0.03673495
-0.01871575 0.057811167 -0.0013178521 -0.14484012

model.l3.weight f4 [30, 60]
00000000: d881 66bd 9b8a 9bbd 4ba2 42bd 9147 a0be
00000010: b71a 923e 4ce4 03be cf0a 0abe a3ac d03e
00000020: 384c 59be eb14 e3be 41e1 793c b7cb 1b3e
00000030: a93c ab3b de88 82bd 941d ff3d 238e 493d
00000040: 7e60 ce3d c10d 0b3e 93c1 d6bd 12c5 ac3e
00000050: caf3 bc3d 5462 ffbd a8b1 ae3d 8702 b5bd
00000060: 58f8 fa3d 2f37 83bd a838 ecbd 693c 2b3e
00000070: 2643 89bd 0e8a 163e 67d4 913e f9b0 803e
00000080: d41c 433e 9688 f3bd 749d c53d 593d c3be
00000090: f128 abbe 282e 1f3d 5098 bfbd 2c5c 7abe
000000a0: d865 0c3e 4c49 e23e f5f5 43be 8fd8 0abc
000000b0: 4acc f13d 2a6a 493e 4eb6 dbbd 151c 0abe
000000c0: b270 743e 2766 94bd 57b6 523e e299 633e
000000d0: 26c7 fa3d 734b 9fbd 8413 40bd 7857 debe
000000e0: a4fe 01bd 7b79 a6bd a709 1e3e b2ea adbd
000000f0: 9b09 95be cb38 dabe 2baf b5be 8cf2 92be
00000100: 3f1c 973c 24a7 28bf 66de b3be f405 04bd
00000110: 9e33 21bf 226f 9bbe d3ba ccbe cb19 11bd
00000120: 85ef fdbe 4e71 ebbe 2d9b 1ebc cae3 2a3d
00000130: 3c1b 97bd 0452 4b3c 85ae 23bf b714 133d
00000140: 00c0 603e 34c5 0abf 6355 7ebc a0a4 24bf
00000150: e8f5 1d3d e576 34bf 38e6 cabd 1988 683c
00000160: 035d e6be cfa1 c338 3ebd 8c3c 4448 9abd
00000170: 97a4 f9bd d9f5 bdbe 37cc cbbe dedd 7ebe
00000180: a5e0 81be efea a2bd 5229 29bf 5ce4 acbe
00000190: aa98 703d 7cb8 3a3e 430b bebe b97a 33be
000001a0: 9d69 203e 5328 053e 8027 08bf 2b90 d9be
000001b0: 0a82 583d 50e7 02bf c761 eabc 6659 b83c
000001c0: 3fe0 3bbc 150a f6be 42eb acbe f9b7 9ebe
000001d0: b0ad 4ebe 77a3 13bf df13 ad3c ca95 73be
000001e0: 2f84 fabd 4e58 a8bc 2d43 e0be 6672 c5be
000001f0: 2fee bb3d aa53 99be c8ad bcbe 1fd8 e43d
00000200: 7ede acbe bc28 cabe b22b 9dbe 9290 d23d
00000210: b061 ccbd ba1b 4f3d 8f53 863c d4b7 1e3c
00000220: b12d f6bd e65b 5a3e 5b2e dbbe 9496 0e3e
00000230: 035e 533e d504 6ebc 349c 273e beaf e5be
00000240: ff62 713c 7c45 30be 41d9 fdbc d8e5 c53d
00000250: f560 a7be 6600 2c3b d12e 6a3e 9129 923d
00000260: 5ea6 bdbd 58b4 f3be 6534 a8bc ded4 4abe
00000270: b2bc c5be e1db 173e 8cbc 93be 7a1a 22be
00000280: 40d4 d43d c127 463e a0ed 89bd 3e07 b2bd
00000290: 2fdd 013e 3870 333e 3427 51be 5216 8ebe
000002a0: 43e8 813c bf45 cbbc 5af1 c7bd 761f 713c
000002b0: cd8e b9bc 35a8 e4be fb10 6cbd 8465 e7be
000002c0: da7e 2ebd 8443 81be dd8c 7fbd 8e14 abbe
000002d0: c6b7 9fbe 8d50 20be c043 513c 2fb4 32be
000002e0: acb6 c33d 6b4b 073d a664 d7bc f416 fbbe
000002f0: e146 163d 4cf5 703b fce1 583a 509b f1be
00000300: 446b 7bbe 00c9 96bd 2783 663e 9688 c0be
00000310: be05 e6be 7c47 7cbe 02fa 84bc df62 15bf
00000320: 69af d73c 9fb7 3c3d d31c 24be b257 0dbd
00000330: 2432 75be e6e8 9d3c 5589 2fbe ba6c d3be
00000340: 8081 563c b4b9 f4be b6a0 e3be 2307 efbe
00000350: d9e3 29bf ccec 743d 7722 b7bd 4390 873c
00000360: 83f9 e63d 12c9 0bbf 676a 63bd 0efe edbc
00000370: bac2 723d 26a5 f1bc 0e2a 823b 178f 72be
00000380: 1b28 b7be 2ef5 99bd 4224 843d 5509 d43d
00000390: 9b89 19bf 70e3 8abe d205 fbbe 89f0 aabe
000003a0: 43b8 1ebd ca25 ac3d ba0b 88bd 5142 413e
000003b0: 9b3f a6be e880 953d d294 f0be f952 ab3d
000003c0: 06b0 4bbd 6dcd dcbc beb3 c23d 2c95 e63d
000003d0: cc78 b43d a120 c33c d8fe 083e 6e2c 4abe
000003e0: 6a43 f73d 0573 893d d962 48bd 5760 6ebe
000003f0: be21 04bf b16b 00bf d1c6 253e b7fc 7ebe
-0.056276172 -0.07594796 -0.047518056 -0.313046 0.28536007 -0.12880057 -0.13480686 0.4075671
-0.21220481 -0.44351897 0.015251459 0.1521443 0.005225737 -0.063737616 0.124568135 0.049207818
0.10076998 0.13579465 -0.1048614 0.33744103 0.092261866 -0.124699265 0.08529979 -0.08838373
0.12254399 -0.0640701 -0.11534244 0.16722263 -0.06702261 0.14701101 0.28482363 0.2513502
0.19053966 -0.11891286 0.096491724 -0.38132742 -0.33429673 0.038862377 -0.09355223 -0.24449223
0.13710725 0.44196546 -0.19136794 -0.008474483 0.11806543 0.19669405 -0.10728131 -0.13487275
0.23871115 -0.072460465 0.2057737 0.2222667 0.12245016 -0.07778063 -0.04689361 -0.43426108
-0.031736985 -0.08128639 0.1543337 -0.0849203 -0.2910889 -0.42621455 -0.35485205 -0.28700674
0.018446086 -0.65880036 -0.35130614 -0.03223224 -0.62969387 -0.30358225 -0.39986286 -0.03542499
-0.495968 -0.45984882 -0.0096805515 0.041721143 -0.073782414 0.012409691 -0.6393817 0.035908427
0.21948242 -0.5420716 -0.0155232875 -0.643137 0.038564593 -0.7049392 -0.09907192 0.014192604
-0.44992837 9.328464e-05 0.017180081 -0.07533315 -0.12189596 -0.3710163 -0.3980424 -0.24889323
-0.25366703 -0.07954966 -0.66078675 -0.33767974 0.05873934 0.18234438 -0.37117967 -0.17527284
0.15665288 0.13003664 -0.5318527 -0.42492804 0.05285839 -0.51134205 -0.028611077 0.022503566
-0.011467039 -0.48054567 -0.33773237 -0.30999735 -0.20183444 -0.576713 0.02112764 -0.23787609
-0.12232243 -0.02054992 -0.4380125 -0.38563842 0.09176289 -0.29946643 -0.36851335 0.11174034
-0.33763498 -0.39484203 -0.306974 0.10281481 -0.0997957 0.05056355 0.016397266 0.009687383
-0.12020434 0.21324119 -0.42808804 0.13924628 0.20641331 -0.014527519 0.1636818 -0.44860643
0.014733075 -0.17214006 -0.030987384 0.0966298 -0.3269116 0.0026245355 0.22869422 0.071368344
-0.09260248 -0.4759853 -0.020532796 -0.19807765 -0.38620526 0.14829971 -0.28854787 -0.15830413
0.10392046 0.19351102 -0.067347765 -0.086927876 0.12682031 0.17523277 -0.20425111 -0.27751404
0.015857821 -0.024813531 -0.09762831 0.0147169735 -0.0226511 -0.44659582 -0.05763338 -0.45194638
-0.042601444 -0.25246823 -0.062390197 -0.3341412 -0.31194896 -0.15655728 0.0127725005 -0.17451547
0.09556326 0.03303091 -0.02629311 -0.4904095 0.03668869 0.0036767302 0.00082734204 -0.47188807
-0.24552637 -0.073625565 0.22510968 -0.37604207 -0.44926256 -0.24636644 -0.016232494 -0.5835399
0.02632876 0.046073552 -0.1602662 -0.03450746 -0.23944908 0.019276094 -0.17142232 -0.4129389
0.013092399 -0.4779793 -0.4445855 -0.46685132 -0.6636329 0.05979614 -0.089421205 0.016548282
0.11278059 -0.54603684 -0.055521395 -0.029051807 0.059267737 -0.029497694 0.0039722985 -0.23687397
-0.35772786 -0.075174674 0.06452228 0.103533424 -0.59975594 -0.27126646 -0.49027878 -0.3338664
-0.038749944 0.08405645 -0.06642862 0.18872954 -0.32470402 0.072999775 -0.4698854 0.08365435
-0.049728416 -0.026953423 0.09506939 0.11258921 0.08812103 0.02381927 0.13378465 -0.19743511
0.12073405 0.06711391 -0.048922393 -0.23278938 -0.51613986 -0.50164324 0.16189124 -0.2490109

model.l3.bias f4 [30]
00000000: cbb1 a73d beaf c93d 8c25 b33d cceb a03c
00000010: 3da3 be3d 0274 bd3d d890 843d 925d e23d
00000020: f058 063d 9ed5 a53d 1592 893d 9d77 0ebd
00000030: 2118 803d b74d 433d 2625 4b3b eb91 273d
00000040: 52fb 803c 5f5c c43d 4a8c 323d c9b3 233d
00000050: a887 173d 0285 0bbe b7f4 ea3d 0e13 e73d
00000060: 9cc9 293d 1b9e a7be cd18 853d 27c7 963d
00000070: c5bf 1b3d 3a5a e23d
0.08188208 0.09847973 0.08747396 0.019643687 0.09308479 0.09250642 0.06472939 0.11053003
0.03279966 0.08097385 0.06717316 -0.03478204 0.06254602 0.047681537 0.0030997484 0.040910643
0.015744839 0.09587931 0.04359082 0.03996638 0.036994606 -0.13624957 0.11472457 0.11282931
0.041452035 -0.32737812 0.06498871 0.07362204 0.038024683 0.110523656

model.l4.weight f4 [30, 30]
00000000: b28d 96bd 28d5 08be 9874 9ebe c90d 593e
00000010: b7ce 41bd d13f 173e eae8 a7be 2e02 9dbe
00000020: 5419 26bd 70dc c7be 71d2 82be a8f1 91be
00000030: 0c8a 9a3e 3af6 c4be c01a e1bd 7ffb 68be
00000040: 33d4 573e 4dbb 213d 60c7 7bbe e063 923e
00000050: 7eb2 01be a1fb eebe c251 1cbe 675b ca3d
00000060: 05e5 e8be cd49 773e 3404 c6bd d192 15be
00000070: 294d 453e b7b9 08be d834 fd3d a2db c13e
00000080: 809f 953e 7914 c1be 1019 2abf 97f1 8bbc
00000090: 2181 063e 5975 04be e005 9cbd 48bb 2a3e
000000a0: 3ce5 213e a2b3 bcbd da9d b23e b137 443d
000000b0: 0c7b a3bd 6707 fd3d 3367 28bf 9ec6 553e
000000c0: e6ad 8b3e 0576 23bf 5b24 063e e759 2fbd
000000d0: 939b 013f 14a5 22bf 96ef 473e 33e4 b0be
000000e0: 90d8 b43c 83b9 2a3d 2cc1 1dbf 4b7f d83e
000000f0: 60cf a63d 2e85 dc3e 07de 733d cf45 bbbe
00000100: 18f6 30be 429a c73d 775d 653d f974 e5bd
00000110: 6bd6 013d c019 0c3e 4797 9f3e fb0e d5bd
00000120: 01fc 5e3e 76c5 4e3d 10b0 c13c 23b9 4e3e
00000130: 3861 c8be d4ce b53e 9a9d 0cbd d722 c6be
00000140: 890a a2bd 9820 dfbd af86 b23e 979f 2dbe
00000150: 40dc 5bbd 4d84 b6be c63a e5bd 6c24 8f3d
00000160: b8b6 9cbe 28e0 993e 5750 7d3d ba3a f23e
00000170: 6455 2c3d 1a17 e9be 627a 1cbe ae38 873e
00000180: 54d0 0c3e b37e 59be 572e 9a3d 724a b03d
00000190: 2f8d b93b c3eb 0bbe 878f 503e c8f5 303e
000001a0: 52f5 763d a95e 65bd c702 00bf 1b74 613e
000001b0: c37c 873d 81b0 d2be 7e95 f2bd 1a39 2bbe
000001c0: 25cf 3b3e 3253 f2bd 593b 833d 86ad b9be
000001d0: 3ef8 063e f378 903d 3513 cfbe 072d c83e
000001e0: 2397 d83d c935 f23e 15de c13d 8dc5 babe
000001f0: f2cd 09bf 2e5c 6fbd 9dfa 8dbb 61fd e7bd
00000200: e025 a23c ace5 c13d 29c7 863d 339e 4cbe
00000210: ee04 c03d 7c2e a93d 4869 98bd 98a3 883d
00000220: e3d7 0abf 69d6 f33d 2e5f 023e f1ef 42bf
00000230: 995e 413e a66c 52be 3aa9 4e3e 19e2 e9be
00000240: 5fa6 2f3e 40b3 b8be 5582 b53c cd87 debc
00000250: 8111 e5be 7f72 d73e d104 013e 0ebd 043f
00000260: b4a7 4b3e 5ca2 e7be 2de3 dcbe ccfb 0bbd
00000270: da9c 2b3e 2c52 20be 94e1 eebc 1592 6e3e
00000280: 1a6e 0f3e 8788 08be f414 853e 0eff cf3d
00000290: 0880 69bd 30e6 723e 3bb1 00bf 6575 c13c
000002a0: 71c3 963e 8b0b 3abf 1a5e 983c 91fe ccbd
000002b0: 27d9 693e 1f5c d4be a7c7 e63d f77e 97be
000002c0: 35d1 4e3e f056 e2bd b271 0cbf 9670 833e
000002d0: ea78 44be f7d0 a9bc 2a9d 93be 2e9c b83e
000002e0: a967 713d 474a bc3d 46da 0cbe cab3 03be
000002f0: 5ffe d7be 8869 3ebe 7074 9dbd 196f b7be
00000300: 7df7 823e 96c7 06bf 5d47 8fbe 60c1 82be
00000310: 701b 90bc 5183 283e 0639 62be 6a37 b43e
00000320: 50ea 85be 34e6 e4be 9bc5 b0bc 15dd 443c
00000330: 2e08 e1be 39c6 2b3e 30d3 a5bd 9b1e f5bd
00000340: 8585 8b3e 6c3f c9bd 724b 2f3c 5f7f d83e
00000350: 4da2 293e 47a9 c5be ccc6 4ebe 059f 573e
00000360: 829c 78bd 69db 9ebe e2df 653c 4733 fc3c
00000370: a256 473e 6879 e7bd 8f17 5d3e 0a92 3c3e
00000380: 2ec6 c83d 94ae 5f3c 883c 19bf 9039 2a3e
00000390: ecbe 2ebe 03a6 09bf 7e3e c53c c453 fdbe
000003a0: 425f 0a3e cb20 80be 6f52 083e 4646 53be
000003b0: 6602 c9bd 5dd5 e2bd 88b2 c7be e79b a23e
000003c0: 1c4d 203e 984a 3f3f bdbc a63e 2d1e e7be
000003d0: 7c05 e1be cd72 063d acd9 e73d ff10 f7bc
000003e0: 2030 9f3b 8011 733e 6138 fe3e 6672 b1bd
000003f0: d159 373e bf8c 54bb 9277 96bb 1974 193c
-0.07351245 -0.13362563 -0.3094833 0.21196665 -0.04731628 0.14770438 -0.32794887 -0.30665725
-0.0405515 -0.39035368 -0.2555118 -0.28504682 0.30183446 -0.38469106 -0.1099143 -0.22752188
0.21077041 0.039485265 -0.24587774 0.28591824 -0.12665746 -0.46676353 -0.15265563 0.09880715
-0.45487228 0.24149247 -0.096687704 -0.14606787 0.19267716 -0.13352095 0.12363595 0.3786288
0.2922325 -0.37710932 -0.6644449 -0.017082972 0.13135196 -0.1293539 -0.07618308 0.16673005
0.15810102 -0.0921395 0.34886056 0.047904674 -0.07982454 0.123549275 -0.6578247 0.20876548
0.2728111 -0.6385196 0.13099806 -0.042810347 0.5062801 -0.6353314 0.19524989 -0.34549102
0.022075921 0.041680824 -0.6162288 0.42284617 0.081450224 0.43070358 0.059537914 -0.36576697
-0.17281377 0.09746219 0.05599734 -0.112039514 0.031698626 0.13681698 0.31170103 -0.10403248
0.2177582 0.050481282 0.023643523 0.20187812 -0.39136672 0.3550936 -0.034329988 -0.38698456
-0.07912166 -0.10894889 0.3486838 -0.1695541 -0.053676844 -0.35647812 -0.11192851 0.06989369
-0.30608153 0.3005383 0.061844196 0.4731043 0.042073622 -0.45525438 -0.1528106 0.2641043
0.13751346 -0.21239738 0.0752837 0.08607949 0.0056625823 -0.13664155 0.20367251 0.17281258
0.06029255 -0.055998478 -0.5000424 0.22016947 0.06615593 -0.41150287 -0.118449196 -0.16721001
0.18340738 -0.118322745 0.06407804 -0.362652 0.13180634 0.07054319 -0.4044434 0.39096853
0.10575702 0.4730666 0.09466187 -0.36478844 -0.5382987 -0.05843752 -0.004332854 -0.11327625
0.01979345 0.094676346 0.065809555 -0.19982223 0.0937594 0.08260819 -0.07441956 0.06671828
-0.54235667 0.1190613 0.1273162 -0.7614737 0.18883742 -0.20549259 0.20181742 -0.4568031
0.1715331 -0.36074257 0.022156874 -0.027164364 -0.44739917 0.4207954 0.12599494 0.51850975
0.19888192 -0.45241058 -0.4314207 -0.03417568 0.16759053 -0.15656346 -0.029160298 0.23297913
0.14006844 -0.13333331 0.25992548 0.1015607 -0.057006866 0.23720622 -0.5027043 0.023615548
0.29445985 -0.72673863 0.018599559 -0.10009492 0.22836743 -0.41476533 0.112685494 -0.29589054
0.20196994 -0.11051738 -0.54860985 0.25671834 -0.1918675 -0.020729525 -0.28830844 0.36056656
0.05893675 0.09193855 -0.1375514 -0.12861553 -0.42186257 -0.18594944 -0.07688224 -0.35826948
0.25579444 -0.52648294 -0.27984133 -0.25538158 -0.017591208 0.16456343 -0.22092065 0.35198528
-0.2615533 -0.4470688 -0.0215786 0.012015601 -0.43951553 0.16774835 -0.080969214 -0.11968728
0.27250305 -0.0982655 0.01069914 0.42284676 0.16565819 -0.3860571 -0.20193022 0.21056755
-0.060696132 -0.31026772 0.014030429 0.03078617 0.19466642 -0.11302453 0.21591018 0.18415084
0.09803425 0.0136524625 -0.5985799 0.16623521 -0.17065018 -0.5376894 0.02407765 -0.4947797
0.135129 -0.2502502 0.13312696 -0.20632276 -0.098149106 -0.11075852 -0.39003396 0.3175957
0.15654415 0.74723196 0.3256587 -0.4514021 -0.43949497 0.032824326 0.113208145 -0.030159472
0.004858032 0.23737144 0.4965239 -0.08664398 0.17905356 -0.0032432524 -0.0045918906 0.009366059

model.l4.bias f4 [30]
00000000: 821c 0b3e ffcd 573d 1a80 b33c 755b 123d
00000010: ada0 293d 32d5 7c3d 92f1 d03d 9473 4d3d
00000020: 15e3 923c b19d a9be 769a 893d 86b7 553d
00000030: 6132 343d 0a68 7f3c 082e c3be 7f69 03bc
00000040: a928 943d 110d 1b3a 1df9 5d3d 2022 c73d
00000050: cfe7 5f3d 1ee3 7d3d 47dd b3be 5624 a63d
00000060: 5fb1 ac3d 0340 2b3d a2f9 e73d 3bd2 ccbe
00000070: 3815 7c3d bdc4 213d
0.13585094 0.052686688 0.02191167 0.03573175 0.041412998 0.061726756 0.10202326 0.050159052
0.017930547 -0.33128121 0.06718914 0.052176975 0.043993358 0.01558877 -0.38121057 -0.008020758
0.07234318 0.0005914728 0.05419265 0.09723306 0.05466443 0.061984174 -0.3512976 0.08112399
0.08432268 0.041809093 0.113269106 -0.40004143 0.061543673 0.039494265

model.l5.weight f4 [1, 30]
00000000: 7b4e 253e cab4 cebd 14a0 1bbe 8e12 f7bd
00000010: a24e 0cbe 7baa c8bd 63f7 3e3e 8a5a 68be
00000020: f151 aebd 696e f93e 63f8 803e f726 b8bd
00000030: a76d 013e c9ee 96bd b997 f93e 2309 d7bd
00000040: 5c63 143e c340 82bd 8188 e1bd e0fa 3b3e
00000050: 81f3 9c3e 41a1 44be 9168 e13e f1c9 1b3e
00000060: e1ac 1d3e 991b 17be a846 443e 8647 053f
00000070: f0b3 4b3e c7f3 21be
0.16143219 -0.100930765 -0.15197784 -0.12064086 -0.13701871 -0.097981416 0.18649058 -0.22690788
-0.08511723 0.4871705 0.25189504 -0.08991807 0.12639485 -0.073697634 0.48748568 -0.104997896
0.14491028 -0.063600086 -0.11012364 0.1835742 0.3065453 -0.19202138 0.4402509 0.15213753
0.1539798 -0.14756621 0.19167578 0.5206226 0.1989286 -0.1581565
