model_dsm11rmcov/v3d-[60, 30]-0.0001-130.pth (torch, 87464 bytes, 5 tensors)

model.l1.weight f4 [60, 320]
0	0x3e6975bd	0.2279882
1	0x3b378a19	0.0028005897
2	0x3e3d403e	0.18481538
3	0x3dd58760	0.10426211
4	0x3b804d56	0.003915469
5	0x3c370a0c	0.011171829
6	0x3e5fb2b4	0.21845514
7	0x3e6ffd7f	0.23436545
8	0x3de72bdd	0.11287663
9	0x3e0c352c	0.13692158
10	0xb954b385	-0.00020284772
11	0x3ce72751	0.02821699
12	0xbd5061e2	-0.0508746
13	0x3d20c6a5	0.039251942
14	0xbe0871bf	-0.1332464
15	0xbc82e63b	-0.015978923
16	0xbd94ac67	-0.07259446
17	0xbe160835	-0.14651568
18	0xbe7a5a19	-0.24448432
19	0x3deb85f9	0.11500163
20	0x3d1b0f01	0.037856106
21	0xbdb353bf	-0.08756208
22	0x3d6e7a7e	0.058222286
23	0xbca07b12	-0.019589934
24	0x3da6706e	0.08126913
25	0xbd63657c	-0.055516705
26	0xbcf99b2b	-0.030469498
27	0x3d9dd8d5	0.07707373
28	0xbd677c8c	-0.05651526
29	0xbcedadf4	-0.029013611
30	0xbc99e744	-0.018787034
31	0x3ab4cdba	0.0013794221
32	0xbd4fbdae	-0.050718002
33	0x3db0f81e	0.086410746
34	0x3d93dbf7	0.07219689
35	0x3e80e5bf	0.25175282
36	0xbc1bc681	-0.009507776
37	0xbeb73ce9	-0.35788658
38	0xbdc2a2b8	-0.095036924
39	0xbd828227	-0.06372481
40	0x39b1feed	0.00033950005
41	0xbd2e7bf8	-0.042598695
42	0xbdb57505	-0.0886021
43	0xbd3b8f2a	-0.04579083
44	0x3e846bf0	0.258636
45	0xbd370621	-0.04468358
46	0x3d93f657	0.0722472
47	0xbb270cd6	-0.0025489829
48	0x3d6cec51	0.057842556
49	0x3e988716	0.29790562
50	0xbd435ac1	-0.04769397
51	0xbd9d33dc	-0.07675907
52	0x3b39520f	0.002827767
53	0x3d529ff4	0.051422074
54	0xbe8fc595	-0.2808043
55	0x3ce6ee22	0.028189722
56	0x3aad8dfc	0.0013241167
57	0x3e0a73ca	0.13520733
58	0xbd09b3b3	-0.03361864
59	0x3d0c7ddc	0.034299716
60	0xbe22a16e	-0.15881893
61	0xbd353259	-0.04423747
62	0xbd06ad27	-0.032879975
63	0xbc75bd3f	-0.014998733
64	0xbd2d6008	-0.04232791
65	0xbcf4be14	-0.029875793
66	0x3e019ca3	0.12657408
67	0x3c1e4285	0.009659414
68	0xbdb54dda	-0.0885274
69	0x3b108ba4	0.0022055889
70	0x3bd919be	0.006625383
71	0xbe2b8529	-0.16750015
72	0xbe166c74	-0.14689809
73	0x3d4af074	0.04954572
74	0xb9bed1f4	-0.0003639605
75	0xbc6dc99f	-0.014513402
76	0xbdd279ad	-0.10277114
77	0xbddcee40	-0.1078763
78	0x3e0eec66	0.13957366
79	0xbe9153b9	-0.28384188
80	0xbc0a0cb4	-0.00842588
81	0xbde6f485	-0.11277107
82	0xbe5faba4	-0.2184282
83	0x3d955a00	0.07292557
84	0xbdc9ce65	-0.0985382
85	0x3cb7a7e9	0.022418933
86	0xbd296956	-0.04136022
87	0xbe0d3ebf	-0.13793467
88	0x3ce4b9e0	0.027920663
89	0xbcec963a	-0.028880227
90	0x3e295cec	0.16539353
91	0x3e6de05c	0.23230118
92	0x3c9bd1ad	0.01902088
93	0x3d878867	0.066178136
94	0x3d156b69	0.036479387
95	0xbdb1510b	-0.08658036
96	0xbe25d187	-0.1619321
97	0x3cf3c0ad	0.02975496
98	0x3dfaa8ac	0.12239203
99	0xbddf3add	-0.10899899
100	0x3d2256a5	0.039633412
101	0xbe5e324b	-0.21698873
102	0x3d6b60c4	0.05746533
103	0x3ba9bf06	0.0051802425
104	0xbe67f8cb	-0.226535
105	0x3d51262a	0.051061787
106	0x3dbc692b	0.09199747
107	0xbcb3a151	-0.021927508
108	0xbe163d10	-0.14671731
109	0xbdbfc59d	-0.093638636
110	0x3e5600d9	0.20898761
111	0x3babb560	0.0052401274
112	0xbdfc3a04	-0.12315753
113	0xbe3e7739	-0.18600167
114	0x3e0e1af2	0.13877466
115	0x3cbcdf61	0.023055734
116	0xbe3193bd	-0.17341514
117	0xbd95d097	-0.07315176
118	0x3d9b138f	0.0757209
119	0x3c6dcfa1	0.014514835
120	0xbd659443	-0.056049597
121	0xbde49e55	-0.11163012
122	0x3d8d3138	0.06894153
123	0x3c68f09c	0.014217522
124	0xbda81d05	-0.0820866
125	0x3c9cb2be	0.0191282
126	0x3d6ea083	0.058258545
127	0xbc1f2566	-0.009713506
128	0x3c770536	0.015076926
129	0xbea7ed7d	-0.32798377
130	0x3d1153e0	0.03548038
131	0x3e41480f	0.18875144
132	0x3c922640	0.017840505
133	0x3d8c8de9	0.06863005
134	0xbd56a3c2	-0.052402265
135	0x3db87c6f	0.09008109
136	0x3c33e3c4	0.0109795965
137	0xbddc687d	-0.10762117
138	0x3d0e1482	0.034687527
139	0x3d6475e5	0.055776495
140	0xbc99e7a6	-0.018787216
141	0x3d2351fd	0.039873112
142	0x3d0480b8	0.03234932
143	0x3d67aef1	0.05656332
144	0xbe0e086f	-0.13870405
145	0x3d5653af	0.0523259
146	0xbd721058	-0.059097618
147	0xbd51e633	-0.051244926
148	0x3c43774e	0.0119303
149	0xbd01531d	-0.031573404
150	0x3d88085c	0.066422194
151	0xbc4e4f57	-0.012592158
152	0xbd01c808	-0.031684905
153	0x3d94b169	0.07260401
154	0xbc4f39d1	-0.012648062
155	0x3d938ce3	0.072046064
156	0x3d73c1bc	0.05951093
157	0x3d2efdaf	0.0427224
158	0x3d5ffd8d	0.054685164
159	0xbd1b2741	-0.037879232
160	0x3e87d843	0.26532182
161	0xbe042986	-0.12906465
162	0x3c493541	0.012280763
163	0x3cea3438	0.028589353
164	0x3dbde09b	0.09271356
165	0xbd5c2db8	-0.05375454
166	0xbcb0c7cf	-0.021579651
167	0x3cfb0846	0.030643594
168	0xbe2c741e	-0.1684117
169	0xbc33e1a0	-0.010979086
170	0x3d2ff68e	0.042959742
171	0xbe161e2f	-0.14659952
172	0xbca68001	-0.020324709
173	0x3d6960e2	0.05697716
174	0x3dec08d1	0.11525119
175	0x3d4cf0d7	0.05003437
176	0x3d006707	0.031348255
177	0x3e8744c4	0.26419652
178	0xbceca82e	-0.028888788
179	0x3d1b8367	0.037967112
180	0x3d3ea341	0.04654241
181	0xbc252e1c	-0.010081794
182	0xbca73241	-0.020409705
183	0xbdae66a7	-0.08515673
184	0xbd867125	-0.06564549
185	0xbe02ec11	-0.12785365
186	0x3cbbc88c	0.022922777
187	0xba8992aa	-0.001049598
188	0x3d442cf9	0.04789445
189	0x3bb22443	0.0054364516
190	0x3d72bbe3	0.059261214
191	0xba3e927c	-0.00072697527
192	0xbe0e901d	-0.13922162
193	0x3cb04e08	0.021521583
194	0xbe9879c2	-0.29780394
195	0xbe20ac0e	-0.15690634
196	0x3afb59e2	0.0019176567
197	0x3db76898	0.089554965
198	0xbddfc3e4	-0.10926035
199	0x3cfed92c	0.031109415
200	0xb9b08ddc	-0.0003367503
201	0x3d42f152	0.047593422
202	0x3e0d888d	0.13821621
203	0x3cc95a5d	0.024579221
204	0x3e286e29	0.16448273
205	0xbd73144d	-0.059345532
206	0x3d977798	0.073958576
207	0xbd208156	-0.039185844
208	0x3d5d7961	0.054070834
209	0x3e0464c7	0.12929069
210	0x3b851570	0.0040613934
211	0xbce7a815	-0.02827839
212	0x3c977e84	0.018492945
213	0x3e807f99	0.2509735
214	0x3de3bb28	0.111196816
215	0xbe0ec8a9	-0.13943733
216	0x3ad20841	0.0016024188
217	0xbea630dd	-0.32459155
218	0x3eb2c040	0.349123
219	0xbcd82068	-0.02638264
220	0x3da8579d	0.08219836
221	0x3dc0036c	0.09375653
222	0xbd00b2f4	-0.031420663
223	0x3e48fda9	0.19628014
224	0x3e0b8ad7	0.13627182
225	0x3e1358ae	0.14389297
226	0xbcd6f454	-0.026239552
227	0x3d22f5e5	0.039785285
228	0xbe85a761	-0.26104262
229	0xbe805ba7	-0.25069925
230	0x3ce57341	0.028009059
231	0xbcee50dd	-0.029091293
232	0x3dab56aa	0.08366139
233	0xbe1371da	-0.143989
234	0xbddf37c0	-0.10899305
235	0x3d9b3721	0.075788744
236	0x3e12c838	0.1433419
237	0x3de09f86	0.10967927
238	0xbb9d8358	-0.004806917
239	0xbd34ae2f	-0.044111427
240	0x3d067234	0.032823756
241	0xbd2fb9eb	-0.042901915
242	0xbe36216f	-0.17786191
243	0xbd301867	-0.042992022
244	0x3d146e5d	0.036238063
245	0x3e0662f3	0.13123684
246	0x3d49c362	0.049258597
247	0xbcc6ce78	-0.024268374
248	0xbda6b0d9	-0.081392
249	0xbdc52aa6	-0.09627275
250	0x396474c8	0.00021787279
251	0x3e4db0de	0.20087
252	0xbd999938	-0.07499927
253	0x3e2d3119	0.1691326
254	0x3dbc3646	0.09190039
255	0xbd0f44fe	-0.034977905

model.l1.bias f4 [60]
0	0xbcd68993	-0.026188647
1	0x3b5423fc	0.0032370081
2	0x3d0fffbb	0.035155993
3	0x3c55aa4b	0.013041089
4	0x3c2e8bd9	0.0106534595
5	0xbcc06627	-0.02348621
6	0xbcc9c6cb	-0.024630925
7	0xbd6fdea6	-0.058561943
8	0xbd8e962d	-0.069622375
9	0x3cf99a4d	0.030469084
10	0x3c8b3afa	0.016995896
11	0x3c41b492	0.0118228365
12	0x3bcca5d8	0.006245356
13	0xbc862794	-0.016376294
14	0xbbd3808b	-0.0064545325
15	0xbab5e017	-0.0013875988
16	0x3d0a665a	0.033789016
17	0x3c98f2c8	0.018670455
18	0xbcf3d951	-0.02976671
19	0xbcb50831	-0.022098633
20	0xbd9fbb0f	-0.077993505
21	0x3a9ee115	0.0012121523
22	0xbc84973c	-0.016185395
23	0x3c73138b	0.014836202
24	0x3d050d04	0.032483116
25	0x3c7e51ae	0.015522404
26	0xbd8590a1	-0.065217264
27	0xbd45450a	-0.048161544
28	0x3c2a720d	0.010403168
29	0xbd5f6799	-0.054542158
30	0xbc099cd2	-0.008399205
31	0xbd12c822	-0.035835393
32	0x3ce5b35d	0.028039629
33	0xbc69bee0	-0.0142667
34	0xbc094911	-0.008379237
35	0xbd85b4cc	-0.06528625
36	0xbd868e1f	-0.06570076
37	0xbc021a58	-0.007940851
38	0xbd892aa2	-0.06697585
39	0x3c8f8de0	0.017523706
40	0x3ab7f8cb	0.0014035938
41	0xbda4954b	-0.08036288
42	0xbd57a030	-0.052643
43	0xbd5e26be	-0.054236166
44	0xbba26693	-0.0049560755
45	0x3d05c2a0	0.032656312
46	0xbd5e8bed	-0.054332662
47	0xbc39e0ba	-0.011345083
48	0x3d1a75d9	0.037710045
49	0xbd279db8	-0.040921897
50	0xbc9f984c	-0.0194818
51	0xbc9086ad	-0.017642343
52	0x3ccc0342	0.024903897
53	0xbd920c05	-0.07131199
54	0x3c0ee4bf	0.0087215295
55	0x3cd837d2	0.026393805
56	0xbcd88a17	-0.026433034
57	0x3d067136	0.03282281
58	0xba94f42d	-0.0011364274
59	0xbc4ec80a	-0.012620935

model.l2.weight f4 [30, 60]
0	0x3e23b9e4	0.1598888
1	0xbcf9b5d9	-0.03048222
2	0xbd159b93	-0.03652532
3	0xbcba3b11	-0.022733243
4	0x3e58ed4c	0.21184272
5	0x3f16aa3f	0.58853525
6	0x3ecc0950	0.39850855
7	0xbcb1c990	-0.021702558
8	0x3d3b2ed3	0.045698952
9	0xbe5cc4f4	-0.21559507
10	0xbc17f719	-0.009275221
11	0x3cfc1874	0.030773379
12	0x3dd126bd	0.10212467
13	0xbcc162fa	-0.023606766
14	0xbbc42bdb	-0.0059866733
15	0x3dc12a69	0.09431917
16	0x3eba624e	0.36403126
17	0xbe99e912	-0.3006063
18	0x3cb38aba	0.021916736
19	0x3e26231f	0.16224335
20	0xbca208a5	-0.019779513
21	0x3c866b88	0.016408697
22	0xbf44a4db	-0.7681405
23	0x3d0044d5	0.031315643
24	0xbdf5169e	-0.119672045
25	0xbe88c983	-0.2671624
26	0xbe6f2ba5	-0.23356493
27	0xbf0b7a78	-0.5448375
28	0xbe34d6c0	-0.17660046
29	0x3d95f7d3	0.07322659
30	0xbd5154be	-0.051106207
31	0xbb324d3f	-0.0027206687
32	0x3e612817	0.2198795
33	0x3e0f19f2	0.13974741
34	0xbe32cfef	-0.17462133
35	0xbca3833c	-0.019960038
36	0x3d8d2480	0.068917274
37	0xbe4a7309	-0.19770445
38	0xbda36634	-0.07978478
39	0x3efb8331	0.4912353
40	0xbe6882a0	-0.2270608
41	0x3d97bc1f	0.07408928
42	0x3cbcaa21	0.023030343
43	0x3dd2fe57	0.10302418
44	0x3e83cb90	0.25741243
45	0x3f0d1c6d	0.551215
46	0xbea242c8	-0.31691575
47	0x3ed6a9c5	0.419264
48	0xbd212e6c	-0.039350912
49	0x3cad85b0	0.021181911
50	0xbebac568	-0.36478734
51	0xbf049f0b	-0.5180518
52	0x3cee5f8f	0.0290983
53	0xbd9c8878	-0.07643217
54	0xbe55f2c4	-0.20893389
55	0x3e47af65	0.19500501
56	0xbdd9d0b4	-0.1063551
57	0xbe0cd99c	-0.13754886
58	0xbdf5f527	-0.1200965
59	0x3f006b9e	0.5016421
60	0xbda457a3	-0.08024528
61	0xbe762dfa	-0.24040976
62	0x3d824863	0.06361463
63	0xbe5f3142	-0.21796134
64	0xbe50f1f8	-0.20404804
65	0xbefb0fc4	-0.49035466
66	0xbeebef9d	-0.46081248
67	0xbe5773be	-0.21040246
68	0xbd57fc54	-0.052730873
69	0x3d3ce657	0.046118107
70	0x3e088919	0.13333549
71	0xbd1352fa	-0.035967804
72	0xbdeb867d	-0.11500261
73	0x3d0ecd6d	0.034863878
74	0xbe142ebc	-0.14470953
75	0xbaa7f388	-0.0012813667
76	0xbec0f794	-0.37688887
77	0x3e806c6e	0.25082725
78	0xbe15da10	-0.14633965
79	0x3cb25f4b	0.021773955
80	0xbe0005f3	-0.1250227
81	0x3e7e98fe	0.2486305
82	0x3e235bd4	0.15952998
83	0x3e491281	0.19635965
84	0xbd37ee81	-0.04490519
85	0x3e05e6d4	0.13076335
86	0x3d88fd69	0.06688959
87	0x3c4c9404	0.012486462
88	0x3daeeba7	0.08541041
89	0xbde2cca3	-0.110741876
90	0x3d173b09	0.036921535
91	0x3cc2757f	0.023737667
92	0xbd5e0cee	-0.05421155
93	0x3e551f83	0.20812802
94	0xbe368026	-0.17822322
95	0xbe1fc11d	-0.1560101
96	0x3dd4e34b	0.10394915
97	0x3d130cfb	0.03590105
98	0xbe374e53	-0.17900972
99	0xbedb94af	-0.42886874
100	0x3ed04a49	0.40681675
101	0x3c11bbc1	0.008894862
102	0xbe27f328	-0.1640135
103	0x3e47be03	0.19506077
104	0xbdbb1614	-0.091350704
105	0xbe738065	-0.23779447
106	0x3f0b3e03	0.543915
107	0xbc1e8a3a	-0.0096765105
108	0xbd8d4d16	-0.068994686
109	0xbe41dd45	-0.18932064
110	0x3ea146fd	0.31499472
111	0x3e7bcec3	0.24590592
112	0xbe3b7888	-0.18307698
113	0x3e5d355b	0.21602385
114	0x3e3824e2	0.1798282
115	0xbdd4c709	-0.103895254
116	0x3be0505a	0.006845516
117	0xbc544099	-0.012954854
118	0xbd648fbc	-0.05580114
119	0xbedde3db	-0.43337902
120	0x3e5a228e	0.21302244
121	0x3d29f9de	0.041498058
122	0xbc8068da	-0.015674997
123	0xbccce1a1	-0.025009932
124	0x3de7a12c	0.11310038
125	0x3ef7f103	0.48426065
126	0x3ee55ec3	0.4479886
127	0xbc2df897	-0.0106183505
128	0x3ce666ad	0.028125132
129	0xbe0e015a	-0.13867703
130	0xbd36f723	-0.04466928
131	0xbcca4cf1	-0.024694892
132	0xbd319092	-0.043350764
133	0xbe2361e5	-0.15955313
134	0x3c3f5440	0.011677802
135	0x3d91709c	0.07101557
136	0x3ea3eab4	0.32015002
137	0xbebb5a72	-0.36592442
138	0xbca36a2d	-0.01994809
139	0x3dd06a84	0.10176566
140	0x3dc00808	0.09376532
141	0x3d3e0653	0.04639275
142	0xbf46db00	-0.7767792
143	0xbc1cab57	-0.009562335
144	0x3cf7a329	0.030229168
145	0xbe8abd9c	-0.27097785
146	0xbe863a6f	-0.26216456
147	0xbf2b0a65	-0.66812736
148	0xbba1b55f	-0.004934951
149	0x3d865316	0.06558816
150	0xbd942ea9	-0.07235462
151	0xbcc049b8	-0.023472652
152	0x3e740ec5	0.23833759
153	0x3d06e2f5	0.032931287
154	0xbe01ff58	-0.12695062
155	0xba666f3c	-0.0008790379
156	0xbd393619	-0.045217607
157	0xbc52f031	-0.012874649
158	0x3be78e75	0.0070665427
159	0x3f0ffdce	0.5624665
160	0xbe232d58	-0.15935266
161	0x3e17d99a	0.14829102
162	0xbd60a141	-0.054841284
163	0x3d991bf7	0.07476037
164	0x3e519c7e	0.20469853
165	0x3f0c5b0c	0.54826427
166	0xbeee5c41	-0.4655476
167	0x3ec7c535	0.39017645
168	0xbe067bec	-0.1313321
169	0x3cbbf88b	0.022945663
170	0xbe93e81b	-0.2888802
171	0xbf149e91	-0.58054453
172	0xbc8fc8c2	-0.017551783
173	0x3e0e0d1f	0.13872193
174	0xbe95d249	-0.29261997
175	0x3ea571d7	0.32313415
176	0xbd9424a1	-0.07233549
177	0xbe2d9196	-0.16950068
178	0xbca4af70	-0.020103186
179	0x3f0f8d84	0.5607531
180	0x3e839b73	0.25704536
181	0x3bceb116	0.0063077314
182	0x3d8a3a90	0.06749451
183	0x3d920c54	0.07131258
184	0x3e1b2340	0.15150166
185	0x3f26d9c7	0.6517605
186	0x3e86bd26	0.26316184
187	0xbc71b4ed	-0.014752609
188	0xbe39dc6e	-0.18150494
189	0xbe7a5611	-0.24446894
190	0xbde219e7	-0.11040097
191	0xbd5e0636	-0.054205142
192	0x3d3057a5	0.043052334
193	0xbe83e607	-0.25761434
194	0xbd597b2d	-0.053095985
195	0x3e5fce67	0.2185608
196	0x3e8d29e5	0.27571025
197	0xbea2b475	-0.31778303
198	0xbd00e33e	-0.031466715
199	0x3e0584a8	0.13038886
200	0xbd535129	-0.051591072
201	0x3dcde40c	0.10053262
202	0xbf3ef929	-0.7459894
203	0x3df62ca6	0.12020235
204	0xbe1f75fa	-0.15572348
205	0xbe7fe4dc	-0.24989647
206	0xbe46eefd	-0.19427104
207	0xbf37d6e6	-0.71812284
208	0xbe592f03	-0.2120934
209	0x3cb98a7e	0.022649046
210	0xbd07b54b	-0.03313188
211	0x3dd8be47	0.105831675
212	0x3e1a7d53	0.1508687
213	0x3cd772b9	0.026299821
214	0xbe4ea492	-0.20179966
215	0x3d1748a6	0.036934517
216	0xbcaa1c08	-0.02076532
217	0xbe1f2ce7	-0.15544473
218	0xbe4b3bc7	-0.19847022
219	0x3ee88711	0.45415547
220	0xbe75b5d6	-0.23995146
221	0x3da2f1a4	0.079562455
222	0x3dd2b0bf	0.10287618
223	0x3e370f4d	0.1787693
224	0x3e8e8414	0.27835143
225	0x3f030ef6	0.51194704
226	0xbea7b6f1	-0.3275676
227	0x3efa144d	0.48843613
228	0xbd3904df	-0.04517066
229	0xbe0335fb	-0.1281356
230	0xbed81ad6	-0.42207974
231	0xbf257f42	-0.64647305
232	0x3d20c93f	0.039254423
233	0x3ce0c664	0.02743835
234	0xbe68609a	-0.226931
235	0x3e48923c	0.19587034
236	0xbc919df0	-0.017775506
237	0xbdda9641	-0.1067319
238	0x3c791c53	0.015204507
239	0x3f1b4d32	0.60664666
240	0xbe0da1d0	-0.13831258
241	0xbd1fae9c	-0.03898488
242	0x3d47c5a8	0.048772484
243	0xbdbdc765	-0.09266547
244	0xbe65b52b	-0.22432391
245	0xbf00e13b	-0.50343674
246	0xbf034dc2	-0.51290524
247	0xbe061c26	-0.13096675
248	0xbe64797a	-0.22311965
249	0xbd582526	-0.052769803
250	0x3cad7018	0.021171615
251	0x3e1d3ecb	0.15355985
252	0x3dbe7dab	0.09301313
253	0x3da7eb66	0.081991956
254	0xbd9a4080	-0.07531834
255	0xbd392d19	-0.045209024

model.l2.bias f4 [30]
0	0xbc0094a2	-0.007847937
1	0x3c2bae9c	0.010478642
2	0xbb18cc02	-0.0023314958
3	0xbc9f3877	-0.019436104
4	0x3cbf10e0	0.023323476
5	0xbbc21865	-0.005923318
6	0xba9d69cf	-0.0012009683
7	0x3a7d832a	0.0009670729
8	0x3d142853	0.03617127
9	0xbdbdfb76	-0.09276478
10	0xba3148b1	-0.0006762846
11	0x3c4a2603	0.012338164
12	0x3c88e9a4	0.016712971
13	0xbb9eab00	-0.004842162
14	0x3c3b7b9f	0.011443048
15	0x3c8f4c4a	0.017492432
16	0x3cc16b86	0.023610841
17	0xbddcb448	-0.107765734
18	0x3d1210d6	0.035660587
19	0xbbeb4a00	-0.0071804523
20	0xbbe2c105	-0.0069199824
21	0x3cc8cc6d	0.02451154
22	0x3d1dc1f2	0.03851504
23	0x3c98c9d9	0.018650936
24	0x3b24f019	0.0025167523
25	0x3d1c0f64	0.038100615
26	0xbbb54263	-0.0055315956
27	0xbcd33572	-0.02578232
28	0x3bb9d703	0.0056713833
29	0xbbf6da58	-0.007533353

model.l3.weight f4 [1, 30]
0	0xbf3f3743	-0.746937
1	0x3ed6e2d7	0.4196994
2	0xbf2895c5	-0.6585353
3	0xbf3d7351	-0.74004084
4	0x3e8eb24f	0.27870414
5	0x3edaf746	0.4276678
6	0xbf0e7971	-0.55654055
7	0x3eb39601	0.3507538
8	0x3e936430	0.28787374
9	0x3ea56f31	0.32311395
10	0xbef37067	-0.47546694
11	0x3e3e906e	0.18609783
12	0x3ea731cf	0.32655188
13	0xbf194fc5	-0.59887344
14	0xbf1ebc1e	-0.62005794
15	0x3ec22797	0.3792083
16	0x3e97a0af	0.2961478
17	0x3eb05022	0.34436136
18	0x3e83bbe6	0.25729293
19	0xbf1e3ea3	-0.61814326
20	0x3edd7a44	0.43257344
21	0x3e2dd497	0.16975628
22	0x3db59a68	0.08867341
23	0x3e9b41b1	0.30323556
24	0x3edacd9f	0.42735
25	0x3e84cfda	0.25939828
26	0xbf2f2459	-0.6841484
27	0xbf0cc2f6	-0.54984987
28	0xbefe0ab5	-0.49617544
29	0xbf2dcd51	-0.6789141
