model_dsm11rmcov/v3d-[90, 60, 30]-0.0001-280.pth (torch, 148528 bytes, 7 tensors)

model.l1.weight f4 [90, 320]
000000 a2 c9 07 3e 49 2a b0 be 6b 4e 80 be c9 04 61 bd
       0.1326051 -0.3440726 -0.25059828 -0.054936204
000010 53 1d 36 bd b6 16 cd bd a8 e5 fb bd 18 22 9a 3d
       -0.04446156 -0.100140974 -0.12299663 0.07526034
000020 79 85 e1 bc ff cd 39 3e 09 31 02 bd 7e 60 8c 3d
       -0.027529465 0.18144988 -0.031785045 0.06854342
000030 9d e8 67 bd de 0e 3d bc b4 4c c1 3b 7e 98 83 3d
       -0.05661832 -0.011539189 0.0058990363 0.0642557
000040 bb 65 21 bb 55 67 a5 bd 97 c1 0a be e5 b2 d9 bc
       -0.0024627286 -0.0807635 -0.13550411 -0.026574561
000050 e9 90 8b 3c 13 44 32 be 27 ef 0f be 67 b4 48 bd
       0.017036872 -0.17408781 -0.14056073 -0.04900017
000060 01 9e 3b 3d d7 6a a6 bd da b6 8d bd 76 40 97 3d
       0.04580498 -0.08125847 -0.06919642 0.07385342
000070 91 9d cf 3c aa 66 6d bd 6f 66 c3 3d c7 e0 a4 bb
       0.025343688 -0.057959236 0.09541022 -0.0050316784
000080 e4 bf 2f 3d f6 a0 53 bd 60 c5 e2 bd d1 e8 29 be
       0.04290761 -0.051667176 -0.110728025 -0.16592719
000090 3e 32 32 be 1a a3 51 3f c0 b5 82 3d 58 5a b0 3d
       -0.17401978 0.818895 0.06382322 0.08610982
0000a0 c6 d9 9d 3d ae 9f 1d 3d f8 16 1e be c5 33 c1 3d
       0.077075526 0.03848236 -0.1543845 0.094337024
0000b0 c1 3c 58 be c7 fe 38 bd 33 5c d3 3b b3 19 dd 3d
       -0.21116926 -0.04516485 0.0064502 0.10795917
0000c0 aa a9 f3 3c d7 d6 b0 bc 42 7d 3d 3d b6 73 c7 3d
       0.029743988 -0.021586819 0.046262033 0.09738867
0000d0 f2 15 25 3d be 5b 0d be d0 00 79 3e fc c3 8b 3e
       0.04030413 -0.13804528 0.24316716 0.27297962
0000e0 92 be 83 bd f0 7a b3 bd b0 74 a3 bd 5c 19 81 3e
       -0.06432833 -0.08763683 -0.07981241 0.2521466
0000f0 b8 ad cb 3e 56 5e 06 3d 33 e3 e2 3c 8a 67 ca 3d
       0.39780974 0.03280481 0.027696228 0.0988303
000100 ed ae 13 3d 30 77 30 be 25 70 ab bb 5a b7 c0 3d
       0.036055494 -0.17232966 -0.0052318745 0.094099715
000110 cd d0 e6 3d 0b 3a 89 bd fc 13 28 3d 3d 7e bf bd
       0.11270294 -0.06700524 0.041034684 -0.0935025
000120 d6 bd 69 3e d6 32 a4 3d 70 cd b0 3c c4 22 99 3c
       0.22826323 0.08017509 0.021582335 0.018693335
000130 9d 0c 61 be 77 cd 94 3d fb 4f 84 3d a9 03 d1 be
       -0.21977468 0.07265752 0.064605676 -0.40823105
000140 6b f9 03 3d f4 06 47 3d 6e 5a 2a 3f 15 d8 88 be
       0.032220285 0.048590615 0.66544235 -0.26727358
000150 50 59 64 ba 84 f1 f1 bc 00 50 98 3d 17 33 83 3e
       -0.00087108184 -0.029534109 0.07437134 0.25624916
000160 f6 c7 85 3d 33 96 05 3c 33 84 94 bc f8 0d ee bd
       0.0653228 0.008153486 -0.018129444 -0.11623758
000170 7a 65 f6 bc ed 16 02 be 00 2f e4 3d 1a 62 99 bf
       -0.030077685 -0.12704058 0.11141777 -1.1983063
000180 78 af 45 3d 7b a9 a3 bd 47 f1 87 bd 8f 32 83 3e
       0.048263043 -0.0799131 -0.06637817 0.2562451
000190 a2 37 b2 bc 73 a2 f3 be 70 1d 86 3d 4f 7c 60 3e
       -0.021755043 -0.47584876 0.065485835 0.2192242
0001a0 d3 e1 98 3d 40 1b e2 3c 26 e9 aa bd 4e 00 8b 3d
       0.074649476 0.027600884 -0.08345251 0.067871675
0001b0 d4 a2 81 bc 92 cf 9e 3e 12 1e 5c be c4 d3 6d 3d
       -0.015824713 0.3101774 -0.21495846 0.058063284
0001c0 9d 62 64 3e d5 a0 14 bd 9c 93 e6 3d f5 9c fb bd
       0.22303243 -0.036286194 0.11258623 -0.122857966
0001d0 e2 18 8f 3d 3f 70 ec 3c cb 7d 57 ba 85 68 35 3c
       0.06987168 0.028862117 -0.0008220344 0.011072283
0001e0 e7 b0 65 3e d3 45 a4 3c a0 0a af bc f2 f4 7d 3c
       0.22430764 0.020052826 -0.021367371 0.015500294
0001f0 15 82 29 bd 6c cc 80 bd 24 be a8 bd 02 b6 53 bd
       -0.04138382 -0.062889904 -0.082393914 -0.051687248
000200 fa 70 b0 be bb 9d c9 3d f9 f7 1a bc 28 6b 66 bc
       -0.34461194 0.09844538 -0.009458535 -0.014063634
000210 4e 41 68 bd 5a f1 0f bd 80 b1 b2 b9 33 83 cc bc
       -0.056702904 -0.03514228 -0.00034083053 -0.024964904
000220 9b d5 78 3d 77 8d 2e 3d 8f 30 0c 3d 56 64 84 3d
       0.060750585 0.04261538 0.034225997 0.0646445
000230 14 b7 19 3e 52 e8 89 bd 38 5e b7 bd 39 95 28 3c
       0.15011245 -0.06733765 -0.08953518 0.010289484
000240 60 5d 73 be bc 86 94 3d 5a 7e f5 3c e0 95 8a 3d
       -0.23766088 0.07252261 0.029967476 0.06766868
000250 f5 74 b4 3e 10 54 90 bc cb ca 58 bd 49 70 e0 3e
       0.3524548 -0.01761821 -0.052927773 0.43835667
000260 20 f6 cc be b3 ca 5d 3c 03 6d 82 bd dc 09 90 bd
       -0.40031528 0.013537097 -0.063684486 -0.070331305
000270 b8 fd b8 bd a8 f6 d3 3c 08 86 40 ba a1 41 bf 3e
       -0.09032768 0.02587445 -0.0007344191 0.37354758
000280 ba 54 5d bd 11 a4 54 bd 5f 01 c0 bd e5 c5 53 bd
       -0.05403588 -0.05191428 -0.093752615 -0.0517024
000290 10 d6 50 3d 01 f4 07 3e 15 04 b0 bd 98 54 d3 bc
       0.050985396 0.13276674 -0.085945286 -0.025797173
0002a0 a4 bf 86 3d ae 51 20 bd 41 63 e3 3e 2d 10 a5 bc
       0.06579521 -0.039140396 0.44411662 -0.020149315
0002b0 73 54 5b 3d 22 40 45 3d 0b cf 1e be 41 7a ec bd
       0.053547334 0.048156865 -0.15508668 -0.115467556
0002c0 be bd f9 bc ac 78 7d bd 80 f1 34 bc fb fe 48 3d
       -0.030485984 -0.06188266 -0.011043906 0.049071293
0002d0 34 69 f9 bd b3 77 46 3b ea f8 cb bd 3b 7b ce bd
       -0.12178269 0.0030283749 -0.09959586 -0.10082098
0002e0 98 fb 08 3d 10 6f ab 3c 37 af 90 3e 2c 2a 5c bd
       0.033443063 0.020926982 0.28258678 -0.053751156
0002f0 93 a5 37 3e 49 c2 90 bd ea 6e a7 bd 7f 9f f7 bd
       0.17934255 -0.07068307 -0.08175452 -0.12090968
000300 ea 5c 92 bc c5 43 4d be db 61 e9 3d 04 ce 32 3e
       -0.01786657 -0.20045383 0.113956176 0.17461401
000310 3b 01 56 bb 0c 53 7c bd 8c 3a 90 3d cc b8 09 3d
       -0.0032654542 -0.061602637 0.07042417 0.0336235
000320 b3 8a 8d 3a ac f2 b4 bd b5 a9 c8 bd c3 f1 1f be
       0.0010798782 -0.088353485 -0.09797994 -0.15619569
000330 74 69 99 bd b3 68 78 bd 70 61 01 3e 4d 0b 2d 3d
       -0.07490817 -0.060646724 0.12634826 0.042247105
000340 8d 63 ca bd a1 3e 34 be 73 98 40 3e bc 27 03 3d
       -0.09882269 -0.17602016 0.18808155 0.032020316
000350 80 2d f8 be 04 3d fd bc 7e 3f 4c 3d a8 94 6e be
       -0.48472214 -0.030912884 0.04986524 -0.23298895
000360 d3 72 46 3f 47 81 05 3c 72 fe 77 be e0 46 17 3e
       0.7751896 0.008148498 -0.24218157 0.1477313
000370 c5 5f 11 3d 1b fb 58 3e 58 da 27 3f bb 19 23 3d
       0.035491724 0.21189539 0.6556754 0.03981946
000380 dd 8c a1 bd 06 fe c0 bc bf 7b 2d bc 49 2d 0c 3e
       -0.07888196 -0.023558628 -0.010588585 0.1368915
000390 c5 28 89 be c5 ce 65 be 29 13 08 bf 5e 3e d5 bd
       -0.26788917 -0.22442158 -0.53154236 -0.10412286
0003a0 16 85 86 3b a3 87 23 3d 4d 54 b9 3e b3 f2 98 bd
       0.0041052205 0.039924275 0.3619713 -0.07468166
0003b0 44 eb 94 3e db bf f9 3c a4 96 2c be 72 25 02 3c
       0.29085743 0.030486992 -0.1685434 0.007943498
0003c0 08 64 f8 bd 08 27 87 3d d8 05 69 3e c2 e4 8c bd
       -0.121284544 0.065992415 0.22756135 -0.068795696
0003d0 13 e7 57 bc 47 0e 47 bd b7 7c 86 bc 2d be 40 bd
       -0.013177651 -0.0485976 -0.01641689 -0.047056366
0003e0 72 5b 37 3d 10 61 7a 3c f7 a7 b5 bd 0f 33 d8 bc
       0.044764943 0.015281931 -0.088699274 -0.026391534
0003f0 26 63 29 3e db 6a 97 bd b0 f0 ef be 4a fd 5b 3e
       0.16541728 -0.07393428 -0.46863317 0.21483341

model.l1.bias f4 [90]
000000 12 74 3b bd 5d 17 39 3c 30 f8 31 bd 04 fd 22 bc
       -0.04576499 0.011297074 -0.04344958 -0.009948019
000010 f5 d1 98 bc 60 b0 4d bd d7 f0 fe bd f5 8d 65 bc
       -0.018654803 -0.050217032 -0.1244828 -0.014010896
000020 14 04 aa bd 63 29 14 bd 8d 4e 3b 3d 7c eb 9d bd
       -0.08301559 -0.036172282 0.04572921 -0.07710931
000030 76 c9 cb bd 58 5b dd bc 89 38 98 39 43 16 4c bc
       -0.09950535 -0.027021095 0.0002903382 -0.0124564795
000040 54 07 80 bd 48 e4 50 bd d3 76 70 bd 41 28 36 bd
       -0.06251398 -0.050998956 -0.05870707 -0.044471983
000050 13 31 89 bd ac 17 4b bd ee 69 4a 3c 5e 76 63 bd
       -0.06698813 -0.049583122 0.012354357 -0.055532806
000060 d2 fd 63 3c 5c 1e 9c bd e5 75 53 bd b2 59 c4 bc
       0.013915496 -0.07622978 -0.051626105 -0.023968551
000070 c3 4c c8 bd 28 47 5c ba 78 b2 7a 3b 39 ce 4c bc
       -0.09780266 -0.0008402937 0.0038253348 -0.012500339
000080 01 77 a3 bc 95 53 6f 3c e9 c7 d8 bc c6 8b eb 3c
       -0.019954206 0.01460733 -0.026462512 0.028753173
000090 85 6d 84 bd f8 cb 04 bd 8f 27 dd 3a 55 26 b0 bd
       -0.06466202 -0.032421082 0.0016872751 -0.08601061
0000a0 19 da e7 bc fd 33 de bc 8f c3 87 3c 37 45 bf bd
       -0.02830224 -0.0271244 0.016572742 -0.093393736
0000b0 b9 e3 2d 3d a4 66 4a bd 69 47 33 3b 75 aa fa b9
       0.0424535 -0.049414292 0.0027355796 -0.00047810716
0000c0 ab f8 5a bd c3 70 8f bd 82 6d e6 3b 8f f9 28 bd
       -0.053459805 -0.070039295 0.0070320973 -0.041253623
0000d0 3f d5 9d bc e8 a5 b0 bc ed f4 ab 3c 5e b7 30 bd
       -0.019266723 -0.021563485 0.020990813 -0.043143623
0000e0 b4 08 54 bb 41 95 f4 bc f7 ab 50 bd 6c ee 75 bd
       -0.003235382 -0.029856326 -0.05094525 -0.06004183
0000f0 c3 33 85 3c 0c 08 c7 3c b8 cf 2e bd 1f 04 0c 3d
       0.016260033 0.02429583 -0.042678565 0.034183618
000100 44 af 2e bd 54 90 f5 3c dd be 1d bc 43 56 57 bd
       -0.042647615 0.029976048 -0.009628025 -0.0525725
000110 23 c3 d4 bd f4 ac a1 bc 2c 50 a7 bd d8 64 79 3c
       -0.10388782 -0.01973579 -0.081695884 0.015221797
000120 10 ee 18 bd 0e 82 4f bd 6b b3 86 bd 72 e3 84 bd
       -0.03733641 -0.05066114 -0.0657719 -0.06488694
000130 cb d8 78 bd d4 9d 4e 3b fd a9 90 bd 80 aa 86 bc
       -0.060753625 0.0031527178 -0.07063673 -0.016438723
000140 58 96 00 bd f0 34 a2 bd c5 23 ff bd 6b 8e 74 bd
       -0.03139338 -0.07920253 -0.12457994 -0.059706133
000150 11 1a bb bd 5d c2 4f 3b 0e da 8c bc a8 7f b8 3c
       -0.09135831 0.0031701543 -0.01719382 0.022521809
000160 e5 19 96 3b 3d 02 3d bd
       0.0045807236 -0.046144713

model.l2.weight f4 [60, 90]
000000 a2 f1 ae bd b6 87 2c be dc ea 0d bd e4 0d e1 bd
       -0.085421816 -0.16848645 -0.034647807 -0.109889776
000010 68 2b 8a 3d cd 0c 1a be 07 ab d6 be 7e d7 e7 bd
       0.0674656 -0.15043946 -0.41927359 -0.11320399
000020 15 33 fd bd 2f 05 ab be 5f 30 d0 bd e1 c9 09 bd
       -0.12363259 -0.33402392 -0.10165476 -0.033639792
000030 a5 35 22 bb 0a 78 2c be 8d 3b 02 3e 8a 2e 03 be
       -0.0024751213 -0.16842666 0.1271803 -0.12810722
000040 93 1f b9 3d ca 25 3b bd e2 5d 58 3d 36 df 9f bc
       0.090392254 -0.045690335 0.05282391 -0.019515615
000050 cf 57 f8 3d 6e bb 25 3d b5 8b f2 bd 2e f1 90 bc
       0.12126123 0.04046195 -0.11843053 -0.017693128
000060 51 97 5b 3e 24 ce 4b bc a1 a2 0c 3e f5 a4 13 3e
       0.21444441 -0.0124392845 0.13733913 0.14418395
000070 43 2b 8f bc 6d 17 b5 3b 02 f4 bb be 78 39 48 bd
       -0.017476683 0.005526474 -0.367096 -0.04888293
000080 b1 7d 41 be 16 34 4e be f7 bd 5d 3b fc a0 2c bd
       -0.18895604 -0.20137057 0.0033835152 -0.042145714
000090 05 88 61 bd 28 31 e7 be c8 50 99 be d7 95 d1 3b
       -0.05506136 -0.4515469 -0.29944444 0.006396036
0000a0 8d fc 7c 3d b7 e4 15 be b0 0f 83 3e 83 e8 b5 be
       0.06176429 -0.14638029 0.25597906 -0.35528955
0000b0 dc d3 ad be 83 7a b8 3c 5f 85 42 be 02 b1 44 be
       -0.33950698 0.022519356 -0.1899619 -0.19208148
0000c0 61 78 ad bd ab 10 16 bd e7 78 e6 3b 72 8d 93 be
       -0.08470226 -0.03663699 0.0070334557 -0.28818852
0000d0 a9 4c fe bd 66 b8 db 3d 9c d2 81 bd 41 8d 6d be
       -0.124169655 0.107285306 -0.06338999 -0.23198415
0000e0 83 54 71 3d 17 57 bd bd 5b af 06 3f d4 db 1e be
       0.058918487 -0.09245127 0.5261132 -0.15513545
0000f0 fe 47 82 bd 67 f9 17 be 2e 09 86 bd ea 61 52 be
       -0.06361388 -0.14841233 -0.0654472 -0.20545164
000100 4c fa 1e be 60 d0 6c bd 5e 73 ef bd d9 65 50 be
       -0.15525168 -0.05781591 -0.116919264 -0.20351352
000110 e8 5b 1e 3d 56 08 99 bc c9 35 ad be da 0d 9d 3c
       0.038661867 -0.018680733 -0.33830097 0.019171644
000120 d0 8c 88 bd c8 10 21 be 79 cb 85 be 38 fc 25 bd
       -0.06667483 -0.15729058 -0.261318 -0.040523738
000130 bc 16 7d bd 1c 71 c9 3e ca 5b 33 be 36 15 59 be
       -0.06178926 0.39344108 -0.17515483 -0.21199498
000140 7e 9a a4 bc dd 2e 31 be a3 8d b2 3d a8 49 b4 be
       -0.020093199 -0.17303033 0.08718421 -0.35212445
000150 4a 59 5f be 19 49 13 be 23 91 dd bd e7 a4 1d be
       -0.21811405 -0.14383353 -0.10818698 -0.15394937
000160 d2 05 aa 3d 15 f3 48 bd 1e 08 b4 be 6c 1e 41 be
       0.083018914 -0.049059946 -0.35162443 -0.18859261
000170 da 91 84 3e dc 4c 55 bd aa e6 6e bc e6 5b ae 3d
       0.25892526 -0.052075252 -0.014581362 0.08513622
000180 2e c2 82 3e 19 fb 66 3c 8c f3 43 3c 12 eb 09 bf
       0.25538772 0.014097952 0.011959922 -0.53874314
000190 df 1a 8a be 88 08 97 3d 7c a5 c2 3d 90 f7 5d bc
       -0.26973626 0.07374674 0.0950422 -0.013547793
0001a0 c9 1f 02 bd fa be 2f be 8f 95 10 bc f8 79 2b 3d
       -0.031768594 -0.17162696 -0.00882472 0.041864365
0001b0 11 2c e0 bb 56 a8 a1 3c 01 0f 3f bd 72 ae 13 3c
       -0.0068411906 0.01973359 -0.04664517 0.009013759
0001c0 b9 37 1b bd ac 66 5e bd 2c af 37 be 9d 4b e6 3c
       -0.03789494 -0.054297134 -0.17937917 0.028112227
0001d0 01 51 86 3d 5a 36 5c 3d d6 7c 44 bb 37 22 de 3c
       0.06558419 0.05376277 -0.0029981635 0.027115924
0001e0 62 76 e8 3d cd e5 40 3e 8a 2b 2e 3e f8 27 56 bc
       0.11350705 0.18837662 0.17008796 -0.013071053
0001f0 40 2b 50 be 73 b6 94 3b 3d 3d bd 3d 71 ea 55 be
       -0.20328999 0.004538351 0.09240196 -0.20890214
000200 c0 4c fc 3e eb a7 a7 3c ee c3 be bd 2e 2f 0c 3e
       0.49277306 0.020465812 -0.09314714 0.13689873
000210 d5 fb 21 bd 37 b8 ee 3e c0 af aa 3e b3 67 d4 3d
       -0.039546806 0.4662492 0.33337212 0.103713416
000220 dc 85 e9 3e d8 ec 5c 3d cf bc 10 3d 25 66 e5 3c
       0.4560994 0.05393681 0.035336312 0.028002808
000230 5d ed 37 bd 57 43 6b 3d 7c e4 40 3d 55 d6 a3 bd
       -0.0449041 0.057437267 0.0470929 -0.07999865
000240 d3 8e 29 be a4 54 7b 3d 69 ff a5 bd 50 99 d6 bd
       -0.1655839 0.061360016 -0.08105356 -0.10478461
000250 25 86 bb be b6 6b bb be fc 62 15 bd e6 a1 4a bc
       -0.36625782 -0.36605614 -0.036471352 -0.012367701
000260 2a 02 f0 3b 0a eb b3 bd 8c a7 8c 3d 43 ec a6 bc
       0.0073244767 -0.087850645 0.068678945 -0.02037633
000270 e5 2e 97 3b 2c b6 5f 3d 58 0b 8c bb 77 7b 8b 3b
       0.0046137446 0.054617092 -0.004273813 0.0042566615
000280 3e 75 18 3f 0a 42 26 be b8 43 91 3d d5 55 9c bd
       0.595539 -0.1623613 0.070929945 -0.07633559
000290 0f 4a 94 3e a2 5a 7c bd 39 ab d9 3e fd 93 09 bd
       0.28962752 -0.06160987 0.42513445 -0.0335884
0002a0 7a 9b 28 3d f9 fe 86 3e 03 af 16 3c 2a 1f 0a 3e
       0.0411639 0.26366404 0.0091969995 0.1348845
0002b0 4f 45 0a be 8e 3d cf 3e 48 b5 7c 3e 57 54 b6 3c
       -0.13503002 0.4047665 0.24678528 0.022257013
0002c0 8e bf 2d 3d e3 68 da be bd a8 9d 3c b1 1c e6 3c
       0.04241901 -0.42658147 0.0192455 0.028089853
0002d0 c6 90 10 be 2e 4b ad bd c6 48 b6 3e fd ca 18 3d
       -0.14117727 -0.08461605 0.35602397 0.03730296
0002e0 d2 54 02 3d 4d 4b 13 be f9 f6 a1 3e 83 ed 90 3d
       0.031819172 -0.14384194 0.31633738 0.07076552
0002f0 df 3e 97 3d 72 db 39 bc b9 1f 93 be 2e e8 a7 bc
       0.073850386 -0.011343824 -0.2873514 -0.020496454
000300 a8 bc 95 3b 24 ac 22 3e fb f1 48 bd 45 db eb 3e
       0.0045696087 0.15885979 -0.049058896 0.46065727
000310 3d c6 87 3e 5e 26 8b 3c d6 a5 97 3d 17 94 e8 3d
       0.2651843 0.016986068 0.074046776 0.11356371
000320 7e 9b 6d 3d 47 5a 6c bd f6 39 5d bd 36 22 32 3e
       0.058009617 -0.057703283 -0.054010354 0.17395863
000330 4d 04 bc 3e 5f e4 12 3d b9 6e 4e bd 8b 36 38 3e
       0.3672203 0.035862323 -0.050398562 0.17989556
000340 ee e3 84 3d 1b 07 00 3d ef 6c 30 3e 89 2c d2 3c
       0.06488787 0.031256776 0.17229055 0.025656002
000350 8e f0 0b 3d 4f 03 7c 3c 84 08 19 be b6 ca f8 bd
       0.034164958 0.015381648 -0.14944655 -0.12148039
000360 15 91 6a bd 08 1a 7d 3d 30 f7 08 3f 7f 2f b7 bd
       -0.057267267 0.061792403 0.5350218 -0.08944606
000370 90 ea cb be 88 b2 ff 3d 56 cf 43 3c 77 bf 7e 3e
       -0.39827394 0.12485224 0.011951288 0.24877726
000380 d7 34 56 3f b3 68 7b 3e 39 dd 8f 3e a3 47 ae 3d
       0.8367438 0.24551658 0.28098467 0.08509757
000390 bf 01 8a bc 86 8a 31 bb 86 a3 af 39 f5 41 d0 3e
       -0.016846536 -0.0027090623 0.00033500436 0.4067532
0003a0 b1 11 a7 3c 9d f7 b3 bc 2e 6d fe bb 17 bd c0 3c
       0.020394178 -0.021968657 -0.00776448 0.023527665
0003b0 84 fc 88 bc c5 1b 67 3e 4f c1 ea 3e 0f fd cf bd
       -0.016721971 0.22569187 0.45850608 -0.10155689
0003c0 7b e4 2b 3d e2 07 93 3e 97 2d 32 3d a6 ba 3c 3d
       0.041965943 0.28716952 0.04350051 0.04607644
0003d0 a3 d7 89 bc d2 7c 44 bd 20 c5 6a 3d ef d1 0e bc
       -0.016826456 -0.0479706 0.0573169 -0.008717044
0003e0 f2 5b a9 3c de f5 bb 3d 0a 2d 00 3f 05 13 16 3c
       0.020673726 0.09177755 0.50068724 0.009159808
0003f0 62 51 85 bd cf b6 84 bc 11 c5 9f 3d 5e 93 eb 3d
       -0.06509663 -0.016200451 0.07801259 0.115027174

model.l2.bias f4 [60]
000000 e3 50 97 3c 41 eb 96 bc 28 52 d8 3c 79 f5 11 3d
       0.018471187 -0.018422725 0.026406363 0.03563449
000010 db 34 1b 3d 3d d1 cd bc 04 76 e4 3c 05 09 f6 bd
       0.037892204 -0.025124187 0.027888305 -0.12013439
000020 72 60 e3 b9 ab 82 d8 bd 56 5e 0b bd 59 35 ef bb
       -0.0004336867 -0.10571798 -0.034025513 -0.0073000607
000030 f9 c4 a9 3c e1 45 ed bc 2e cf cd 3b 64 da 09 ba
       0.020723807 -0.028963985 0.0062808013 -0.0005258678
000040 f5 5c af bc ff 33 65 3a aa 0b 9c bb d0 3f be bd
       -0.02140663 0.0008743405 -0.0047621327 -0.09289515
000050 0f 09 31 bb 25 4d e5 bb c8 8b d8 3c 83 32 1c 3d
       -0.0027013456 -0.0069977217 0.02643384 0.03813411
000060 01 57 87 bd 2e d0 95 bc bf f5 48 3d 5f 4f dd bc
       -0.066083916 -0.018287744 0.049062487 -0.027015386
000070 63 de 70 bc 07 ae 6a bc 84 39 17 3d d7 59 ac bd
       -0.014701459 -0.014323718 0.036920086 -0.08415573
000080 82 99 02 3d 1d 6c 42 bc fe da 80 bc 91 38 28 bd
       0.031884678 -0.0118665965 -0.015729424 -0.04106957
000090 fa ef 11 bd 4f aa 94 3c 47 e0 e6 3b a0 6c 56 3c
       -0.03562925 0.018147616 0.007045779 0.013087422
0000a0 b6 e4 e3 3c 4f 7e a2 bb 62 10 8d bc 77 93 69 bd
       0.027819019 -0.004958905 -0.017219726 -0.0570254
0000b0 a2 37 6a bc 2c c7 16 3d ae d2 c1 3c a9 b7 52 bc
       -0.01429549 0.03681104 0.02366003 -0.012861171
0000c0 c2 b9 29 bd c9 20 fa bc a0 76 dc bd c0 9b 91 bc
       -0.041436918 -0.030533211 -0.107648134 -0.017774463
0000d0 5e 80 20 3d b3 cf 02 bd 3b e1 0d be ba 71 66 3c
       0.03918492 -0.03193636 -0.1385545 0.0140652
0000e0 74 53 bc 3c 5a ef da 3b f5 3c 9a bc 98 5f 1a bd
       0.022989012 0.006681365 -0.018827895 -0.03768882

model.l3.weight f4 [30, 60]
000000 4e 4b 72 3e 08 cc 46 bf 2d 8b 00 bf d9 dd fc 3d
       0.23661539 -0.77655077 -0.50212365 0.123470016
000010 1f 99 34 be 54 14 86 3e 26 3e e0 be 76 da f9 bb
       -0.17636536 0.26187384 -0.43797415 -0.0076249195
000020 88 d5 45 bf ab f1 05 3d 73 e1 b4 3e 2f ae 08 3d
       -0.7727895 0.032701176 0.35328254 0.03336924
000030 f4 fc d2 3d 81 e2 7d bf 6c 33 b5 be 00 06 03 3d
       0.10302153 -0.9917374 -0.35390794 0.031988144
000040 80 52 42 bf b3 40 5a bf 5f 19 64 bf cc 31 73 bc
       -0.75907135 -0.85254973 -0.89101213 -0.0148434155
000050 c1 9f a4 3d 3b 6c 5e bf 7a f6 2d 3e be bf 4c 3e
       0.08038283 -0.86883897 0.16988555 0.19995019
000060 28 17 71 3d 5d 62 58 bf 17 83 31 be 58 c0 63 bf
       0.058859974 -0.8452509 -0.17335163 -0.8896537
000070 45 ec 69 bd 1d f2 46 bf 53 76 f6 bc 42 9b 88 3d
       -0.05711009 -0.77713186 -0.030085718 0.06670238
000080 96 3a 22 bf d9 4f 67 bf 22 09 7d bf 7a 81 89 bf
       -0.63370645 -0.9035621 -0.9884206 -1.0742638
000090 3a a6 56 bf 90 e6 5e 3e 3c 30 04 3d 7e 48 bc be
       -0.8384739 0.2176764 0.032272562 -0.36774057
0000a0 5c ca c6 bd 95 9c 80 bf 3c 11 4e bf 39 85 81 be
       -0.09706566 -1.0047785 -0.8049505 -0.25296953
0000b0 ce 84 45 bf 6a 14 70 3d 35 80 6f 3c 9c 4d 46 bb
       -0.7715577 0.05861322 0.014617969 -0.003025866
0000c0 e8 0e e3 bd d0 e1 1c 3f f1 22 c4 bd f1 eb 62 bf
       -0.110868275 0.6128206 -0.09576977 -0.8864127
0000d0 43 7d 5a 3e 17 b5 5b bf 7d a6 4f 3d 12 cc b1 3e
       0.21336846 -0.85823196 0.050695885 0.34726006
0000e0 3c d0 04 bf 15 8b 37 bf 04 b2 36 bf 5f 00 45 bf
       -0.5188024 -0.716966 -0.7136538 -0.7695369
0000f0 02 b9 10 3e 52 a8 8a be 9f ad 42 3e 4b ca d8 3c
       0.14133075 -0.27081543 0.19011544 0.026463648
000100 d3 df b4 bc eb 4b 89 3e 58 df bc bd 4b ee 1a bd
       -0.022079384 0.26815733 -0.09222287 -0.03782491
000110 e9 ff 9c 3d 20 ea 09 bd 35 6b af 3e fb c1 48 bf
       0.076659985 -0.033670545 0.3426148 -0.7842099
000120 56 74 cd 3d 61 c4 b1 be 92 7d 0f 3d 29 d2 01 bf
       0.10031955 -0.34720138 0.035031863 -0.50711304
000130 17 bf a7 be 8d 23 46 be 7a 07 62 bc aa 7c c5 bd
       -0.32762977 -0.19349499 -0.013795728 -0.096429184
000140 dd fc 8d bd 8d 34 95 bd e5 8b 0f be 48 14 21 be
       -0.069329955 -0.07285414 -0.1401821 -0.15730393
000150 bf 18 3d 3d b6 ad 21 be 94 71 47 3c 70 ce 8e 3c
       0.046166178 -0.15788922 0.012173075 0.017432421
000160 ca 89 1f bf e1 20 c2 be be 78 c4 bd ef 26 bc bd
       -0.62319624 -0.3791571 -0.09593342 -0.091871135
000170 d5 8e 36 3e 5e 2a 7a bd e0 56 ac bd 06 de a4 be
       0.17827924 -0.06107556 -0.084150076 -0.3220064
000180 58 ce cf be 25 5c 14 3e af 57 1f 3e 32 b0 00 3e
       -0.40587115 0.14488275 0.15560792 0.12567213
000190 03 33 ec 3c 12 f7 2c be 9c bf ea be 66 e8 d1 be
       0.028832918 -0.16891125 -0.4584931 -0.40997618
0001a0 bd dd af bd 8c 62 99 be 58 62 29 be 30 fd 38 bf
       -0.08587215 -0.29957998 -0.16541421 -0.72261333
0001b0 e8 06 5e bf ef cf 03 3f b3 ba 40 3d 75 a2 f7 bd
       -0.8672929 0.51489156 0.04705305 -0.12091533
0001c0 d6 4c f6 bd ca 6c e0 be 51 3c 31 3d 02 ca 0e be
       -0.12026374 -0.43833 0.043270413 -0.13944247
0001d0 8d c0 8e 3d a3 2d 71 bd 70 86 ab be d9 d8 be be
       0.0697032 -0.058881413 -0.33501005 -0.37274817
0001e0 65 45 86 be f6 9b 8f be 33 50 e8 bd c2 8d f0 3d
       -0.2622482 -0.28048676 -0.11343422 0.11745788
0001f0 ec 5d 4c be 26 0f fd 3d 76 e6 45 be ae 31 b5 3d
       -0.19957703 0.12356405 -0.19326195 0.08847366
000200 b7 5c 26 3e e6 3d a7 3c cd f0 8a 3e c1 bb a5 bd
       0.16246305 0.020415258 0.2713684 -0.08092452
000210 cd 2b b3 be a2 f0 4a be fe b4 35 3c 62 a1 da bd
       -0.34994355 -0.19818357 0.011090515 -0.106753126
000220 dd f6 f5 be 55 03 d2 be 71 9c 82 be 4b fc 29 be
       -0.48039904 -0.41018167 -0.2550998 -0.16600148
000230 31 ed d2 3c ef 82 9b be 26 bb 1f 3d fe 17 b3 bd
       0.025747867 -0.30373332 0.038996838 -0.087448105
000240 4b da f1 3d 63 f3 10 be f6 5a b7 bc 7b 6f 82 be
       0.11809214 -0.14155345 -0.02238224 -0.25475678
000250 e8 da b6 be 09 c1 f0 be dd b4 94 bd 0c 74 04 bd
       -0.35713887 -0.47022274 -0.072610594 -0.032337233
000260 0a 70 f7 3d a8 72 71 be 94 16 a1 be 4b b7 7a be
       0.12081917 -0.23578894 -0.31462538 -0.24483983
000270 c4 fb 83 be b9 23 a8 be 4c e7 dc 3d e5 fe 28 3e
       -0.2577802 -0.32839754 0.10786304 0.16503485
000280 b8 6c 54 be d5 18 c2 be 39 7a d9 be 2c 49 af be
       -0.20744598 -0.3790957 -0.4247606 -0.34235513
000290 da 23 86 be 34 d2 1d be d3 b1 c7 bd 40 66 33 be
       -0.26199228 -0.15412217 -0.09750714 -0.17519474
0002a0 1f 9d c2 be 42 74 db 3e 48 68 e3 bc 8b 61 99 be
       -0.380105 0.42862135 -0.027759686 -0.29957232
0002b0 49 26 1e bb 09 32 b2 be 29 2c 26 bc 8b c7 0a 3d
       -0.0024131706 -0.348038 -0.010142365 0.033881705
0002c0 34 57 bb 3c 88 0c a7 be 85 42 95 be 0d c4 a2 be
       0.02286873 -0.32626748 -0.29152313 -0.317902
0002d0 ed 60 5d 3d 5d 7a c5 be 01 aa 2d 3e d2 e0 28 bd
       0.054047514 -0.38569918 0.16959383 -0.04123003
0002e0 97 f0 e7 bd 32 d7 04 3e 6e 2d 04 bf d7 19 82 bc
       -0.11325186 0.12972715 -0.5163182 -0.015881462
0002f0 fe 5b ac 3d 9f a9 7e 3d c1 16 70 3e 3f 47 ec be
       0.084159836 0.062173482 0.2344618 -0.46148106
000300 93 69 ba bc b2 c3 a8 be 1f 1a 0e 3e f7 d1 40 be
       -0.02275542 -0.32961804 0.13877152 -0.18830095
000310 87 73 81 be c0 8f ec be 6c 22 d1 be 91 41 8d bd
       -0.25283453 -0.46203423 -0.40846574 -0.068972714
000320 66 3d a8 3c c1 c4 41 be c1 0e 50 3c 10 f5 85 3d
       0.02053709 -0.18922712 0.01269883 0.065408826
000330 ca 91 45 3d 75 e9 40 be 52 6f 02 bd e9 7d 71 be
       0.04823474 -0.18839057 -0.031844445 -0.23583187
000340 69 b5 06 bf ed 29 f3 be b5 0a 93 bd 6e 53 bd bd
       -0.5262056 -0.47492924 -0.071797766 -0.092444286
000350 c4 ee 05 3e e7 ab 9e be fa 6e c5 be e6 e9 92 be
       0.13079363 -0.30990526 -0.3856123 -0.28694075
000360 fb 7d ec be 77 43 ea 3d ba 57 87 3e 9c f5 35 3e
       -0.46189865 0.11438649 0.26434118 0.17769474
000370 d4 c2 34 bc 77 b8 a0 be 9d 72 ff be c3 16 e4 be
       -0.011032779 -0.31390736 -0.4989213 -0.44548616
000380 d6 8f 81 be e7 0f f1 be 7f 30 bc be 04 0f 14 bf
       -0.2530505 -0.47082445 -0.3675575 -0.5783541
000390 30 1b 23 bf 58 ad f5 3e da 26 1e bd 50 86 be be
       -0.6371336 0.47983813 -0.03861127 -0.37211847
0003a0 b4 e8 02 be 2a 6d fd be c3 f5 59 bd a7 25 94 bd
       -0.12784082 -0.49497348 -0.053212892 -0.07233744
0003b0 0d 78 e2 3a 2e ae a7 be 05 cf b5 be 41 77 0f bf
       0.001727821 -0.32750076 -0.35509506 -0.5604134
0003c0 ea d8 7f 3d d0 57 97 bd 5b 1e 28 3e 9e 71 ae 3d
       0.062462725 -0.07389796 0.1641783 0.085177645
0003d0 df 7d 80 3d cb 22 b8 3e 10 93 e2 bc 8b 0f 3c b9
       0.06274008 0.35964045 -0.027658015 -0.00017934867
0003e0 eb 44 b0 3d 30 89 29 3c c5 a8 7e 3e 19 44 2d bf
       0.08606895 0.010347649 0.24869068 -0.67682034
0003f0 d6 42 07 3d b0 ef 89 be 91 f1 1d 3e 4f 80 13 bf
       0.033022724 -0.2694068 0.15424182 -0.5761766

model.l3.bias f4 [30]
000000 2e 3d 86 be d3 e3 c6 3d e1 06 e7 3d 30 da 89 3d
       -0.2621855 0.09711423 0.11280609 0.06731069
000010 14 8a 81 3d 5d 0f ba 3d cf a2 b8 bb b8 f1 6f be
       0.063251644 0.090849616 -0.0056346427 -0.23432052
000020 9a 39 88 3d 25 b5 80 3d 97 1a 69 3d 32 b5 85 3d
       0.066516116 0.062845506 0.056910124 0.06528701
000030 9f ea 8b 3d b8 ec 6a 3d 1a c5 a7 3d 2e dc 87 3d
       0.0683186 0.05735466 0.08191891 0.06633793
000040 f7 ee 75 3d 42 7d 6a 3d 8d d3 78 3d c3 20 31 3d
       0.060042348 0.05724836 0.060748626 0.043244135
000050 42 4a b9 3d 93 3f 5f 3d 8e 5a 6b 3d fd ac a6 3d
       0.09047367 0.05450399 0.057459407 0.08138464
000060 70 e3 7b 3d 38 35 55 be a4 b0 28 3d 07 85 45 be
       0.0614962 -0.20821083 0.041184083 -0.19289027
000070 6f 60 83 3d e4 79 80 3d
       0.064148776 0.06273249

model.l4.weight f4 [1, 30]
000000 5c 89 01 3f c0 11 9f 3e 4b 67 9b 3e 31 09 a7 3e
       0.5060022 0.3106823 0.30352244 0.326242
000010 d8 7a 86 3e 6b b2 57 be 91 44 ed 3e 1e 4c 20 3f
       0.26265597 -0.21064155 0.46341375 0.62616146
000020 7b 23 4c be 6e 9e 95 3e 3a f8 cb be dc 65 66 3e
       -0.1993541 0.29222435 -0.3983782 0.22499794
000030 d5 09 56 be 45 e0 24 be 22 72 20 be 05 a1 9b be
       -0.20902188 -0.16101177 -0.15668538 -0.30396286
000040 f2 0f 14 be 49 86 70 3e 87 f0 5c 3e 0d 3d 59 be
       -0.14459208 0.23488726 0.21576129 -0.21214695
000050 d8 e7 93 3e 6d da b5 be da 93 cc be b3 54 13 be
       0.2888782 -0.35518208 -0.39956552 -0.14387779
000060 58 11 d1 3e 4c 1a fa 3e c2 19 72 3e 40 aa e8 3e
       0.40833545 0.48848188 0.23642638 0.4544239
000070 5d 81 91 be c4 9a ae be
       -0.2841901 -0.34102452
