model_dsm11rmcov/v3d-[90, 60, 30]-0.0001-130.pth (torch, 148528 bytes, 7 tensors)

model.l1.weight f4 [90, 320]
000000 1b 3b bc 3e a6 95 c6 3c f5 9a 47 3e b2 da c1 3d
       0.36763844 0.02424128 0.19492705 0.09465541
000010 0b 2a 06 bd 18 e6 7c 3c be b1 5d 3e ea 34 f5 3d
       -0.03275494 0.015435718 0.21649835 0.11972983
000020 55 3e f6 3d cb d9 80 3c d4 61 b5 3d e8 34 32 3b
       0.12023608 0.015728852 0.0885655 0.002719218
000030 4d 17 a5 bd 69 b4 53 3d 03 63 91 bd af 84 95 3c
       -0.08061085 0.051685724 -0.07098963 0.018251745
000040 ea d8 1f 3c 3f 49 b5 bd cc e7 65 bd c8 ba 98 3d
       0.009756306 -0.08851861 -0.05612926 0.07457501
000050 7d c0 5d 3c 86 25 96 bd b1 80 5c 3d 62 9e 9a bc
       0.013534662 -0.07331376 0.053833667 -0.018874351
000060 1e 63 82 3d 4a 87 7f bd b7 47 f1 bc 78 d2 aa 3c
       0.06366561 -0.06238488 -0.029453142 0.020852312
000070 2e b0 74 bd 4e b9 9b bc ed 1d 7f bd 5e 9b fe bc
       -0.05973833 -0.019009259 -0.0622844 -0.031079944
000080 35 e6 0d 3d b9 ad b1 3c eb 12 ca 3d 17 db 30 3e
       0.03464337 0.021689283 0.098668896 0.17271076
000090 7c c4 0a be 59 e9 03 be a8 77 74 bd b6 f3 e7 bc
       -0.13551515 -0.12881984 -0.059684426 -0.028314453
0000a0 64 36 8f bd 45 aa 4a 3c 21 a5 19 be 77 98 77 bd
       -0.06992796 0.012369697 -0.15004398 -0.060448136
0000b0 b2 20 75 3d f6 f8 ed bd 29 4e ec bc 44 35 97 bd
       0.059845634 -0.11619751 -0.028845863 -0.073832065
0000c0 8c bc 11 bd 44 dd a3 3d 00 27 1b bd 36 d7 b9 bc
       -0.035580203 0.080011874 -0.03787899 -0.022685628
0000d0 50 7a 3e bc 4a 35 68 3d f9 2d 12 be 2d e6 13 bd
       -0.011625841 0.056691445 -0.1427535 -0.036108185
0000e0 9f 28 15 3d 51 34 f7 3c e4 7a c9 bd f9 dc 8b 3d
       0.036415692 0.030176314 -0.09837893 0.068292566
0000f0 aa 64 20 be d8 b6 3c bd 92 c6 39 b9 1f 37 ed 3c
       -0.156634 -0.04607281 -0.00017716948 0.028956948
000100 16 1d 58 3c 79 80 97 3d 45 36 e1 3d 65 e9 62 bd
       0.013190528 0.07397551 0.10996679 -0.055398364
000110 ea 0b 9a bd ef ef 90 3c b9 78 92 3d 67 98 5a be
       -0.07521804 0.017692534 0.07151932 -0.213472
000120 36 26 7d bd 83 6c aa 3d e5 6c 62 3d 68 57 7a 3d
       -0.06180402 0.08321478 0.05527963 0.061118513
000130 4c a3 29 be 22 68 52 3d 31 1f 24 3b 6d 48 5d be
       -0.16566199 0.05136884 0.0025043006 -0.2160966
000140 c2 30 a3 3c f1 3c 27 bd 4a 7b 65 be 70 8e 4e bc
       0.01992071 -0.040829603 -0.22410312 -0.012607202
000150 31 f2 8c bd ae 87 b2 bc 6f 93 0e be f6 f4 f5 bd
       -0.06882132 -0.021793213 -0.13923429 -0.12009613
000160 e0 a7 83 3c 36 55 1a bd 35 b2 0e 3e 8e 7f b0 3c
       0.01607126 -0.03767892 0.13935168 0.021545198
000170 c7 09 c7 3c e9 ec 52 3d dc f4 8f 3c 8a 96 35 bd
       0.024296654 0.051495466 0.017572813 -0.04433302
000180 2b b5 5e bd 25 b5 b6 3c e9 d1 5a 3e a2 12 e4 bd
       -0.054371994 0.022303173 0.21369137 -0.111363664
000190 6f 6f fc bc a3 c2 d7 bd 59 9a 5f 3d e9 a6 88 bd
       -0.030814854 -0.10535171 0.054590557 -0.066724606
0001a0 4d 08 64 be ba 44 8d 3d 01 8e 55 3e 61 43 72 3c
       -0.22268791 0.06897874 0.20854951 0.014786572
0001b0 d3 4b a5 bd d5 c2 16 be 22 b3 f6 3d 05 13 be bd
       -0.08071103 -0.1472276 0.120458856 -0.092809714
0001c0 b4 e6 d3 bd e7 bb af bd 24 e4 22 3e ed ec 92 3d
       -0.103467375 -0.085807614 0.15907341 0.07174096
0001d0 b2 86 a6 bd a6 95 02 3c a8 f3 cc 3d fd 81 ae bc
       -0.0813116 0.007970249 0.10007411 -0.021302218
0001e0 5e de 28 be b0 32 d2 bd 99 64 90 3d 5b 01 79 bd
       -0.16491076 -0.10263574 0.070504375 -0.06079231
0001f0 ee 40 46 3d c3 a8 be 3c e8 4f 47 3e c6 9b 17 3d
       0.048401766 0.023273831 0.19464076 0.03701379
000200 41 7b 9f bd 73 12 52 be c3 ef c7 bb 82 31 f1 3d
       -0.07787181 -0.2051485 -0.00610158 0.11777021
000210 66 47 8f 3d be 72 aa 3d 79 aa f7 bc a2 15 b6 bb
       0.0699604 0.083226666 -0.030232655 -0.005556778
000220 34 bb 49 bc 1b d8 3a bd 73 bc dc ba cc f8 3d 3c
       -0.012312699 -0.04561625 -0.001684083 0.011594962
000230 0f 0c dd bd a6 fd 4e 3d 5f ec 37 ba 5e af 86 3c
       -0.107933156 0.050534867 -0.0007016118 0.016441043
000240 10 d6 c9 3c e1 f4 17 3d 50 13 7d 3d 98 1c af bd
       0.024638206 0.03709877 0.061785996 -0.08550376
000250 bc 22 99 bd 4f cb 2b bd cb a5 4c 3d b0 a0 4f be
       -0.07477328 -0.041941937 0.0499628 -0.20276141
000260 85 9b 26 3d 94 22 53 3b 5a 06 4f 3d 02 29 83 3d
       0.04067566 0.0032216655 0.050543167 0.06404306
000270 15 2d 73 3d 10 96 dc 3c 3a 16 43 3c dc 0c 32 be
       0.059369165 0.026927024 0.011907155 -0.17387718
000280 1f 76 6d 3e 35 e7 47 38 44 c2 db bc 54 5f ab 3d
       0.23189591 4.7660626e-05 -0.026826032 0.08367792
000290 f1 2a da 3d fc cb 37 bc 67 11 8d 3d 0c ed db 3d
       0.10652722 -0.011218067 0.06888085 0.107385725
0002a0 b9 e4 41 bd 8a f6 12 bc c1 61 3f be 3a a6 fc bd
       -0.047337268 -0.008969912 -0.18689634 -0.12336393
0002b0 3f 28 eb 3c 39 0d 3f 3d 88 6c 73 bd c2 b6 49 3d
       0.028705714 0.04664347 -0.059429675 0.049246557
0002c0 27 be 3f bd 0a 8d 10 3e 39 33 8c bc ad 68 5a 3d
       -0.046812203 0.14116302 -0.017114269 0.053322483
0002d0 cb f8 73 3d 38 af 7b 3d 30 c3 8b 3d b1 08 73 3c
       0.05956344 0.0614464 0.068243384 0.014833615
0002e0 a0 d2 08 be d4 e3 17 be a6 17 69 bd 1f fe 93 bd
       -0.13361597 -0.14833003 -0.05690732 -0.07226204
0002f0 db 08 17 bc 20 e7 cf 3c 78 cf fd 3d 80 f5 1e 3d
       -0.00921842 0.025378764 0.12393087 0.038808346
000300 20 22 d0 bd bb 29 05 3d b5 1a cf be 1a a2 f2 bc
       -0.10162759 0.0325105 -0.40450063 -0.029618312
000310 c1 bd 5c bd 55 fd 81 bc 99 88 b1 bd d0 40 98 3d
       -0.0538919 -0.015867868 -0.08668632 0.07434237
000320 dd 99 80 bd c8 ac fe bc ae c8 29 3d 70 4b 8f 3d
       -0.06279347 -0.031088248 0.04145115 0.069968104
000330 fb 8e 7a 3d 39 9b ba 3b 90 e5 ec 3d c7 db 3f bb
       0.061171513 0.0056947735 0.11567223 -0.0029275285
000340 b6 06 c4 3c 98 3c 4c 3e 83 33 df 3d e5 2a 06 bd
       0.023928981 0.1994499 0.10898497 -0.03275575
000350 4f e4 d8 3d 70 ca 8e 3e b9 e0 61 3d c8 ac ca bd
       0.105904214 0.27888823 0.055145953 -0.09896237
000360 b6 2b 56 bd 34 e0 c9 bd d7 08 bd 3e 1e 82 5a bd
       -0.05228778 -0.098572165 0.36920807 -0.053346746
000370 d3 c1 59 3c b8 a9 17 3d 44 4c 24 be 03 26 1d 3e
       0.01329084 0.03702709 -0.16044718 0.15346532
000380 86 6b cb 3d 0f 97 ec 3d 5a e4 25 bd 95 03 bd 3b
       0.09932618 0.1155225 -0.040500976 0.0057682493
000390 b1 07 f9 bd 1b 95 2a be dd e3 65 3d bd 58 f5 3c
       -0.1215967 -0.16658442 0.05612551 0.02994954
0003a0 1f b2 93 3c 1c c5 71 bd 6b a4 05 3c b5 04 bb 3d
       0.01802927 -0.05902587 0.008156876 0.09131757
0003b0 1a 14 ad 3e 39 cd 3f bc 0c 19 51 bd 97 c1 88 bb
       0.338044 -0.011706644 -0.051049277 -0.0041734683
0003c0 b1 e7 90 3c 96 c7 0b 3c 92 9f df bd b9 b6 07 3d
       0.017688604 0.008531472 -0.109191075 0.033133242
0003d0 83 88 16 3e 49 70 c2 3d 13 de c7 bb c3 1c 8d bb
       0.14700513 0.09494073 -0.0060994714 -0.004306407
0003e0 de 1e e8 bc 7e 42 32 bc 1a c5 6c 3c 87 b7 1b 3e
       -0.028335031 -0.010880111 0.01445129 0.15206729
0003f0 fb bb 64 bd ed f8 2d 3e e6 16 17 3d 7b a8 6d 3d
       -0.055843335 0.16989489 0.036887072 0.058022004

model.l1.bias f4 [90]
000000 a8 46 25 bd 97 06 0d bc 04 54 f8 3c 6f 4d 3d bd
       -0.040350586 -0.008607528 0.0303135 -0.046216425
000010 e3 80 c0 bc b9 2f 96 bd 4c f3 37 bd fc 4e 0d bd
       -0.023498958 -0.07333321 -0.04490976 -0.034499153
000020 6d 3b f2 3c 84 d0 d0 3b 85 73 4d bd b7 e7 1a 3d
       0.029569352 0.0063725132 -0.050158996 0.037818637
000030 39 76 50 bd a8 a4 7e 3c 73 e7 21 3c c3 55 5b bd
       -0.050893996 0.015542187 0.009881842 -0.053548586
000040 90 65 ce 3c 86 23 34 bc 5b 38 19 bd 79 da 84 bc
       0.025194913 -0.010994798 -0.03740726 -0.016217457
000050 27 10 07 bc de 7e 80 3b 7b e1 65 3c 09 d7 55 bd
       -0.008243597 0.0039213737 0.0140308095 -0.052207027
000060 90 95 57 bc a6 aa 8f ba da d6 06 bd 58 1a 84 bd
       -0.013158217 -0.0010960891 -0.032919742 -0.06450337
000070 85 04 51 bc 1a 69 11 bd b0 17 f8 bc bf a5 a5 bb
       -0.012757425 -0.035500623 -0.030284733 -0.005055159
000080 e7 00 1a 3c 12 47 89 bd 3a 7f e9 bc 94 c4 2f bc
       0.009399629 -0.06703009 -0.02850305 -0.01072802
000090 13 dd 56 bd 18 af 9a bd d4 f2 11 3d 76 89 4d bd
       -0.052456927 -0.07552928 0.03563197 -0.05017992
0000a0 93 f8 59 bd d9 ed 1a bd 33 29 60 bd 73 7c 0b bd
       -0.053215574 -0.037824485 -0.05472679 -0.03405423
0000b0 89 2c 44 3b 34 f8 9c bd 02 5b 37 bd 75 48 6d bd
       0.0029933772 -0.076645285 -0.044764526 -0.05793043
0000c0 11 d0 9d bd df 5f 50 bd 1c 41 ac 3a ca 7d f6 bd
       -0.07705701 -0.05087268 0.0013141963 -0.12035711
0000d0 c9 2c af 3c e8 52 f6 ba 3a b3 b6 3b 39 53 9d bb
       0.02138366 -0.0018793019 0.0055755647 -0.0048011807
0000e0 85 a8 04 bd 07 54 58 bb 9f 21 cf bc 18 55 00 3d
       -0.032387275 -0.0033009069 -0.025284586 0.03133115
0000f0 1c 72 d2 3c 79 0f d7 3c ca ba 52 bd 79 5c 43 bd
       0.025689177 0.026252495 -0.051447667 -0.04769561
000100 75 17 c1 3c 01 25 88 bd 4d bd 45 bd 87 9a 13 3d
       0.023570755 -0.06647683 -0.048276234 0.03603604
000110 5a 37 3b bb cd 4b 44 3c cb 59 5a bb 27 27 0c bc
       -0.0028566928 0.011980963 -0.003331768 -0.0085542565
000120 19 d4 19 3d 9b df 2b bc 4d 4d 37 bd 10 06 02 3d
       0.037555788 -0.010490323 -0.044751454 0.031744063
000130 f3 9a 0d 3c bf 42 8d 39 79 b4 44 bd dd ed 01 3d
       0.0086429 0.00026943345 -0.048023675 0.031720985
000140 8b 86 8d bd 28 c9 09 3d b2 68 19 bd 11 77 ef 3c
       -0.06910428 0.033639103 -0.03745336 0.02923158
000150 0a f5 11 3c 5d f9 47 bd 75 67 d5 bc d3 c1 fe bb
       0.0089085195 -0.048821796 -0.026050309 -0.0077745705
000160 b1 a0 73 bd 13 aa d4 3c
       -0.05947942 0.025960004

model.l2.weight f4 [60, 90]
000000 c6 60 31 3c b8 19 09 3c f0 80 7c bd fe c4 47 be
       0.010826295 0.008367948 -0.061646402 -0.1950874
000010 99 e8 2d bc 93 f8 2b bc ab 14 21 3d 4b 3c a2 bd
       -0.010614538 -0.010496276 0.03932635 -0.07921656
000020 3b 5b 18 be 39 68 09 bd 13 7f c5 bd c6 ea 00 3c
       -0.14878552 -0.03354666 -0.09643378 0.007868474
000030 57 69 82 3e fa a5 87 bc cb 40 61 3d 82 e0 97 bd
       0.25470993 -0.016558636 0.054993432 -0.07415868
000040 a0 28 8d bd 80 87 4b 3e dc 52 50 be 6d 57 db bd
       -0.06892514 0.19875908 -0.20344108 -0.107100345
000050 2f 60 15 3d e7 b9 14 3e 53 86 b1 bd 84 6e fe bd
       0.03646868 0.14524041 -0.086681984 -0.12423423
000060 15 68 49 3d 19 41 ce 3c a9 4f a1 3d aa e3 6e 3d
       0.049171526 0.025177525 0.07876522 0.058322586
000070 31 25 20 be 5c 2f e3 bd 19 83 2a bc a2 d0 e6 bd
       -0.15639187 -0.110930175 -0.010407233 -0.11270262
000080 b0 ab 3d bc 04 41 d3 3d 44 f2 7c 3d cd 33 49 3f
       -0.011576578 0.10315135 0.06175448 0.78594667
000090 c2 f3 a7 3d 28 0a 0b 3e 99 d5 55 3e ed c1 81 bc
       0.0820079 0.13578093 0.20882262 -0.015839541
0000a0 3d f9 06 be 07 47 8f 3d 61 66 85 3d 35 2f c3 bc
       -0.13181014 0.06995969 0.06513668 -0.023826221
0000b0 4a 63 1d 3d 3e be 8d be 88 b7 6b 3d af f7 75 be
       0.038424768 -0.27684206 0.057548076 -0.24020265
0000c0 ee 74 57 3d 65 67 bd bd 46 d3 8d bd d1 21 2d 3e
       0.052601747 -0.092482366 -0.06925063 0.16907431
0000d0 f0 ab 5b bc c6 18 01 3d 75 a7 01 3e 11 54 1e 3d
       -0.013407692 0.031517766 0.12661536 0.03865439
0000e0 c8 02 91 3e 67 99 69 bc cf dc 6a bd 65 c8 0f be
       0.28322434 -0.014257765 -0.057339486 -0.14041288
0000f0 37 1e da 3d 22 a9 da bc 1b 09 a6 bc 22 f8 47 bd
       0.10650294 -0.026691977 -0.020268014 -0.048820622
000100 42 16 68 be 77 a7 19 be 68 ca 98 bd fa 97 97 bd
       -0.2266474 -0.15005289 -0.07460481 -0.07402034
000110 74 53 de bc d0 11 e3 bd 68 b3 03 be 08 7d cd bc
       -0.027139403 -0.11087382 -0.12861407 -0.025084034
000120 d8 ed 3b be bd 50 7b bc ad cf bf 3e f1 0f a0 bc
       -0.18352449 -0.015339074 0.37463132 -0.019538851
000130 ec d8 89 bc 0a 51 93 bd f6 11 94 3d f5 4c 88 3d
       -0.01682707 -0.07193191 0.07229988 0.066553034
000140 07 b3 59 bc f6 eb 32 bd d4 b1 ec bd 2a eb b9 bd
       -0.013287312 -0.04368206 -0.115573555 -0.09078057
000150 34 36 d1 bd 4c 2e a6 be 12 09 b8 bc 1e ec a2 bd
       -0.102154166 -0.32457197 -0.022465263 -0.07955192
000160 46 5c 90 bd f2 cb ab 3c b1 e3 ee bc ab bd 40 bd
       -0.0704885 0.020971272 -0.029161306 -0.04705588
000170 03 6f 9c 3d a4 ee ef be 75 a8 4e 3d 56 7a 98 bd
       0.07638361 -0.46861756 0.050453622 -0.07445209
000180 29 af aa bd c2 ad 0d bd 9e c4 be be 31 81 9f 3c
       -0.083341904 -0.034589536 -0.37259382 0.019470783
000190 ff da f5 3d 2a d8 8b bb 46 0d 98 3d a6 80 64 be
       0.12004661 -0.004267712 0.07424407 -0.223147
0001a0 36 3a f3 be 5b 27 bb 3c 1d 04 c5 bc 1e b0 10 bd
       -0.4750535 0.022845915 -0.024049813 -0.03532421
0001b0 26 15 b7 bd 60 1c e4 bd ab 41 71 3d 7a d8 38 ba
       -0.089395806 -0.111382246 0.058900516 -0.00070513005
0001c0 26 52 2e bd 02 4d 78 be 36 20 94 3c e0 14 e2 bd
       -0.04255881 -0.24248126 0.018081766 -0.11039138
0001d0 4b ce af 3c 0a a2 75 bd 95 68 0d bd 2c 38 3e be
       0.021460673 -0.059968986 -0.034523565 -0.18576115
0001e0 41 a6 e8 3b 79 16 36 3b 7a 16 55 be e3 6f 23 bd
       0.007099897 0.002778439 -0.20809355 -0.039901625
0001f0 79 b7 e3 bb 10 d8 cd 3d 8f 95 ba bc 49 6c bd be
       -0.006949362 0.10050976 -0.022776393 -0.36996678
000200 25 42 5c be a9 51 2f be e2 c9 dd bd 1b dc 6e 3e
       -0.21509607 -0.17120995 -0.10829522 0.23326151
000210 e2 41 f1 bd 63 4a ad 3c 1f 24 9e bc 96 83 c7 bb
       -0.11780144 0.021153634 -0.019304333 -0.0060886843
000220 ce c1 ac 3d 5f 78 6b 3d 82 76 13 bd ce 03 2b 3d
       0.08435403 0.05748784 -0.03600169 0.041751675
000230 8e c8 4f bc f3 1a ef bd 39 e6 bc bc 39 89 db bd
       -0.012682093 -0.11675062 -0.023058997 -0.107195325
000240 92 26 16 3d 1e 6a fc bd c1 dd a1 be f8 c6 62 bd
       0.036657877 -0.12324928 -0.31614497 -0.055365533
000250 19 9b 96 bd 43 44 15 bc d3 11 25 be c1 df 45 bd
       -0.07353801 -0.009110513 -0.1612008 -0.04830909
000260 93 35 c8 bd e2 e5 2e bd 3c f6 a8 be 54 82 a9 bd
       -0.097758435 -0.042699702 -0.33000362 -0.08276811
000270 23 62 1f bd ad eb 0b bc 8f da 9f 3d 65 fb 1e bc
       -0.03891195 -0.008540076 0.078053586 -0.009703492
000280 cd c3 36 be 6e 1d 03 be 77 4b 4f 3d 71 48 95 bd
       -0.1784813 -0.12804195 0.05060908 -0.07289208
000290 00 0f cd bc 55 5a a8 bd d6 f6 c0 bd 8a 5c 84 bd
       -0.025031567 -0.082203545 -0.0942208 -0.06462963
0002a0 6a 0b 8d bd 04 c0 50 be 58 39 a3 bd 7c 6e dd bc
       -0.06886943 -0.20385748 -0.07969922 -0.027030222
0002b0 7f 66 e6 3c 17 c0 e0 bd d1 1d 25 be 6b 11 6b 3d
       0.028125046 -0.10974138 -0.16124655 0.057389658
0002c0 6f e4 1c bd 49 fc c2 bd c0 a0 11 be 86 60 85 bd
       -0.03830379 -0.09520776 -0.14221478 -0.06512551
0002d0 15 19 e0 3d f2 86 af 3d 2d ac cb bd d3 d0 37 3d
       0.10942284 0.08570661 -0.09944949 0.044876885
0002e0 79 b5 d5 3d 29 b1 32 bd 6d 18 04 3a 2d 9f c4 be
       0.10435004 -0.043625984 0.000503904 -0.3840269
0002f0 47 b8 e9 3d 2e 87 31 3e 0c bd 34 be 8b 37 77 bd
       0.11412101 0.17336723 -0.1765024 -0.060355704
000300 bf 1d 5a be 91 73 67 bd 5f 8c 86 3d b7 40 94 3d
       -0.2130041 -0.056506697 0.065697424 0.07238906
000310 15 c7 4f be 2e e5 12 3e f5 dd 1d bd bc 8c 83 3d
       -0.20290788 0.14345238 -0.038541753 0.06423327
000320 19 dc f2 3c 5c 72 0e 3e 0e 1f 00 bc 12 c9 dc 3d
       0.029645966 0.13910812 -0.007819904 0.107805386
000330 d0 a9 61 3e a6 34 d6 3c 60 88 3f 3e eb 67 58 3d
       0.22037435 0.026148152 0.18704367 0.05283348
000340 5e bf cd be fc df d7 3d e3 5d 38 be 21 18 80 3d
       -0.40185064 0.105407685 -0.18004565 0.06254602
000350 3c 7f 2d be 30 e5 07 3d df 41 ad 3d 77 5e 17 3f
       -0.16943067 0.033177555 0.084598295 0.59128517
000360 9e af 22 3d 1e 40 2b 3e 42 5e 87 3e 51 97 a2 3d
       0.039718263 0.16723678 0.264391 0.079390176
000370 ba 58 0b 3d b3 43 d3 be 55 62 d1 be da 5f 15 bd
       0.034020163 -0.41262588 -0.40895334 -0.036468364
000380 78 cc d3 3c 83 68 00 3d 18 4d 82 3c 64 60 25 be
       0.025854334 0.03134967 0.015905902 -0.16150051
000390 1d 9b 7f bd b6 ca 5a bc ee 6d 00 be b1 da 64 3e
       -0.062403787 -0.013353994 -0.12541935 0.22349049
0003a0 55 04 07 be a7 60 2f bd 37 9a 7e 3d 32 23 30 3e
       -0.13185246 -0.042816784 0.06215879 0.17200926
0003b0 62 5d 32 3e 00 5d 67 3d 96 e5 33 bd eb d8 a1 3d
       0.17418435 0.056485176 -0.043920122 0.07902702
0003c0 8e a2 2f 3d ee 83 10 be 27 96 13 3e f0 35 d4 be
       0.042879634 -0.14112827 0.14412747 -0.414474
0003d0 fc 5e df 3d a6 71 8a bd ba 90 16 3e 8f 40 9b 3d
       0.10906789 -0.06759958 0.14703646 0.07580673
0003e0 e1 32 56 3c e2 db 58 3d b1 12 2c 3c 22 a5 76 bd
       0.013073654 0.05294407 0.010502503 -0.060216077
0003f0 80 5d cc 3c 0e 48 81 3d 80 d3 5b 3e a5 03 ec bd
       0.024946928 0.063125715 0.214674 -0.11524133

model.l2.bias f4 [60]
000000 3f 23 c3 3c b1 fd 6a 3d 9a a7 a1 3b 93 df d0 bc
       0.023820518 0.057370845 0.0049333097 -0.025497233
000010 5d 01 65 bc 17 1f 87 3d b0 5a 50 3c 97 8c 83 bd
       -0.013977376 0.06597727 0.012716934 -0.064233
000020 fb 8b 10 be c6 d2 d3 bc 61 a8 cb bc 5f c6 89 3d
       -0.14115898 -0.02585734 -0.024860563 0.067272894
000030 9d 28 56 3d f6 db 0f bd a0 e5 82 3c 74 46 a1 3c
       0.052284826 -0.03512188 0.015978634 0.019686915
000040 a4 0f d2 bb ca 8f 0c be 6f b8 81 bd dd b3 8b 3d
       -0.006410556 -0.13726726 -0.06334006 0.068214156
000050 b6 38 fd 3c 63 c0 d1 3c d1 14 d2 bc 7d ac 46 bb
       0.030910831 0.025604432 -0.025644692 -0.0030315213
000060 de 66 62 3d 4d 72 be 3b 24 3a 95 bc f2 de cd bd
       0.055273883 0.0058119656 -0.0182162 -0.10052289
000070 92 19 9d 3c 00 f5 81 3d 22 3d 3e 3d 45 47 d7 3c
       0.019177232 0.06345558 0.04644502 0.026279101
000080 d7 e3 60 3b 72 02 8e 3c c7 ca 49 bc 2b d1 46 3c
       0.003431549 0.01733515 -0.012316412 0.0121348305
000090 4d 05 8f 3d 3b c1 71 bc 61 22 41 3b 99 84 7c bd
       0.06983433 -0.014755542 0.0029469954 -0.061649892
0000a0 f5 47 03 3d e2 31 54 3c 76 12 9f 3d dd b4 c2 3c
       0.032051045 0.012951346 0.07767193 0.023767883
0000b0 22 aa 19 bd 4c 7b 04 bd 2b dd ab bc 7b 78 11 3d
       -0.037515767 -0.032344148 -0.020979485 0.03551529
0000c0 e4 b4 04 be 78 4c ac bc f0 a4 9e 3c 69 08 8e 3b
       -0.1295963 -0.021032557 0.019365758 0.0043344987
0000d0 6d d8 0f 3d e4 a8 b7 3b 3a 6d 5e 3b 83 86 41 3b
       0.03511851 0.00560485 0.0033939616 0.0029529638
0000e0 02 45 81 bc d0 c6 4a 3d f7 95 1f 3d 30 68 20 3b
       -0.015779976 0.04950601 0.038961377 0.0024476163

model.l3.weight f4 [30, 60]
000000 4b ca 3b 3e 3e cc f6 bd 41 a8 0f 3e d3 ce 07 be
       0.18338887 -0.12050675 0.14029028 -0.13262491
000010 48 97 be 3c 7e 62 cb 3c 00 47 22 3e c4 bd e9 3d
       0.023265496 0.024827238 0.15847397 0.11413148
000020 96 a4 24 3d cb 60 8f be fa 6e 72 be 1e a1 2e be
       0.040196024 -0.28003535 -0.23675147 -0.17053649
000030 fa 41 95 3d 17 01 86 be fa b9 51 3d fe 2d 05 be
       0.07287975 -0.26172706 0.05120275 -0.13005826
000040 03 2b 4e bd 0e a2 93 3d 3e 26 f7 bc be bb 7f bd
       -0.050333988 0.07208644 -0.030169602 -0.062434904
000050 8e 7b 52 3e b5 9f 7c 3d 3d b2 2c be a4 3e 10 be
       0.20554945 0.061675746 -0.16864868 -0.14086396
000060 da 4a 70 3d d5 7e 50 be 8b 62 7c be 39 70 5d 3e
       0.058665134 -0.20360883 -0.24646966 0.21624841
000070 3a ec 33 3e a7 87 66 3d 07 09 d3 3d 30 0d df 3d
       0.17570582 0.056281712 0.10304456 0.10891187
000080 d8 74 26 be 52 3e 96 3e 5c 0d dc 3c ad f1 b3 3e
       -0.1625551 0.29344422 0.026861839 0.3514532
000090 0f f5 1e bd f7 a5 ca 3c 98 94 0a 3e 6f 01 bd 3d
       -0.038807925 0.024737341 0.13533247 0.09228789
0000a0 0f e9 0c be 90 d6 91 3e 4e 1a 9d 3d c0 06 dc bd
       -0.1376078 0.2848401 0.07671033 -0.10743475
0000b0 44 07 8e bc 9a b2 89 be 05 53 30 be 90 9f 3c 3d
       -0.017337449 -0.26894075 -0.1721917 0.04605061
0000c0 2b d1 30 3e 13 4e db bd 23 89 73 3c 08 73 ee bd
       0.17267291 -0.10708251 0.014864239 -0.11643034
0000d0 e3 2f 9d 3d 68 d6 f4 3d 67 a7 c3 3c d5 8e 72 be
       0.07675149 0.11954957 0.023883535 -0.23687299
0000e0 44 c6 6c 3e 6e d4 9b 3d c3 43 37 3c 05 f0 82 3e
       0.23122507 0.07608877 0.011185589 0.25573745
0000f0 b7 cb d8 3d 02 91 1e be 14 9f 64 3d 8c ef ae 39
       0.105857305 -0.15485004 0.05581577 0.00033366343
000100 60 6d 35 3d c9 2c 3e be 9f 4e 50 bd 07 91 a6 be
       0.04429376 -0.18571772 -0.05085623 -0.32532522
000110 71 38 82 be db 06 0b 3e 3c c6 56 3c 1d 86 5a be
       -0.25433686 0.13576834 0.013108786 -0.21340223
000120 f3 0d 20 be ab dc 89 3d 4b 17 e5 bd cb a6 23 3d
       -0.15630321 0.06731542 -0.111860834 0.039953988
000130 09 89 75 3d 32 11 19 be 7d fb b4 3b f1 d6 84 be
       0.05994514 -0.14947966 0.005523144 -0.25945237
000140 fd 86 27 be 45 55 43 3e ed ac 4e 3d f0 77 02 be
       -0.16360088 0.19075496 0.050457884 -0.12741065
000150 72 67 6b be 10 56 08 3e ff a3 63 3e 1f e2 6c be
       -0.2298868 0.1331408 0.22230528 -0.23133133
000160 05 8e 7f bd a5 f0 5d bd 87 57 95 be ad c2 24 be
       -0.0623913 -0.054184575 -0.2916834 -0.16089888
000170 fb 7d 7a 3c 9c 05 18 be 4a fb 61 3d 0c 55 a9 be
       0.015288825 -0.1484589 0.05517129 -0.33072698
000180 d2 4e 0e be 19 6e 09 3e ef b0 21 3d c0 77 01 be
       -0.13897255 0.13420905 0.039475378 -0.12643337
000190 a9 1e e6 bd 61 10 78 be be f7 80 be b7 e0 48 3d
       -0.11236317 -0.24224998 -0.25189012 0.04904243
0001a0 53 c5 41 3e 7f 6f 99 3d 17 58 02 3e 0a c2 9d 3b
       0.1892293 0.07491969 0.12728916 0.004814391
0001b0 71 ed 11 bd 49 68 93 3d cd 30 8c 3d cb 8b b4 3c
       -0.035626832 0.07197625 0.068452455 0.022039315
0001c0 3c 1b 8e be cf ba 82 bd bd ee 57 bc 31 b4 c5 3d
       -0.27755153 -0.06383287 -0.013179478 0.096535094
0001d0 a0 f2 1b 3d 7d 59 10 be 68 6a fe bd 9a 6d 8f bd
       0.038073182 -0.14096637 -0.12422639 -0.07003327
0001e0 86 d1 03 3e 7e a1 1b be a2 c9 67 3d 52 f3 58 3d
       0.12872896 -0.15198323 0.056588776 0.052966423
0001f0 ea 6f 23 3e 20 2b 8f be dc 75 32 3d fd ae 64 be
       0.1596066 -0.2796259 0.04356943 -0.22332378
000200 5d fb b0 be 33 8a bd 3d bc 79 e0 3d 74 1f 88 be
       -0.34566775 0.09254875 0.10960719 -0.26586497
000210 81 a9 76 be de c6 89 3c c7 f7 87 be fd fa d2 bd
       -0.24088098 0.01681846 -0.26556227 -0.103017785
000220 5b bb 29 3e ff 90 60 be a2 2b b1 bd 36 f6 03 be
       0.16575377 -0.21930312 -0.086509004 -0.12886891
000230 71 90 a0 bc e4 14 22 3e c9 45 03 3e 3c c3 3a bd
       -0.019600125 0.15828282 0.1281959 -0.045596346
000240 fc c3 68 be 96 ac bc 3d 23 06 35 3e 54 1e 2b be
       -0.22731012 0.09212606 0.17678122 -0.16710788
000250 ee 0a 1a be b2 08 92 be c7 78 69 be 28 f5 5d be
       -0.15043232 -0.2852226 -0.22799979 -0.21675551
000260 2b de d1 3d 10 4a 30 be e8 af 2e 3e d1 1d 48 be
       0.10247453 -0.17215753 0.1705929 -0.19542624
000270 5d c1 10 be a1 ba b7 3c be 92 4c 3e e4 00 a8 be
       -0.14136262 0.022427859 0.19977853 -0.3281318
000280 2f 78 b9 bd a3 65 43 bd ed 2f b5 be b7 5e 2b be
       -0.09056126 -0.04770435 -0.35388127 -0.1673535
000290 fa d8 02 3c f3 91 ad 3d a2 8b 84 bd 47 20 8a be
       0.007986302 0.08475103 -0.06471945 -0.2697775
0002a0 23 fb ac be c7 7d 1b 3e ad bf ef 3c 94 07 5c 3c
       -0.33785352 0.15184699 0.029266203 0.013429541
0002b0 16 0a f1 bd d6 21 86 bc c0 4d d0 bd 1f 86 03 3e
       -0.11769502 -0.016373556 -0.1017108 0.12844132
0002c0 79 1f 7e 3d ec 77 84 be b2 6d 5f be d6 82 24 be
       0.062041733 -0.25872743 -0.21819189 -0.16065535
0002d0 06 07 24 3e 12 3d 75 3c 5c 2c 07 3e 1f 63 33 be
       0.16018304 0.014968174 0.13200516 -0.1751828
0002e0 d9 39 16 3e 34 7f 87 3d d9 1e 41 3e e8 33 21 3e
       0.14670505 0.06616059 0.18859424 0.15742457
0002f0 a6 81 e4 3d 4d 35 55 be 57 f1 9b be ec 57 06 3d
       0.11157541 -0.20821114 -0.30457565 0.032798693
000300 b3 51 45 bd d1 ee bf be 90 07 a7 3d a0 ec 10 be
       -0.048173618 -0.3748689 0.08155739 -0.14152765
000310 35 ec 9e be 75 fe da 3d d1 0a b1 bc 47 b6 82 3a
       -0.31039587 0.10693065 -0.021611603 0.0009972536
000320 e3 65 1e 3d 5f ec 4b 3e 16 7f 1a be 4a f7 4b be
       0.038671385 0.19914387 -0.15087542 -0.19918552
000330 87 c7 2c 3d e3 e6 cd bd 81 5e c1 be 75 2a 96 3d
       0.04218247 -0.10053804 -0.37767413 0.07332317
000340 98 43 23 3e 38 c0 f1 bd 05 d1 d2 3c 8b 78 8f 3e
       0.15943754 -0.11804241 0.025734434 0.28021654
000350 24 04 94 be b1 69 5e 3e d3 31 84 bd ed 8a 93 3e
       -0.2890941 0.21720006 -0.06454816 0.2881693
000360 b9 dd 50 bd 67 72 a7 3d 57 04 90 3e 86 23 b6 3d
       -0.0509927 0.081761174 0.2812831 0.08893494
000370 3e 7f 60 be 6d b5 82 3e b4 63 a0 bc 52 b7 54 be
       -0.21923539 0.25529042 -0.019578792 -0.20773056
000380 72 ad 21 be 38 a0 b0 be 44 68 b1 be 06 c7 35 bd
       -0.1578882 -0.34497237 -0.3464986 -0.044379257
000390 dc d0 83 3c ac e7 47 be 76 23 b1 bc eb 06 0d be
       0.016090803 -0.1952197 -0.021623354 -0.1377217
0003a0 17 9e 56 3e 07 6c fa 3d 19 4f a4 3d de 65 a3 bd
       0.20958744 0.12227636 0.08022899 -0.07978414
0003b0 ff fd 94 3e 25 ff 3f 3d 0b c3 95 bd e6 32 d5 3e
       0.29100034 0.046874184 -0.07312592 0.41640395
0003c0 7e 0a df bd f1 fd cb bd 3e bd 71 bd ab 48 90 bd
       -0.10890673 -0.09960545 -0.059018366 -0.0704511
0003d0 0c 84 0d bd 9f 7f 3c bd bf 06 64 be 2d 49 67 be
       -0.034549758 -0.046020146 -0.22268198 -0.22586508
0003e0 87 c3 fc ba 09 cc 09 3e 0a 63 47 3e 4b 15 10 be
       -0.0019284346 0.1345674 0.19471374 -0.14070623
0003f0 82 68 36 3d 2b a6 5a bd 07 5f e8 be 2c 9c 6f 3d
       0.04453326 -0.053381126 -0.45385 0.058498546

model.l3.bias f4 [30]
000000 1c d4 7d 3d 40 3d bb 3d 40 e0 8d 3d ab 51 4f 3d
       0.06196986 0.09142542 0.06927538 0.050614994
000010 9d 16 a2 be 13 c5 e1 3d ad 07 8b 3d dd 74 89 3d
       -0.31657878 0.11023917 0.067885734 0.06711743
000020 09 9e 92 3d 38 a4 6d 3c 71 65 cf 3d 39 57 9e 3c
       0.07159049 0.014504485 0.1012677 0.0193287
000030 55 33 25 3d fa 06 9f 3c 45 53 38 3d c2 27 51 3d
       0.040332157 0.019412506 0.045001287 0.051063307
000040 3e ba a5 3d b3 59 67 3d 5b 45 96 3d 6a 3c cd 3d
       0.080921635 0.05648203 0.07337447 0.10021289
000050 1f 18 f0 3c 4c f7 c5 3d e0 41 5d 3d 16 41 89 3d
       0.029308377 0.09666309 0.0540179 0.06701867
000060 2b 1d 41 3c a0 a9 db 3d 28 08 85 3c e5 a7 8b 3d
       0.011786739 0.10725713 0.01623924 0.06819133
000070 c3 8c 3d 3c 04 df a6 bc
       0.011569205 -0.020370014

model.l4.weight f4 [1, 30]
000000 4d 5e f4 3d 94 c9 a7 be f4 19 af be da 1b fe 3d
       0.11932049 -0.3277098 -0.34199488 0.12407656
000010 7f 7e 8f be a8 3a 92 be f1 d3 8a be 2f 47 73 be
       -0.28026196 -0.28560376 -0.27114823 -0.23757623
000020 8b 0d 68 be fe 8d 9e be 97 3a c8 be 18 07 42 3e
       -0.22661416 -0.30967706 -0.391072 0.18948019
000030 4a 84 4b 3e f6 50 5e 3e f5 7e 39 3e ef bf 28 3e
       0.19874683 0.21710572 0.18114837 0.16479467
000040 7c 0f 84 be 92 e3 a4 be 92 ee 48 be b9 ed e4 be
       -0.25793064 -0.32204872 -0.19622257 -0.44712618
000050 a5 43 80 3e 45 8d 9d be 09 8e 1d be 7f 02 e8 3d
       0.2505161 -0.30771843 -0.15386213 0.11328601
000060 1f 91 0d 3e 9c f3 a1 be 87 46 45 3e a7 62 92 be
       0.1382489 -0.31631172 0.19265185 -0.2859089
000070 23 63 1f 3e 52 ea 60 3e
       0.15565161 0.21964386
