model_dsm11rmcov/v3d-[30, 30, 30]-0.0001-280.pth (torch, 49840 bytes, 7 tensors)

model.l1.weight f4 [30, 320]
000000 bc 32 02 be 64 fd 92 3c 7d b7 83 bd 60 1e 88 bd
       -0.12714666 0.017943092 -0.06431482 -0.066464186
000010 95 4d 82 bc f4 e8 c3 3c 74 a4 3b 3e 22 35 41 3e
       -0.015906135 0.023914792 0.18324453 0.18867925
000020 e1 db 0c be 09 5b 91 3e 4b ee 86 bd 4c 79 a3 bd
       -0.13755752 0.28389767 -0.065884195 -0.0798212
000030 2d 98 15 be 67 32 80 be 7b ce 31 bd c4 88 ac bd
       -0.14608832 -0.25038454 -0.043409806 -0.084245235
000040 e3 81 44 bd 96 7c 63 be e4 05 0e 3e a4 50 d5 bd
       -0.047975432 -0.22215495 0.13869435 -0.104157716
000050 83 67 a8 bd 3d bf 40 be 26 b2 e7 bd ae e7 44 be
       -0.08222868 -0.18822952 -0.11313276 -0.19229004
000060 1d 4f 35 bf 08 a0 17 bf d9 77 03 3e cd 70 e4 3d
       -0.7082384 -0.59228563 0.12838687 0.111543275
000070 15 8b 17 be 47 9f bf bc 30 81 21 3e 6a 88 5f 3e
       -0.1479915 -0.023391379 0.15771937 0.21829382
000080 90 2b 12 3e cc 50 fa 3c b8 67 a0 bd ad ec 2a 3d
       0.1427443 0.030556105 -0.07832283 0.041729618
000090 91 4f 28 3e 25 73 71 3e 48 9a 05 be ab 96 1c bf
       0.16436602 0.2357908 -0.13047135 -0.611674
0000a0 70 43 51 bd 47 a4 0e bd 0f ca f1 3d b2 84 bc bd
       -0.051089704 -0.034824636 0.11806118 -0.09204997
0000b0 36 1c d8 bc 7d 5d 21 be f2 66 39 3e 01 38 5c be
       -0.02638064 -0.15758319 0.18105677 -0.21505739
0000c0 b7 66 0d 3e 1c 44 96 3d aa c9 35 3d fd 65 d0 3b
       0.13808714 0.073372096 0.044381775 0.006359814
0000d0 da d7 2b 3f 3f c8 fa bc c9 f6 84 3d 8b a4 29 3d
       0.6712624 -0.030613063 0.06492383 0.041416686
0000e0 8b 34 32 be dc 89 61 be 72 dc 88 bd dc 23 c7 bd
       -0.17402856 -0.22025245 -0.066826716 -0.097236365
0000f0 4a 30 1a 3d 3b 8a 84 3e a2 6c 4a 3d ef 0b e0 3c
       0.03764371 0.2588671 0.049420007 0.02734944
000100 48 34 89 bd de b5 22 be 84 59 89 bd 9f b4 54 3d
       -0.06699425 -0.1588969 -0.06706527 0.051930066
000110 9e 2e ce 3d 0f f1 09 3b d4 85 06 3d 46 67 0e bf
       0.10067485 0.0021048223 0.032842472 -0.5562633
000120 90 01 d7 3d ef 8f c5 3d 72 3a 14 3d c6 3f 64 3e
       0.10498345 0.09646594 0.03618855 0.22289953
000130 ee ca 07 be 81 18 0e be 06 19 d0 3d 16 bf da bd
       -0.13261005 -0.13876535 0.10161023 -0.10680978
000140 4b 04 25 3d cb 15 15 3d 9d ec ef bd 7b bb df 3d
       0.040287297 0.036397737 -0.11715052 0.10924431
000150 b9 57 bd 3d b1 a4 15 be 63 f6 00 bd 55 77 6b 3d
       0.092452474 -0.14613606 -0.031484973 0.05748685
000160 0c e8 ec 3d b8 e6 18 be 10 cb 0e 3d 9b fa 04 3d
       0.11567697 -0.14931762 0.034861624 0.03246556
000170 0b e4 b7 bd e6 5a 05 39 35 38 27 3e 12 28 34 be
       -0.089790426 0.0001271773 0.16330035 -0.1759341
000180 07 d5 ad bb 06 0f e3 be e8 e9 d0 bd 03 81 75 bd
       -0.005304936 -0.443474 -0.10200864 -0.05993749
000190 15 69 e7 bd 3d a1 40 3d 5f 2a 5e 3e 66 48 bf 3e
       -0.1129934 0.04702877 0.21695851 0.37359923
0001a0 e1 41 03 3e 09 a2 28 3d 6f d0 0d be e9 f3 78 bf
       0.128181 0.041170154 -0.13849042 -0.9724718
0001b0 d2 37 f0 3c 43 62 bb bd 41 0f 3f bb d5 52 13 be
       0.029323492 -0.09149601 -0.002915338 -0.14387067
0001c0 ba df 2a bd 6a 0f c0 bd 39 45 fe 3d 83 18 fb bd
       -0.04171727 -0.0937794 0.12415547 -0.122605346
0001d0 d8 5a fe bd cb 63 54 bc 93 d1 ee bb 15 09 ab bd
       -0.12419671 -0.012963246 -0.007288167 -0.08351342
0001e0 28 14 f9 3d d5 a6 7b bd 6f df 23 3d 2c 1b 83 3e
       0.121620476 -0.0614384 0.040008005 0.25606668
0001f0 51 50 1d be 65 a8 34 be 6c 18 5f 3e b1 9a 4f 3d
       -0.1536267 -0.17642362 0.2178666 0.050684635
000200 cf a3 65 3d e3 ce 1d be ba fe 02 be ed 1c 33 3f
       0.056064423 -0.15410952 -0.12792483 0.6996601
000210 80 39 26 3e f4 e9 23 be 89 a6 c8 bc 16 30 02 3e
       0.16232872 -0.16007215 -0.024493473 0.12713656
000220 8b 3e 9e 3d 35 b6 0e be 05 ff 75 bd 23 02 d6 3d
       0.07726773 -0.13936694 -0.06005766 0.10449626
000230 88 7d 44 be ba b5 f0 3d 02 1f 16 be 1c 90 4d 3e
       -0.19188511 0.117534116 -0.14660266 0.20074505
000240 d1 91 86 be 35 61 26 be 73 f6 b9 bc 24 0f 3b 3d
       -0.26283124 -0.16248019 -0.022700524 0.045668736
000250 7b 32 11 3e 63 9a 20 bd d4 c2 63 be 31 5d a6 3d
       0.14179413 -0.039209735 -0.2224229 0.081232436
000260 4d 7c de 3c 75 24 0e 3d 96 d7 6d bd c0 b6 6f be
       0.02715888 0.034702737 -0.058066927 -0.23409557
000270 7a 6e 5d 3d 1c 4d a1 bd db 7c 44 bd 67 1e 46 3d
       0.054060437 -0.078760356 -0.047970634 0.048368838
000280 32 de bb 3d d0 54 0c 3d 6a 34 f7 3d ee 42 89 be
       0.0917324 0.03426057 0.12070544 -0.26808876
000290 6c 6e a2 be 2e 61 b8 3d 80 08 96 bd 54 49 28 bc
       -0.3172487 0.090029106 -0.0732584 -0.010271389
0002a0 db 9c 53 3d af d0 f0 bd f5 f6 a2 3e 44 df d7 bd
       0.05166326 -0.11758553 0.31829038 -0.105406314
0002b0 48 59 16 3d 71 c4 3a 3e 2a 12 bc bd 9b a3 c5 be
       0.03670624 0.18238999 -0.09183152 -0.38601384
0002c0 c9 e2 c1 bc 34 24 18 3c 56 80 a9 3d e1 53 03 be
       -0.02366771 0.009285975 0.08276431 -0.12824966
0002d0 bf c7 62 be 61 b0 53 3e 69 b6 0d be 98 9d 8c be
       -0.2214651 0.20672752 -0.13839115 -0.27463984
0002e0 53 1f 5f bd 4a f7 d5 3c fe a4 68 bd d1 b7 40 bb
       -0.054473232 0.026118893 -0.056797974 -0.0029406438
0002f0 2a ef 6a bd 24 32 a1 bc 46 ef cd 3d 5b 2e 79 bd
       -0.05735699 -0.01967723 0.100554034 -0.060835224
000300 2a 5e 37 3d f2 04 e0 3c 74 e8 e6 3d d1 45 3c 3f
       0.044767536 0.027346108 0.11274806 0.7354403
000310 c4 ca 4c 3e bc 15 ec bd d8 a4 02 3e f6 39 43 bf
       0.19999224 -0.11527583 0.12758195 -0.76260316
000320 fa da a0 3e 1a 38 08 3c dc 62 29 3d d6 90 06 bd
       0.31417066 0.008314157 0.041354045 -0.03285297
000330 82 5b 0b be a2 33 be 3d 88 f0 f0 bd 6e 44 4e 3e
       -0.13609126 0.09287192 -0.11764628 0.20143291
000340 6c 65 b6 3e 42 36 e0 bc 3e 04 74 bd 30 e5 be bc
       0.35624254 -0.027369622 -0.05957436 -0.023302644
000350 8d 06 34 be fd 58 b4 bd 82 03 9e 3f c1 19 fe 3d
       -0.17580624 -0.08806036 1.234482 0.12407256
000360 d5 e2 07 3e 23 de 40 be 09 a1 92 3d 15 ce 05 bd
       0.13270123 -0.18834738 0.07159621 -0.03266724
000370 39 72 79 3d 41 20 0a 3e 92 13 ce bc 57 7a c6 bd
       0.060899947 0.13488866 -0.025155816 -0.09691303
000380 e1 0c 6b bd ba 0f 13 3e 50 6a 14 3d 0a 7c 00 be
       -0.05738533 0.14361468 0.0362342 -0.12547317
000390 1f 07 6c 3e a2 01 d6 bd e0 a7 77 be 0a 28 da 3e
       0.23049591 -0.1044953 -0.24185133 0.42608672
0003a0 54 00 ff bd 6f 01 17 3e 20 cb 11 3f f1 65 45 3d
       -0.124512345 0.1474664 0.5695057 0.048192922
0003b0 44 5f e1 bd 4a 89 58 bc 89 b2 3d be c8 16 b0 be
       -0.110044986 -0.013216326 -0.18525137 -0.3439238
0003c0 82 e7 24 bd ff 35 71 3e 60 0e 68 be 86 9a 6a bd
       -0.040259846 0.23555754 -0.22661734 -0.05727627
0003d0 c0 2f b3 bd e4 f3 d6 3c d2 33 0a be 38 86 87 3d
       -0.08749342 0.026239343 -0.1349633 0.06617397
0003e0 46 fd dd bd 50 6f 07 3d 45 84 04 be 28 83 8f bd
       -0.10839324 0.03306514 -0.12941082 -0.07007438
0003f0 9c 0a 16 3e b5 97 15 3e 2f 26 cd 3d 0d 3a 56 bd
       0.14652485 0.14608653 0.100170486 -0.052301455

model.l1.bias f4 [30]
000000 57 82 3c bd 18 fc e2 bc 81 59 14 bd 23 3d 38 bd
       -0.04602274 -0.027708098 -0.03621817 -0.04498018
000010 87 a1 43 bd b0 f3 a3 bc f0 f3 14 bd 38 c7 ae bd
       -0.047761466 -0.02001366 -0.03636545 -0.08534092
000020 11 a5 5f bd 25 22 1c 3d c2 e6 89 bd 7c a7 0e bd
       -0.05460078 0.0381185 -0.06733467 -0.034827694
000030 3f a0 8e bc 7c ee 0c bd 87 66 1a bd 29 83 95 bd
       -0.017410396 -0.034407124 -0.037695434 -0.073004074
000040 36 f2 a5 bd 71 32 80 bd 17 57 04 bd 1e 0b 65 bd
       -0.08102839 -0.06259621 -0.032309618 -0.055918805
000050 20 46 8a bd 38 a5 2a bd bb 06 2d bd ad df 7a bc
       -0.067516565 -0.04166147 -0.042242747 -0.0153121175
000060 19 fe 45 bd 04 cc 95 bd 1c 14 8c bd e8 e4 cc bd
       -0.04833803 -0.073143035 -0.06839773 -0.10004598
000070 18 6b b0 bd ce da 64 3c
       -0.086141765 0.013968183

model.l2.weight f4 [30, 30]
000000 36 2b fd 3e 1a 8b c7 bd b6 27 e1 bd 1d 55 bb bc
       0.4944703 -0.097433284 -0.109939024 -0.022867734
000010 fa e2 51 3e dd e3 e2 3e e6 cb 69 3e 07 1c 85 3e
       0.20496741 0.4431447 0.22831687 0.25997946
000020 60 fb 72 be 80 c4 86 be a4 65 de 3d f6 47 18 bf
       -0.23728704 -0.26321793 0.1085923 -0.59484804
000030 d5 43 92 be 40 27 a0 3d 51 cc a2 3e 65 9a 03 3f
       -0.28567377 0.07819986 0.31796506 0.5140746
000040 8a 9e 9f be c5 71 fa bc 64 78 0a bd ab dd 7a 3f
       -0.31175643 -0.030571828 -0.03380622 0.9799449
000050 22 b6 a9 3d 03 6a 72 3f 07 a2 ea 3c 9b 0f f7 3c
       0.08286692 0.9469301 0.028641714 0.030158808
000060 2d b1 f1 bd fb 48 6f 3e 88 d3 2d 3c 7f 2d 4c 3e
       -0.11801372 0.23367684 0.010609515 0.1993923
000070 90 8f 29 3f a9 ea 05 be 66 c1 36 be 25 6f 5e be
       0.66234684 -0.13077797 -0.17847213 -0.21722086
000080 c2 4a 1c be 03 ee 9e 3d c9 fe 0d be 81 79 99 be
       -0.15262893 0.07760241 -0.13866724 -0.29975513
000090 49 49 a5 3e 23 52 9a be 73 d9 22 bf 2d fe e3 3c
       0.32282475 -0.3014079 -0.6361305 0.027831161
0000a0 47 a6 26 3e 33 c1 68 bf e3 dd ba 3d 74 99 01 3e
       0.16274367 -0.909198 0.09124353 0.12656194
0000b0 fc 05 28 be 5c 2f c2 bc 51 85 72 bf b7 ae c4 3d
       -0.16408533 -0.023704223 -0.94734675 0.09603637
0000c0 63 d6 e4 be f5 b4 2a bf 9f 64 d0 be a4 5d 2c bf
       -0.44694814 -0.6668237 -0.40701768 -0.67330384
0000d0 32 84 9f bd 5a f9 a4 3c 42 b4 12 3e 82 4d 36 be
       -0.07788886 0.020138431 0.14326575 -0.17803004
0000e0 7f 74 2b 3e 46 e4 06 3e c6 67 28 bf f0 20 01 3d
       0.16743658 0.13173017 -0.65783346 0.031525552
0000f0 57 64 8a 3e a9 5e 8b 3c 97 30 1f bc 3b 91 cc bd
       0.27029678 0.01701291 -0.009716175 -0.09988638
000100 51 de 45 3e c8 b6 59 bd c7 5a 16 3e 04 73 51 3b
       0.19323088 -0.05315283 0.14683066 0.0031959424
000110 07 4b 72 bf 0e 57 0b bd e7 3d 9a 3b 3f 55 5a bf
       -0.9464573 -0.03401857 0.0047070864 -0.85286325
000120 f6 0d f4 bc e9 c1 92 3e 57 e6 a5 3e 36 e4 8a 3e
       -0.029791813 0.28663567 0.32402298 0.27127236
000130 23 a6 98 be 28 67 18 3e f0 3b d6 be e2 29 8b be
       -0.29814252 0.14883101 -0.41842604 -0.27180392
000140 ac 0e d3 3e 91 b7 4f 3f 53 2c 81 3e c5 b2 0f 3e
       0.4122213 0.81139475 0.2522913 0.14033039
000150 a9 b9 7e 3c 91 f5 88 3d 67 67 97 3c e7 12 8a 3d
       0.0155471945 0.06687463 0.018481923 0.067418866
000160 d2 b6 39 bf bb 6c a0 bd 4e ed d3 3e 85 ef 02 bc
       -0.72544587 -0.07833239 0.41391987 -0.007991676
000170 1b 43 2b 3e 11 2c b0 bd b6 7c 8e 3d 21 8d a3 bd
       0.16724817 -0.08602155 0.069573805 -0.079859026
000180 05 bc 3b 3e 2b 25 0c bd c5 4f 43 bf 55 9f e5 bd
       0.18333443 -0.034215134 -0.76293594 -0.11212031
000190 7c f1 f0 3d ca db 30 bf ef f2 5b bd 42 9a 61 3e
       0.117648095 -0.6908537 -0.053698476 0.22031501
0001a0 0a 5b 6b 3e 49 95 c6 3e 05 72 70 be cd 21 a3 3c
       0.22983947 0.3878577 -0.23480995 0.019913578
0001b0 f1 a0 34 3e 68 b7 94 be 47 55 ae 3e d5 4e 80 3f
       0.1763952 -0.29046178 0.34049436 1.0024058
0001c0 90 a6 f3 3d e9 73 4c 3d cf 71 0a 3e 29 1e 38 3e
       0.11897004 0.049915228 0.13519977 0.17980255
0001d0 22 16 44 3d 89 af 46 3e 88 b4 2d bf 73 22 56 be
       0.04787267 0.19402899 -0.67853594 -0.20911579
0001e0 9e 73 7d be b2 da 4b 3d 88 1b 1c 3f 6c 2e ce bb
       -0.24751136 0.04976911 0.6097951 -0.006292155
0001f0 cb d6 5a be 07 4a b4 bc 67 79 6c bc d7 57 94 ba
       -0.21371 -0.022007955 -0.014433241 -0.0011317682
000200 37 27 a8 be 91 98 f6 bb 97 50 7d be fd cf 98 be
       -0.3284242 -0.0075255116 -0.24737774 -0.29846182
000210 d4 2c 67 3d 03 48 0a 3e c7 3a 27 be c7 17 18 3f
       0.056439236 0.13504033 -0.16331016 0.5941128
000220 a9 a3 b7 bd 67 42 b1 bd 3e ad 28 3f c2 56 3c be
       -0.089667626 -0.08655243 0.65889347 -0.1839247
000230 00 d2 1b 3f e6 21 90 3f 99 e7 1a 3f ff 96 a4 3e
       0.6086731 1.1260345 0.6050964 0.3214645
000240 7a 5e 43 be 2d 37 89 bd 62 e0 27 be 60 dd 7a be
       -0.19079009 -0.06699977 -0.16394189 -0.2449851
000250 26 fe 93 be 0b 64 8c bb bc ef b2 bd 05 7a 40 3e
       -0.28904837 -0.004284387 -0.08737132 0.18796547
000260 99 b1 85 be 4e 82 7d be d2 e8 8f bc d0 18 d9 3e
       -0.2611206 -0.24756739 -0.017567072 0.42401743
000270 05 f9 e8 be fb ac d3 3d f5 51 aa 3e 6f 66 34 3d
       -0.45502487 0.10335728 0.33265653 0.044043
000280 87 a7 0a be d2 fa fd 3e 1b ca a3 be ec 41 7c be
       -0.13540469 0.49605423 -0.31990132 -0.24634522
000290 40 ad 67 bd 04 86 16 bf c6 d3 0c 3e 9a 52 27 bd
       -0.05656171 -0.5879824 0.1375266 -0.04085026
0002a0 1e 2a d3 be dc 83 c3 3e 53 02 e6 be a0 2a 92 be
       -0.4124307 0.38186538 -0.44923648 -0.28548145
0002b0 99 bc 37 be 3a 44 92 be 38 68 3b be 53 e1 94 3d
       -0.17943038 -0.28567678 -0.18301475 0.0726954
0002c0 c5 bf 81 be 7b ac f9 3d 1d 65 cf 3e c2 0b ef bd
       -0.2534162 0.12191101 0.4050683 -0.116721645
0002d0 23 e8 0e 3d 5a f5 38 3e 1a 57 a0 be f8 92 48 bc
       0.03488935 0.18062344 -0.31316453 -0.012242071
0002e0 84 e1 21 3e 0e c5 e2 3e c5 a3 11 3e 75 8a 78 3e
       0.15808684 0.44290966 0.1422263 0.24271567
0002f0 a5 e3 01 3f 4f 32 69 be 70 bf 7b 3e 26 7f 32 3f
       0.50737983 -0.22773097 0.24584746 0.69725263
000300 38 5f d6 3c 90 b4 d2 bd aa f7 4f 3d 57 ba 08 bd
       0.02616845 -0.10288346 0.0507733 -0.033380833
000310 90 1a fe 3e 07 26 19 3e 93 f5 d2 be c7 20 0a 3f
       0.4962964 0.14955913 -0.41202983 0.53956264
000320 27 3b bf be 92 0a 8a be 70 98 28 bd f1 81 a4 be
       -0.37349817 -0.2696119 -0.041161 -0.32130387
000330 a0 a9 6d be d2 7f fe bb fa 90 98 3e d5 82 47 3c
       -0.23209238 -0.007766702 0.29798108 0.012177189
000340 97 64 80 3e 15 d2 a4 3d 6c 36 4b 3d d7 6c 6c bd
       0.25076744 0.080478825 0.049612448 -0.057720985
000350 33 e1 91 be 29 2d 05 bd 6f d6 1b 3d fe 97 11 3f
       -0.28492126 -0.03251377 0.038046297 0.56872547
000360 83 db 8d be b6 12 6e 3e 2f 27 0f be 23 05 fb bd
       -0.27706537 0.23249325 -0.13979791 -0.12256839
000370 16 6b fe 3d 36 55 98 3e b8 24 81 3d 04 98 de be
       0.12422769 0.2975251 0.06305832 -0.43475354
000380 fb 3a 00 3e ac 81 52 be f8 bb a8 3d e3 ee e0 3d
       0.125225 -0.20557278 0.08238977 0.10983064
000390 3c 0e d5 be e7 56 7e 3f 80 c9 cf be da 31 48 be
       -0.41612422 0.9935135 -0.4058342 -0.19550267
0003a0 28 33 8d 3e c7 ff 1c be fc 55 52 be cb e1 36 3e
       0.27578092 -0.15331946 -0.20540613 0.1785957
0003b0 93 10 8f 3d 16 b3 e8 3d db 22 7d 3e ff ac 37 be
       0.06985583 0.11362283 0.24720328 -0.17937087
0003c0 a0 a7 90 be ec 6a 71 be 1e 8c 96 3c cd 0c 90 3e
       -0.28252888 -0.23575944 0.01837736 0.28134766
0003d0 c5 b5 38 be d1 de c7 be fc be 8b 3e 0e 46 88 be
       -0.1803809 -0.39037183 0.27294147 -0.26615947
0003e0 d0 7a e6 be 43 d3 4f 3e da 0d bc 3d ab 74 53 bf
       -0.45015574 0.20295434 0.091823295 -0.82599896
0003f0 d9 4c 65 3e 26 77 a1 bc 0e 18 b9 be 75 b3 40 be
       0.22392596 -0.019710135 -0.36151165 -0.18818457

model.l2.bias f4 [30]
000000 50 92 37 3b c4 15 4b 3d 7a 66 41 3a ba 88 a8 3c
       0.0028010793 0.049581304 0.0007377636 0.020573009
000010 61 df cf bc 8a b2 d6 bb a6 6d 08 3a f2 aa 16 bc
       -0.02537507 -0.0065520452 0.0005204327 -0.00919603
000020 fa a2 48 3d e2 51 4b 3c 8d a9 8c 3c 21 78 ba 3b
       0.04898355 0.012409659 0.017170692 0.00569059
000030 63 48 08 3d b2 e2 24 3d 00 f7 85 ba 8c 4d d2 bb
       0.03327216 0.040255256 -0.0010220706 -0.0064179357
000040 91 e5 6b bd 24 5a d6 bb 6c 67 ab bc 4f ed 2e bc
       -0.05759198 -0.0065415073 -0.020923339 -0.010676696
000050 fb 1f 12 bc 5f df 53 bb 21 be 34 3d 31 72 35 3d
       -0.008918758 -0.0032329184 0.044126634 0.044298355
000060 ad 2a 4f 3d 23 74 e0 bd b6 e8 18 3d c5 6b dd 3c
       0.05057781 -0.10959651 0.037331305 0.027028928
000070 ba 95 cd 3c f9 07 c6 3c
       0.02509581 0.024173724

model.l3.weight f4 [30, 30]
000000 c8 34 dd be a0 ef 91 3d d9 a3 76 bf 05 5d 3a bf
       -0.4320433 0.07125783 -0.9634376 -0.72798187
000010 db bf 19 bf b4 f1 ae 3e 4f ed 2d 3d d6 e4 22 3e
       -0.60058373 0.3416878 0.042462643 0.15907606
000020 77 e5 7f 3c c8 b6 57 bd 8e b7 b4 3d ad 36 b4 bd
       0.0156186735 -0.05266455 0.08824073 -0.08799491
000030 3e 9c 80 be 89 17 71 bb e7 eb 83 bf de ee 7c 3e
       -0.25119203 -0.003678771 -1.0306367 0.24700496
000040 ce ab 0c bf d6 0c cc 3d 24 60 5e 3e ca 5d a1 3d
       -0.54949653 0.09963386 0.21716362 0.07879217
000050 a6 f4 26 3e 8f d1 bb 3e f0 fe c1 be 5d ec f0 be
       0.16304263 0.36683318 -0.37889814 -0.4705533
000060 cd 44 ce be 7e 0d 8e 3e e2 21 22 bf 4a 01 35 bf
       -0.40286866 0.2774467 -0.6333295 -0.7070509
000070 8e 73 45 bf 7b 02 70 bf d7 b6 67 3e 53 5a 5f be
       -0.7712945 -0.93753785 0.22628342 -0.218118
000080 31 af 8d 3e cd 88 9d 3e 24 5f ef 3b 33 69 41 bf
       0.27672723 0.30768433 0.007305043 -0.75551146
000090 a8 74 36 bf 37 bd 54 3e b6 3f 7b bd e2 f9 1c 3d
       -0.71271753 0.20775305 -0.061340056 0.038324244
0000a0 b5 ae bd be 39 b8 be 3e 85 37 26 be a3 d2 46 3c
       -0.37047353 0.37249926 -0.16232117 0.012135181
0000b0 a4 43 e0 3e 49 96 3a bf f6 11 22 be 88 e3 ef be
       0.43801606 -0.72885567 -0.15827164 -0.4685328
0000c0 62 0d f0 be 89 2a ca be 51 26 4e bf 28 68 64 bf
       -0.4688521 -0.39485577 -0.80527216 -0.8922143
0000d0 22 aa bb 3d 4e 42 e8 3c 64 3a ed 3d e8 bc a9 be
       0.0916331 0.028351929 0.11583403 -0.33151937
0000e0 ce cf 38 3d 87 41 46 3d 05 34 88 3d 75 9c 0c 3e
       0.045120053 0.048402335 0.06650547 0.13731559
0000f0 76 d2 99 3e b0 79 b2 be 10 9b cf be 38 5a f5 be
       0.3004338 -0.34858465 -0.4054799 -0.47920394
000100 76 9d bd be 82 40 01 3e 95 e6 4e 3e 61 eb 80 3e
       -0.37034196 0.12622264 0.20205148 0.2517958
000110 85 19 af be 6e 1c 19 be ba 1b 8c bc 3e 26 08 3e
       -0.34199157 -0.14952251 -0.017103065 0.13295838
000120 5a b7 fd be 71 fe 84 be a0 39 19 bf d0 52 97 3e
       -0.4955395 -0.25975373 -0.59853554 0.29555368
000130 57 03 17 bf b0 a6 92 3e d1 1a 17 3d b1 ca 05 be
       -0.5898947 0.28642797 0.03689081 -0.13065602
000140 08 7b 5d bc f7 ca 78 3e d0 32 7d be 58 19 9c be
       -0.0135181025 0.24296175 -0.24726415 -0.30488086
000150 ee ce b2 be c3 3b c0 3c c1 aa cb be 2f 1f f1 be
       -0.349235 0.023465997 -0.39778712 -0.47094104
000160 cd 12 f4 be 31 11 ba be bd f2 04 3f 53 f4 2a bd
       -0.47670594 -0.3634124 0.5193289 -0.041736912
000170 46 6e c4 be 69 41 f5 be fd a5 57 bf 86 0f 96 3e
       -0.38365382 -0.47901466 -0.84237653 0.29308718
000180 87 28 36 3e 97 01 bb 3e e8 ef 14 3c 01 74 9f 3e
       0.17788897 0.3652465 0.009090401 0.3114319
000190 f5 d8 b8 3d c5 61 b8 3e 86 0d b4 be 78 be 0c 3d
       0.09025756 0.36012092 -0.35166568 0.034361333
0001a0 05 4d 88 be 3d 81 00 3e 3d a3 3f bf 52 3a 74 3e
       -0.2662126 0.125493 -0.74858457 0.23850372
0001b0 1e ea 9c 3e 94 27 54 bd 6a 09 be bd c7 cb 8f 3e
       0.30647367 -0.051795557 -0.09279139 0.28085157
0001c0 53 fc 89 be 2e ff ac be 92 c1 3e be b7 67 a1 bd
       -0.2695032 -0.33788437 -0.18628529 -0.0788111
0001d0 aa bc f9 be c2 2d 13 bf 06 53 f6 be 24 80 19 bf
       -0.48776752 -0.57491696 -0.48110217 -0.5996115
0001e0 bd 6a ca 3e 1c 93 ab bd cd ea 64 be 50 48 2c bf
       0.3953456 -0.08377668 -0.22355194 -0.6729784
0001f0 58 6c 06 bf b9 8c bd 3d 30 31 2d 3e 01 4f a9 3e
       -0.5250907 0.09255356 0.16913295 0.33068088
000200 65 6b ce ba 7f 0c 37 3e df ef f1 3c f2 a8 99 3e
       -0.0015748559 0.1787586 0.029533325 0.30011708
000210 58 48 ba be 0f 1d 27 3d d2 03 56 be 38 40 6c 3e
       -0.3638332 0.040799197 -0.20899895 0.23071373
000220 e9 d0 15 bf c4 6c 0c 3e b1 5c dd 3d 17 ae fe bc
       -0.58521897 0.13713366 0.10808695 -0.031088872
000230 a5 b2 28 bb b2 d2 c7 3d c5 6a 95 be 3e e8 02 bf
       -0.0025741246 0.09756984 -0.2918302 -0.51135623
000240 35 b7 b5 be 3e 36 bb 3c a8 f4 20 bf 76 34 22 bf
       -0.35491338 0.022853013 -0.62873316 -0.633613
000250 be 1c d0 be fa fe 19 bf 84 31 d6 3e 8f a6 0b bf
       -0.4064693 -0.6015469 0.41834652 -0.54551023
000260 bc 63 17 bf 4a 9f 30 bf 87 a1 1d bf 5d 61 0f 3d
       -0.5913656 -0.68993056 -0.61574596 0.035004962
000270 53 1f 34 bd a2 2f 1e 3d 1b 9f 89 be d1 7a 91 bd
       -0.043975186 0.038619645 -0.268792 -0.071035035
000280 1b df 20 be 2e 3d 9a 3d e9 09 5d bf be 85 80 be
       -0.15710108 0.075312 -0.86343247 -0.25102037
000290 49 28 05 bf 85 56 3f 3e e8 25 23 bf 91 b7 57 3d
       -0.52014595 0.18685348 -0.63729715 0.052665297
0002a0 04 c6 87 3e de 7d c0 bb bf 9d 24 3d 83 d9 aa 3d
       0.2651826 -0.0058743795 0.0401895 0.08342268
0002b0 85 a3 34 bf df ec 42 bf 1a 32 47 bf 6e 66 43 be
       -0.7056201 -0.76142687 -0.77810824 -0.19082043
0002c0 9c 14 65 bf c9 0e 4e bf 6e 0b 41 bf 13 19 1f bf
       -0.8948457 -0.8049131 -0.75408065 -0.62147635
0002d0 f2 f8 c2 3e 3c 39 76 bd a0 04 fe 3e 8c 5d 99 3e
       0.38080555 -0.060113177 0.49612904 0.29954183
0002e0 6d 10 ac 3d c7 38 2b bf f0 8a f9 be ac 4e 78 bd
       0.084015705 -0.6688351 -0.48738813 -0.060621902
0002f0 be 80 b0 bb 4d 61 09 bd e5 7e b0 be 31 29 79 3e
       -0.005386441 -0.03354006 -0.34471813 0.2433212
000300 92 ad 2c be f3 c9 97 bd d6 39 06 3f 2d e3 3a be
       -0.16863087 -0.07411566 0.52432 -0.18250723
000310 62 82 27 3e 6f 5c e8 be 6f c2 d8 be 59 d7 90 be
       0.16358331 -0.4538302 -0.4233584 -0.28289297
000320 51 17 0e bf 30 89 32 bf 89 e5 95 3c 7a 3b 0a bd
       -0.5550433 -0.6974058 0.018297927 -0.033748128
000330 a6 ac 08 3e 9f 90 ad be 29 0e 27 3e 5f bd 2f 3e
       0.1334711 -0.338994 0.16313995 0.17162083
000340 4f 95 81 3e 71 8c c6 3e 56 88 86 3e 78 1b 6b be
       0.25309226 0.38779023 0.2627589 -0.22959697
000350 bc a1 cb be 5c 83 d5 be 13 8b 99 be e2 99 82 3e
       -0.3977183 -0.41701782 -0.29988918 0.25508028
000360 9b ea 70 3d 04 61 84 3e 36 30 5c be 8d 5c bf bb
       0.058817487 0.25855267 -0.21502766 -0.0058398903
000370 ee b2 7e 3b 86 df 59 3e 41 ee 15 be b8 6f 40 be
       0.0038863975 0.21276674 -0.14641668 -0.18792617
000380 40 fa 16 bf d6 08 18 3e ca e8 20 bf fd 5e 8c 3e
       -0.589756 0.1484712 -0.6285521 0.2741622
000390 99 54 94 3e ea 01 67 be 78 a6 8f 3e d5 82 26 3e
       0.28970793 -0.22559324 0.28056693 0.16260846
0003a0 2a 16 44 be 8b 8a d6 be 66 16 08 be dc 89 6f 3d
       -0.1914908 -0.41902575 -0.13289794 0.058481082
0003b0 16 74 96 be 4f f9 c1 be 1e 52 52 be 5c f8 e4 be
       -0.29385442 -0.3788552 -0.20539138 -0.44720733
0003c0 6d 29 8a 3e d4 da 3b bd 70 51 b7 3e e1 11 79 3e
       0.2698473 -0.045862988 0.3580432 0.24323227
0003d0 06 47 a4 3e ef ff 3a bf bf 1d 0a bf fc 4e d7 be
       0.32085437 -0.73046774 -0.5395164 -0.42052448
0003e0 b9 d4 b9 bd a2 ef 37 be 53 9b 43 be 11 42 ef 3c
       -0.09073777 -0.17962506 -0.1910222 0.029206308
0003f0 c0 15 0a 3e 66 7c 3a be 9a a8 0d 3f 44 01 c8 be
       0.1348486 -0.18211517 0.5533539 -0.39063466

model.l3.bias f4 [30]
000000 99 db f6 be 86 eb 50 3d 93 bc ef 3d 64 17 33 3d
       -0.48214415 0.051005863 0.117058896 0.04372348
000010 46 1c 8c 3d 99 b7 a2 3d b8 2f 8f 3d c1 4f cc 3d
       0.0684133 0.07945175 0.069915235 0.09976149
000020 b9 9d 09 3e c6 bd 79 3d 20 0a a8 3d ee b8 1c 3d
       0.13439073 0.060971998 0.08205056 0.0382623
000030 09 bf 82 3d 42 d7 ac 3c 2b e2 92 3d 27 f0 b4 3d
       0.06384093 0.021098737 0.07172044 0.08834868
000040 14 91 9c be 0e 8d c9 3d 71 3d d8 bb 65 e0 01 bd
       -0.30579436 0.09841357 -0.0065991213 -0.03170814
000050 a2 25 f6 be 55 ff 47 3d bb 37 8a 3a 65 7f a8 3d
       -0.48075587 0.048827488 0.0010545173 0.082274236
000060 b1 a4 00 3c 48 15 e9 3d 72 a0 c2 3d e5 eb bd 3d
       0.0078517655 0.11381012 0.09503259 0.09273509
000070 8e db 9e 3d 57 06 6f 3d
       0.077567205 0.058355656

model.l4.weight f4 [1, 30]
000000 41 90 74 be 8e 9d 7d 3e 42 63 da be 49 56 b6 be
       -0.23883153 0.24767134 -0.42653853 -0.35612705
000010 9f f7 df be 6d 33 4e bf 13 ca f1 3d 26 0e b6 be
       -0.43743607 -0.8054722 0.11806121 -0.3555767
000020 55 47 99 3d 68 13 90 be 93 ea cd be f6 2a 3e 3e
       0.07484309 -0.28139806 -0.40218028 0.18571076
000030 17 e0 b3 be 0d d7 9a 3e 4f 0b f2 be 62 41 d7 3d
       -0.35131904 0.30242196 -0.47274253 0.10510518
000040 11 e4 82 be 0d 85 5b bf 6f 11 75 3e 06 00 91 3e
       -0.25564626 -0.85749894 0.23932432 0.2832033
000050 e3 98 42 be 5a 66 1b 3e c4 88 8a 3e ba 42 85 3e
       -0.19003634 0.15175763 0.2705747 0.2602747
000060 45 95 9b 3e 74 bb f1 be e0 ed 5d 3e 56 ca bd be
       0.3038732 -0.47213328 0.21672773 -0.37068433
000070 a1 40 74 3e 08 fb bf be
       0.23852779 -0.3749621
