model_dsm11rmcov/v3d-[30]-0.0001-200.pth (torch, 40944 bytes, 3 tensors)

model.l1.weight f4 [30, 320]
00000000: ae40 ac3e f2c5 92bd 3960 f13e 0d3b ca3d
00000010: 64a4 193b ed23 a13c 4a54 9f3e 79a8 a23e
00000020: cbce eb3d f784 853d e2b7 693e cd8e 27bc
00000030: 4791 34bd c380 f93c 4056 1bbe d2dd c6bb
00000040: bc2d 35bd e250 8ebe eff0 97be d551 893d
00000050: f961 7f3b da7a 22bd 2f33 603d 2f84 813c
00000060: fd1b 303d dfa2 8abd 78c5 b4bc a839 173e
00000070: 90f7 c43b 7a77 03bb 7ae3 0a3c dd67 0d3d
00000080: 742e 33bc c063 2c3e f0e9 303e d05b 1b3e
00000090: d22b 243e 994e e6be d813 9cbd 5404 e6bd
000000a0: d476 28bd 33ff 1dbe fb58 60be 2b6a 61bd
000000b0: dd9a a7be 74fc 1cbe c8dd a3bb a071 b6bd
000000c0: 3aab 90bd 7133 9f3d 5526 40be e40f b0bd
000000d0: 210a f03d a4c2 333e aaba d0be bff8 a2bc
000000e0: c445 1cbd 4f0c a03e 6e39 14be 935b 1b3e
000000f0: 3a8b c5be 34e1 93bd 2721 b3bc 3201 b5bc
00000100: 86f4 3bbe 9baf 163e 656f f03d 0ae0 05be
00000110: 4374 4dbd 3219 193e 52ba a83d 2691 b0be
00000120: 042e 82be 56f8 1d3e bddd 63bd f925 023d
00000130: b99d e5bd 921c 5fbe a03f 073d 34f8 bdbe
00000140: d3eb d13d ee48 88bd 7a89 a0be c3bb fabc
00000150: 38d2 a7bd e556 a53d d5b4 aabd 902a 31be
00000160: f067 0a3e 089a 1bbd aabe 973e a48c 0b3e
00000170: 455c 9fbb 5961 ee3d 8e4f 9dbd fc28 2fbe
00000180: 0e13 9bbe f386 0b3e 35ea 453e f0c1 a1bd
00000190: e009 933d 08f2 8ebd 2a01 75bc e8d0 05be
000001a0: 68e5 87be 8108 e93d da98 5b3e 64bd e73c
000001b0: 39a4 383d dfdd 5cbd fb17 a13e 08e5 e53d
000001c0: 7b9b 123e 6aa0 0fbe 5d2c 5d3e 6ff3 9c3c
000001d0: 7b91 acbd 0a85 7bbd e635 9ebb e7cc 023c
000001e0: c3ee 6ebe 49b2 08be 31e8 2f3d c7a9 9bbc
000001f0: 0cff 04bd b3f4 f13d 08c4 423d c502 343d
00000200: a816 9cbd 857f 3abe a9c8 ee3d f69a 4a3d
00000210: cfa5 103e ba9b 3f3e 886d f7bd 3462 8c3d
00000220: af08 a5bc f36c bbbd b708 9bbc 2a9e bdbb
00000230: 10ec 6bbd 25b8 5d3d 66c2 e83d fd39 4fbb
00000240: 255c 07be 272d 163e 7c34 163e 4f30 75be
00000250: 94fb 2abd a2f4 6cbd 36a2 1f3d 681d efbd
00000260: 4a45 06bd 1a56 f33c 7ebb be3c b647 973e
00000270: 82db f73d d421 08bd 0131 d23d ef76 15bd
00000280: c83c aa3e 97b9 abbe 873a 3dbd 5b72 8d3d
00000290: 0060 323e 7d38 d7bd 4396 d53d 88d8 1e3e
000002a0: f359 86be bfac c5bc e62f 08be ef04 34be
000002b0: 6be3 ca3c 4210 cc3d 9b0f 883d a04d 423e
000002c0: 384f 673c 4bfb fd3e dbda 54bd a221 a5bd
000002d0: 2d3c 9d3d b2ca ab3c c9ff 27bd 1046 b5bb
000002e0: 800e f7bd 2e8d 60be ee8c d7bc fd7a 9bbd
000002f0: 30db 793e b90d df3d 3c08 1e3e 6a07 14bd
00000300: c6b2 58be 9c1a edbc f828 1dbf 1db7 f0bb
00000310: c6e1 87bc e1d1 d03d 2d84 4fbe cef6 51bc
00000320: c6b8 33bd fc12 eabc d166 353e 390f 9d3d
00000330: 55ca 763e 558e 7b3d f14e 3d3e 5b03 bcbd
00000340: 172b 523d 8caf 303e df82 b63d 5f7b 1abd
00000350: 26c6 643e ad0c 313f d907 6b3e 1a00 33be
00000360: 6f8e 6ebd a5c5 abbe cf88 e63e 3f4c debd
00000370: ba27 7e3d fdd0 2d3e b30d b5bd afaf ee3d
00000380: 76ee 373e f814 983e 4111 aebc 1b09 b73d
00000390: 3519 86bd 4179 87bd 174f 203e cd42 3b3d
000003a0: 0fcd 293e ca5f 5dbe 907c cabc 34d6 503e
000003b0: faab fd3e 32e6 eb3c 8f93 833d 1624 a13d
000003c0: 5861 113d 3660 0a3d db7e 79bc cf8a fe3c
000003d0: 25fe 9f3d 734c 8d3e 9c58 cabc d31e 3e3d
000003e0: 1386 f0bd 8aa4 d6bd a0b9 d63d 1aa6 e43e
000003f0: 53fa 3fbe b551 863e 6d02 fc3d 1188 c9bd
0.33643097 -0.07166661 0.47143725 0.09874544 0.0023443932 0.019670451 0.31118995 0.3176916
0.11514052 0.06519502 0.22824052 -0.010226917 -0.04408386 0.030456906 -0.1516962 -0.0060689235
-0.04423307 -0.27796084 -0.29676005 0.06705061 0.0038968308 -0.03966794 0.054736312 0.0158101
0.04299544 -0.067693464 -0.022066817 0.14768088 0.006010957 -0.0020060227 0.008477086 0.03452288
-0.010936368 0.16834927 0.1727674 0.15171742 0.16032341 -0.4498184 -0.076209724 -0.11231294
-0.04112895 -0.15429382 -0.21908943 -0.05503289 -0.3273534 -0.15330678 -0.0050008036 -0.08908391
-0.07063909 0.077734835 -0.18764623 -0.08596781 0.11720682 0.17554718 -0.40767413 -0.019894002
-0.03815247 0.3125939 -0.14475033 0.15171652 -0.38582784 -0.072206885 -0.021866394 -0.022095297
-0.18354997 0.14715426 0.11739997 -0.13073745 -0.050159704 0.14951017 0.08238663 -0.3448574
-0.25425732 0.15426764 -0.055631388 0.031774495 -0.11211724 -0.21788242 0.033019662 -0.37103426
0.10250058 -0.06654535 -0.31354886 -0.03060711 -0.08194393 0.080732144 -0.08335272 -0.17301393
0.13516212 -0.037988693 0.29637653 0.13627869 -0.0048632943 0.11639661 -0.076811895 -0.17105478
-0.30287975 0.13625698 0.19327624 -0.07898319 0.07179618 -0.069797575 -0.014953891 -0.13067973
-0.2654221 0.11378575 0.21445027 0.02828855 0.04507849 -0.05392253 0.31463608 0.11225325
0.14317124 -0.14026037 0.21598954 0.019159047 -0.08426186 -0.061406173 -0.0048282025 0.007983423
-0.23333268 -0.1334926 0.042946044 -0.019001855 -0.032469794 0.11814251 0.04755023 0.043947954
-0.07621509 -0.18212707 0.11659367 0.04946419 0.14125751 0.18711749 -0.12081438 0.06854668
-0.020145742 -0.0915164 -0.018925054 -0.005786677 -0.057598174 0.054130692 0.113652036 -0.0031620257
-0.13218744 0.14665662 0.14668459 -0.2394421 -0.04174383 -0.057850488 0.038973056 -0.11675531
-0.032780923 0.029704142 0.023282763 0.295469 0.12102415 -0.033235386 0.10263253 -0.036490377
0.33249497 -0.3354003 -0.046198394 0.06906577 0.17419434 -0.10508821 0.10429051 0.15512288
-0.262405 -0.024130223 -0.13299522 -0.17580007 0.024766644 0.099640384 0.066436015 0.18974924
0.014118008 0.49605784 -0.05196653 -0.080630556 0.07677493 0.020970676 -0.04101542 -0.0055320337
-0.120633125 -0.21928856 -0.026312318 -0.075918175 0.2440002 0.10891289 0.15432829 -0.036139883
-0.21161947 -0.028943352 -0.6139064 -0.0073460476 -0.01658715 0.10196281 -0.20265265 -0.0128151905
-0.043877386 -0.028573506 0.17715003 0.07668919 0.24100621 0.061415035 0.18487145 -0.091803275
0.051310625 0.17254466 0.089116804 -0.037715312 0.22341213 0.69159967 0.22952212 -0.17480507
-0.058241304 -0.33549228 0.45026252 -0.108543865 0.062049605 0.16974254 -0.088405035 0.11654603
0.1796206 0.29703498 -0.021248462 0.089372836 -0.065477766 -0.06614924 0.1565517 0.045718003
0.1658213 -0.21618572 -0.0247176 0.20394212 0.4954527 0.02879629 0.06424629 0.07868211
0.035493225 0.03378316 -0.015227999 0.031072048 0.07812146 0.2759739 -0.024700455 0.046416115
-0.11744323 -0.10480602 0.10484624 0.44657975 -0.18747835 0.26234213 0.1230515 -0.09840406

model.l1.bias f4 [30]
00000000: a87f c73b 01bc f6bb bf73 2fbd af73 f13a
00000010: e0e7 333c d610 52bd 2e91 84bd 3752 b5bc
00000020: 9ff1 78ba 42a7 5abd aa35 51bb 4fcc bdbd
00000030: 7609 5cbc 419b 41bd 8b0a afbc a9ec 2bbc
00000040: ce6f c9bc 1eb6 92bc 19be 32bd 335b 5bbd
00000050: c16a e9bc a66a 02bd 3e84 85bd b110 15bd
00000060: 0698 f3bc 05a1 24bd a9ce 6bbc 8ee6 adbd
00000070: 071f 1a3b 4ab8 00bc
0.006088216 -0.007529736 -0.042834993 0.0018421317 0.010980576 -0.051285587 -0.06473003 -0.02213393
-0.00094964536 -0.053382166 -0.0031922855 -0.092674844 -0.01342999 -0.047267202 -0.021367332 -0.010493436
-0.024589445 -0.017909106 -0.043638323 -0.05355377 -0.028493287 -0.03183999 -0.06519364 -0.03639287
-0.029735576 -0.040192623 -0.014392533 -0.084912404 0.002351703 -0.007856438

model.l2.weight f4 [1, 30]
00000000: 7405 05c0 3ff2 923f ccad 823f 3fd9 af3f
00000010: 8f20 163e d69c acbf 3996 e1bf 527a 893f
00000020: 4f66 9f3e b46e d03f b0e8 e1bf 0b85 4b3f
00000030: 47e1 9dbf 6f1d 77bf 2ce4 d7be ceff 79bf
00000040: d50e e1bf 1564 5d3f 6096 3d3f 2526 72bf
00000050: d9aa fcbf 966b 11bf c293 febf aca0 c8be
00000060: bd84 04c0 ce33 99bf 664d 8ebf 635d 0240
00000070: e660 59be 3477 36be
-2.0784578 1.1480178 1.0209289 1.3738173 0.14660858 -1.3485363 -1.7623969 1.0740454
0.31132743 1.6283784 -1.7649136 0.7949988 -1.2334374 -0.9652929 -0.4216627 -0.9765595
-1.7582651 0.8648084 0.7405758 -0.94589454 -1.9739639 -0.5680479 -1.9888842 -0.39185083
-2.0706017 -1.1968935 -1.111737 2.0369499 -0.2122837 -0.1781891
