model_save/raw-fit-3.pth (torch, 260225 bytes, 3 tensors)

model.0.weight f4 [200, 320]
000000 4c c6 56 3b e7 2c 91 bb fe 9f 24 bc 6d d9 ad 3c
       0.0032772003 -0.0044304016 -0.010047911 0.02122184
000010 a1 00 2f 3d eb 99 14 bd f0 b5 e5 bc fd b3 4b bd
       0.04272521 -0.0362796 -0.028040856 -0.049732197
000020 10 96 21 bd 3a 2f a6 bc 6c ad 15 3b a4 bc cf bc
       -0.03944975 -0.020286191 0.0022838963 -0.025358506
000030 35 96 b1 bc ad 08 95 bd c0 1f 0d bd 27 76 22 3d
       -0.02167807 -0.072770454 -0.034454107 0.03966346
000040 7a 71 93 bc 1c ad 17 3b 8d 08 85 3c 1d da 54 3d
       -0.017998446 0.0023143953 0.016239429 0.05196582
000050 f6 24 a7 3c b3 32 d7 bc 9e 34 af bc 5d 8c 85 bd
       0.020403367 -0.026269292 -0.021387395 -0.06520913
000060 54 06 6d bd d4 06 b9 3b 52 1c 6d bd c2 ec a7 3a
       -0.057867363 0.005646566 -0.057888336 0.0012811648
000070 72 e3 d9 bc dc 83 f1 3c 9b c2 95 bc 20 ad 91 3c
       -0.026597712 0.02948182 -0.018281272 0.017782748
000080 5f 20 4e 3b a8 6e 29 bd 06 22 02 bb 61 db 8a bc
       0.00314524 -0.041365296 -0.0019856705 -0.016950311
000090 a4 25 66 bd 5b 5b f9 3c 9a f5 35 3d 5e dc 2d bc
       -0.05618824 0.03043907 0.044423677 -0.010611622
0000a0 19 04 41 3c 9d 35 dc 3c ad e1 40 bd 7d 93 49 bd
       0.011780762 0.026881034 -0.04709022 -0.04921292
0000b0 77 8e a9 bc 34 da 11 bd a8 e7 8a b9 e3 8e ed bc
       -0.020697815 -0.035608485 -0.00026494008 -0.028998798
0000c0 5e 9f 4d bd 2e ac 16 bd 7c e4 3f 3c fe 3a af 3c
       -0.050200813 -0.036785297 0.01171219 0.021390434
0000d0 67 2b d2 bb f0 e1 00 bc 8f f5 19 bc 01 c2 9d bc
       -0.0064138654 -0.007866368 -0.009396925 -0.019257547
0000e0 82 f2 4e 3d 68 ca 3f bd 06 52 3b bb 2f 41 1d bd
       0.050524242 -0.04682389 -0.0028582825 -0.038392242
0000f0 8e 60 9e 3d 27 2f d3 3c fd ce 11 bd 6a 3d 5d 3d
       0.0773326 0.02577932 -0.03559779 0.054013647
000100 d9 7e b0 3c 6c 3e 84 bd 6e ab ee bc 21 a1 e5 bb
       0.02154486 -0.064572185 -0.029134478 -0.0070077335
000110 cc 12 25 3d 99 c9 1d bd 17 ef eb bb d6 65 82 3d
       0.04030113 -0.038522337 -0.0072001326 0.0636708
000120 43 8e 92 3d 50 63 33 bc 58 d2 c8 3c 95 90 56 3c
       0.071560405 -0.010948971 0.024514362 0.0130959945
000130 6f 5c 76 bd 04 ad 6c bd cd c9 7b bc ea 88 67 bd
       -0.060146745 -0.057782188 -0.015367937 -0.056527056
000140 21 eb c2 3b 51 ec d7 3c 7a 19 35 bd 2b 8c 00 3c
       0.0059484397 0.026357802 -0.04421375 0.007845919
000150 a1 9d 0a bd f8 eb 69 bd 95 f0 99 3c e8 f7 34 3d
       -0.033841733 -0.057109803 0.018791476 0.044181734
000160 7d 60 72 bd e8 fe 17 bd 4a 06 6a 3b 80 11 94 3c
       -0.05917405 -0.037108332 0.0035709315 0.01807475
000170 9d 25 24 bd c1 f4 44 bd cf fa cc bb d7 22 5e bd
       -0.040074933 -0.048084978 -0.0062554847 -0.054232445
000180 fd f1 26 3d 19 2e 0e 3d 97 5d 77 bc 97 7a 64 3c
       0.04075812 0.03471193 -0.015097997 0.013945243
000190 3b 70 51 3d 46 f4 65 bd d7 db 06 bd 2c 13 73 3d
       0.051132422 -0.05614116 -0.0329245 0.059344456
0001a0 c0 91 31 3c 3d 12 01 3d 76 63 81 3d 56 88 2f 3d
       0.010837972 0.031511534 0.06317799 0.04285463
0001b0 ba ad 51 3d 12 a7 d2 bc 32 d9 84 bd 8e 67 ad bb
       0.05119107 -0.025714431 -0.06486739 -0.0052918857
0001c0 da bb b1 bc 1c 90 04 bd d2 f0 e7 bc 19 07 0b bd
       -0.02169602 -0.032363996 -0.028313074 -0.033942316
0001d0 c6 d2 1d 3c cb 02 39 bc 15 ec 68 3d 6b 26 06 bd
       0.009632772 -0.01129217 0.05686577 -0.032751482
0001e0 42 18 05 3c 1f 7f c5 bc f1 95 a8 3c e5 48 70 3c
       0.008123459 -0.024108468 0.02057931 0.014665817
0001f0 8b ff d4 bb 2b a3 4e bd 02 41 da bb 69 9d 2b bd
       -0.0065001897 -0.050448578 -0.0066605816 -0.041898165
000200 4b 8a f2 3c 96 a5 ad 3c a1 91 50 bd 03 0d da 3c
       0.029606959 0.021197122 -0.050920133 0.026617533
000210 12 97 ff 3c e0 de 82 bc 3b 81 b2 bc a6 18 bf 3d
       0.031199966 -0.015975416 -0.021790138 0.09330873
000220 2f e2 0a bc 39 7a 84 bd 33 b2 16 3d 1a b0 fe bc
       -0.008476778 -0.064686246 0.036791038 -0.031089831
000230 1f 15 66 bc 64 00 e6 3c 6a aa 37 bd ce dc 9c bc
       -0.014043122 0.028076358 -0.044840254 -0.019148257
000240 1c 78 40 bc c1 b8 68 3c cb 25 c6 bb c7 ef d0 bc
       -0.011747386 0.014204205 -0.0060469857 -0.02550496
000250 af 61 0d bd c5 99 51 3a 63 57 1f bc 23 f9 06 3b
       -0.034516986 0.0007995631 -0.009725424 0.0020595274
000260 58 55 cd bc 1e 1c 3f 3b 60 e4 4e bd 16 21 a2 3b
       -0.02506511 0.0029161046 -0.050510764 0.004947792
000270 76 f1 a5 3c 82 8f be 3c 17 59 3f bd 4c 49 a1 3b
       0.02025674 0.02326179 -0.046715822 0.0049220677
000280 4d bc 15 3d 43 8a 32 3d 68 bf 22 3d 72 62 14 3d
       0.03655653 0.043588888 0.03973332 0.036226697
000290 fb 58 e9 3c cd 3d 0f 3c 46 22 8d bd 79 f7 12 bd
       0.028484812 0.008742762 -0.06891303 -0.03588054
0002a0 bf 13 65 3c cd 6a 79 3d 90 d7 b4 bb 81 5e 38 bb
       0.013981759 0.06089287 -0.005518861 -0.00281325
0002b0 45 01 dd b9 c3 9e 4c bd 51 81 2e bd d8 07 87 bc
       -0.0004215335 -0.049956094 -0.042603794 -0.016483232
0002c0 93 af 58 3d 4b 60 30 3a b6 89 3f bc 8b 67 6f 3d
       0.052901816 0.0006728216 -0.011690548 0.058448356
0002d0 01 1f 11 bd b0 e0 24 3d dd b7 b2 bc b0 43 13 bd
       -0.03542996 0.04025334 -0.021816188 -0.035953224
0002e0 e3 7b 66 3d 8c 6b 6f bc d9 3d 3d 3d d8 63 a2 bb
       0.05627049 -0.0146130435 0.04620156 -0.00495575
0002f0 78 df d0 bc 08 27 7c bd f1 49 2e 3d d3 46 43 bd
       -0.025497183 -0.06156066 0.042550985 -0.047674965
000300 50 0f 25 3d ab df a7 3c c0 7e 0d bd 96 f3 6c bd
       0.040297806 0.020492395 -0.034544706 -0.05784949
000310 00 35 54 3d e1 b2 f0 bc 3f e2 88 bc d6 ba 28 bd
       0.051808357 -0.029382171 -0.016709445 -0.041193806
000320 7f 84 38 3d 32 53 15 3d 09 09 63 bb e0 91 c1 bc
       0.045048233 0.036456294 -0.0034642837 -0.023629129
000330 9c 92 6e bd e6 89 af 3c 17 79 53 3a 2b 8c a6 3a
       -0.058245286 0.02142806 0.0008067055 0.0012706568
000340 4a b8 6f bd 9a 7f 68 bd bc 8e b0 bb df 4c 5f bd
       -0.05852536 -0.056762315 -0.005388109 -0.05451667
000350 a4 e5 ea bc 01 f4 32 bd 77 a1 d7 bb f6 69 29 bd
       -0.028673954 -0.04368973 -0.0065805274 -0.041360818
000360 7e 22 be bc bc ac cf 3c 69 21 86 bc c6 4b e5 3c
       -0.023209807 0.02535092 -0.016373353 0.027990233
000370 22 20 19 b9 1c 1e 17 bd e2 2d 51 bd d0 69 25 3d
       -0.00014603187 -0.03689395 -0.051069148 0.040384114
000380 38 f8 e6 3c 0d 49 cf 3c 35 4a b3 3c 88 d2 0b 3d
       0.028194532 0.025303388 0.02188597 0.034136325
000390 d0 7a 87 3a 78 e2 08 bd bf d2 76 bd c9 28 86 3d
       0.0010336284 -0.033419102 -0.060259577 0.06550748
0003a0 b1 3d 6b bd 6e 05 3f 3d b7 fa 52 3d 45 eb 9c bd
       -0.05743188 0.046636038 0.05150863 -0.076620616
0003b0 a1 43 d6 bc b2 b2 fb bc ee 98 5b bd 4b 13 fb bc
       -0.026155295 -0.030724857 -0.053612642 -0.030648848
0003c0 68 69 51 3d 19 db 1f bd d2 ec d2 3c 50 01 65 3c
       0.051125914 -0.039027307 0.02574769 0.013977364
0003d0 ec 1e 81 bc 2a 72 9b bc ce 93 13 bd 06 5f 5e 3c
       -0.015761815 -0.018975336 -0.03602963 0.01357246
0003e0 4a 8c 23 bd 9c d3 c8 3c fc 68 16 bb 54 3e 67 bc
       -0.039928712 0.024514966 -0.002295076 -0.014113981
0003f0 a5 b2 1d bd 70 3d 51 bc f6 99 4c bd 33 79 5c 3b
       -0.038500447 -0.0127709955 -0.049951516 0.0033641576

model.0.bias f4 [200]
000000 36 d1 a7 3b 83 cc c8 3c c0 0b d4 3b 52 e5 cc bc
       0.0051213754 0.024511581 0.0064711273 -0.025011692
000010 a6 42 9e 3b ad 07 3f 3d cb ec d5 3c 8f 6a 2c bd
       0.0048297225 0.04663818 0.026113888 -0.04209381
000020 d4 1a 07 bd ff 07 3a 3d 89 f6 25 3d 31 c8 e5 bc
       -0.03298457 0.045417782 0.040518317 -0.02804956
000030 ee 24 82 3c d2 77 5a bd bc c8 df 3a b2 75 32 3d
       0.01588675 -0.053336926 0.0017073373 0.043569274
000040 ae 9f 00 bc 20 b3 dc ba 67 df 6c bc b2 2d 14 bd
       -0.007850571 -0.0016838051 -0.01445756 -0.03617639
000050 3f aa 21 bc 3b b1 dc bc 25 fe 0b bd b2 a0 10 bd
       -0.00986725 -0.026939979 -0.034177918 -0.0353095
000060 42 2c c7 bc 36 cb 47 3d 0b a1 10 3c ff 8a 3d 3d
       -0.024313096 0.04877778 0.008827458 0.046275135
000070 11 fc 2b bd 7a 71 49 3d e9 1e d0 bc a6 a1 c6 bc
       -0.041988436 0.049180485 -0.025405364 -0.024247002
000080 11 24 c8 3c 78 ad 11 3d f3 de 71 bb 3c 22 d2 bc
       0.02443126 0.035565823 -0.003690657 -0.02565109
000090 97 fe 2c bc f6 34 69 3d 2c 70 90 3c a1 d3 a3 3c
       -0.010558746 0.056935273 0.017631613 0.019998373
0000a0 21 fc 4d bd 77 52 02 bd f7 3a a3 3c 38 e0 c0 bc
       -0.050289277 -0.031816926 0.019925578 -0.023544416
0000b0 6d 2d 29 bc 97 83 13 bd 9e 83 31 bd eb 10 e5 3c
       -0.010325772 -0.036014166 -0.04333841 0.027962169
0000c0 38 21 ee 3c c0 4d f0 ba 88 c2 a9 bb 00 ec d7 3b
       0.029068574 -0.0018333718 -0.0051806606 0.0065894127
0000d0 c4 95 19 bd bd 74 70 bd 57 db b4 bc 16 02 3b 3d
       -0.037496343 -0.05870508 -0.022077246 0.045656286
0000e0 82 f0 34 3d 5b c3 e6 bc c8 9c 24 3c 28 88 3f 3c
       0.04417468 -0.028169325 0.010047145 0.011690177
0000f0 1f 85 52 bd 64 e8 9a bc 25 d3 9a 3b a4 cf 09 bd
       -0.051396485 -0.01890964 0.0047248774 -0.033645287
000100 b6 42 3a bd 0b 27 e2 3c 80 e4 2a bd c7 d1 09 bd
       -0.045473777 0.027606508 -0.04172182 -0.033647325
000110 91 97 e3 bc 6e 11 c7 bc 48 8f 32 3d 70 ad 55 3c
       -0.027782233 -0.024300303 0.043593675 0.013041839
000120 68 15 bd bb 9f fa 4a bd 15 38 2e 3d 16 61 ad bc
       -0.005770374 -0.049555417 0.042533953 -0.021164458
000130 0f 9a 4a bd c6 fc 23 3d 9c ba 3e bc fd bb d3 3c
       -0.049463328 0.040035985 -0.011641171 0.025846476
000140 84 87 8e bb 7c f5 c5 3c 66 b2 af bc 54 4b 11 3d
       -0.004349651 0.024164908 -0.021447372 0.03547223
000150 04 2a 41 3b 95 b5 bb ba 68 7a a5 3c 88 bd 26 3c
       0.0029474506 -0.0014321083 0.02019997 0.010177024
000160 eb 21 eb 3b 63 9a 26 3c f1 6d 71 bb f7 d2 47 3a
       0.007175674 0.010168645 -0.0036839212 0.0007622684
000170 e6 50 ab 3c bb 5b 57 bd 00 58 bf 3c 30 bf ab bc
       0.020912599 -0.052577715 0.023357391 -0.020965189
000180 33 d8 58 bd f3 c1 00 3d a8 a5 d1 3b 85 04 0a 3d
       -0.05294056 0.031434964 0.0063979216 0.033695716
000190 91 aa 6d 3c fe d9 89 3b 98 94 f8 bb 2a 62 0c 3d
       0.014505998 0.004206895 -0.007586073 0.034273304
0001a0 e8 e2 57 bd 96 3f 17 bd c1 22 8b ba 01 74 6c bd
       -0.05270663 -0.036925875 -0.0010615216 -0.057727817
0001b0 61 14 06 bd 8d bb cc bc ed 37 ce 3c fb b1 2e bd
       -0.03273428 -0.024991775 0.025173152 -0.042650204
0001c0 7e 5d c2 3b 36 72 5a 3d 9b e9 fa 3c 99 85 2e bc
       0.0059315553 0.053331576 0.03062897 -0.010651969
0001d0 a8 de 07 3d aa d3 32 3d 67 2d 0b bd 9a e8 db bc
       0.033171326 0.04365889 -0.033978846 -0.026844312
0001e0 c4 ba 1a bd 0b a5 bf bb 92 59 7d 3c d4 50 4c 3d
       -0.03777577 -0.005848532 0.01546325 0.04988177
0001f0 5e f6 7a ba f5 5f f5 bc 41 91 4e bd f6 a7 1a bd
       -0.0009573455 -0.029952982 -0.050431494 -0.037757836
000200 9e 9a 29 bd 86 91 94 bc 4f 4b 0e bd 20 4d 2f bc
       -0.04140722 -0.018135797 -0.03473979 -0.01069954
000210 9b 37 e7 3b f7 bf 6a 3b 8f c0 08 bd a5 73 d7 bc
       0.0070561892 0.0035819986 -0.033386763 -0.02630026
000220 4f 48 4c 3d fa 4a 26 bd f2 cd 3c bd 63 18 fc bc
       0.049873646 -0.040598847 -0.046094842 -0.030773347
000230 a0 6a 42 3d d0 cf 2f 3d e0 2c a1 ba 68 b6 5d bd
       0.047464967 0.042922795 -0.0012296699 -0.054129034
000240 c1 ff 21 3d ac 19 4a bd 2c 4a 03 3a 48 29 05 bd
       0.039550547 -0.04934089 0.0005008306 -0.032510072
000250 4d 46 12 3d 5c 80 f9 bc e1 6a 20 3d ce c6 42 bd
       0.035711575 -0.030456714 0.039164428 -0.047552876
000260 d0 26 0c bd 56 3d 29 3d 10 a4 37 3c 54 94 f3 3c
       -0.034216702 0.04131826 0.011208549 0.029733814
000270 74 69 4c bc e3 30 44 3d cb 3d dd 3c d8 06 88 bb
       -0.012476314 0.047898185 0.027007004 -0.0041512065
000280 16 22 51 bc a6 aa 5c 3d 64 af 47 3d f2 40 22 bd
       -0.012764474 0.05387368 0.04875125 -0.039612718
000290 a5 26 07 bc 3c 15 4e 3d 25 ff 60 bd 81 1a 4f bd
       -0.00824896 0.05031322 -0.054930825 -0.050562385
0002a0 3a 99 f3 3c 28 ab f4 bc 4e e8 01 bd aa f3 22 3d
       0.02973615 -0.02986677 -0.031715684 0.039783157
0002b0 54 d2 92 bc 09 51 19 3d 5c 00 71 bc 3a c1 3d bd
       -0.017922558 0.037430797 -0.014709558 -0.046326853
0002c0 f0 a3 ed 3b 8e a5 4c bc c8 17 08 3d ab 4e 95 bb
       0.007252209 -0.012490643 0.033225805 -0.004556497
0002d0 90 53 fd 3b b3 5c 05 3c 05 22 5f bd ac 0e 42 bc
       0.0077309087 0.008139777 -0.054475803 -0.011844318
0002e0 a5 8e b7 bc b2 ee 74 bc 43 34 8a bc 24 c3 98 bc
       -0.022406885 -0.0149494875 -0.016870623 -0.018647738
0002f0 86 a4 3e bd 19 11 13 3a d0 84 1d bb 3a aa 49 bd
       -0.04654362 0.0005610153 -0.0024035461 -0.049234606
000300 f8 65 08 3c b6 44 ac bc ca 37 82 3c 6b a9 e3 3c
       0.0083250925 -0.021028858 0.015895743 0.027790746
000310 84 8b 18 3d 99 3a 74 bc c4 9b c6 bc f8 45 e6 3c
       0.037242427 -0.014906549 -0.024244197 0.028109536

model.3.weight f4 [1, 200]
000000 59 30 11 3d 26 e9 b1 bc 90 d4 c0 bb 76 fd 57 bd
       0.0354465 -0.02171762 -0.0058847144 -0.052731954
000010 ef 04 f6 ba 77 22 a6 bc 66 e6 4c bd 02 6e b7 bd
       -0.0018769781 -0.020280106 -0.050024413 -0.08956529
000020 7c 5d 31 3d d2 3e 80 3d 6d bb 6b bd 1f 60 13 bd
       0.043302044 0.06261982 -0.05755179 -0.03598034
000030 c8 be 53 3d c0 a7 29 bb b8 39 35 bd 95 d1 91 3c
       0.051695615 -0.002588734 -0.044244498 0.017800132
000040 7a 2f 9f bb cd 67 80 bd 37 2f 82 3d 43 68 85 bd
       -0.0048579546 -0.062697984 0.06356662 -0.06514027
000050 a6 3b 34 bc 3b 39 74 3d 0b b4 88 bd 4b b3 57 3d
       -0.011000549 0.05962489 -0.066749655 0.05266122
000060 f9 52 ca 3c 0a 71 9e 3c eb dd d9 3c 9f a3 a1 bc
       0.024697768 0.01934101 0.026595077 -0.01973134
000070 1e 19 6c 3d 98 d7 70 bd 03 c3 c8 bc 7d 1e 8a 3d
       0.05764114 -0.058799356 -0.024507051 0.067440964
000080 d8 6e 0d 3d 73 db 02 bd 57 ec 3e bc a6 99 20 bd
       0.034529537 -0.031947564 -0.0116530275 -0.03920903
000090 0a 77 32 3d 1f b9 85 3c a7 36 56 3d fa 4f 23 3d
       0.043570556 0.016323624 0.052298214 0.039871193
0000a0 c2 6c 3a 3d 91 46 9c bd 92 f1 21 3d 49 cd 0d 3d
       0.045513876 -0.07630647 0.03953702 0.034619603
0000b0 b7 e5 a1 bb bd 32 60 3d 63 03 16 bd b9 da 8b 3c
       -0.004940714 0.054735888 -0.036624324 0.017072069
0000c0 09 9c 0f bd 58 09 12 3d 62 88 66 3d 4d e0 7b bd
       -0.035060916 0.035653442 0.05628241 -0.061493207
0000d0 5f a0 71 3c 69 de c9 3c e2 7f 90 3d 30 6b b1 bb
       0.014747708 0.024642186 0.07055642 -0.005414389
0000e0 9e 84 2d 3d 22 91 87 bd e0 9e 58 3b b4 fa 2d 3d
       0.0423628 -0.06619479 0.0033053681 0.042475417
0000f0 26 f8 59 bd 02 d2 84 3d eb 2f 67 bc 60 5a 77 3b
       -0.05321517 0.06485368 -0.014110546 0.0037743077
000100 94 4a be bc fd ca dd bc a1 02 cf 3c 08 3b 17 3d
       -0.023228921 -0.027074331 0.025269808 0.03692153
000110 a4 cf 96 bd a8 e2 0b bd 93 9e 8f bd 4c d7 ff 3c
       -0.07363823 -0.034151703 -0.070126675 0.031230591
000120 40 9b 27 3b ba 7e 75 3d 2c 4a 23 bd 42 04 09 3d
       0.0025574714 0.05993531 -0.039865658 0.033451326
000130 8a 95 8c bb be d3 fb bc 65 7e 46 3d 7b 4f 67 3d
       -0.0042902874 -0.030740615 0.048460383 0.056472283
000140 a5 ad d1 bc 17 8d b4 b7 80 ef 52 3b 28 ef e7 bc
       -0.025595495 -2.1523372e-05 0.003218621 -0.02831228
000150 62 53 df 3c 1e 2c 06 bb f0 f6 01 3c f6 f4 a1 bc
       0.02726144 -0.0020473073 0.00793241 -0.019770127
000160 e9 4f 0c 3d 0d 88 84 3d f5 9b 62 3d 94 60 07 bd
       0.034255896 0.06471262 0.055324513 -0.03305109
000170 47 6a 56 3d 44 e8 59 3d c0 0e be 3c fb 44 65 3d
       0.052347448 0.05320002 0.023200393 0.055973988
000180 4d 32 91 3d d0 f1 d1 bd c6 ec 61 3d ef e9 6f 3d
       0.07089672 -0.102512 0.055157445 0.058572706
000190 54 52 d7 3c 9b d1 b8 3c 90 86 71 3c 44 74 c6 3c
       0.026284374 0.022560885 0.014741555 0.024225362
0001a0 d4 7a d0 3c af 5f dd 3c fc 17 4e 3c 85 01 36 bc
       0.025449194 0.027023165 0.0125789605 -0.011108761
0001b0 0d 4c ff bc 57 91 68 3c 9e de 37 3d 6e 1f 27 bd
       -0.031164194 0.014194808 0.04489004 -0.040801458
0001c0 20 3c 78 bc 34 8b 55 bd 96 1c e9 bd 49 eb aa 3c
       -0.015151054 -0.052134708 -0.113824055 0.020864146
0001d0 05 fa c8 bd 39 88 6d 3d d9 af 2a 3d 59 76 be 3c
       -0.098133124 0.05799124 0.041671608 0.023249792
0001e0 f0 85 d6 3b ef 42 c3 bc 6f f7 a0 bd 18 a9 80 3d
       0.0065467283 -0.023835627 -0.07859694 0.06282252
0001f0 21 a4 b8 bc 65 61 65 3d 6a 4d db bc 7a de f9 3c
       -0.0225392 0.056001086 -0.026770312 0.030501593
000200 b9 e3 f2 3c 1e 42 8c bd 70 70 a9 3c cc 2c a6 3c
       0.029649602 -0.06848548 0.020683497 0.020285033
000210 2b 8e be bc 04 b2 3e bc 84 5f 09 bd 38 44 4d bd
       -0.02326115 -0.011639122 -0.033538356 -0.050113887
000220 5a f5 1b bd 7e b1 84 bd 3a 34 11 bd 62 fc 79 3d
       -0.038075782 -0.064791664 -0.035450198 0.061031707
000230 fd 7f 1f 3c 19 d6 23 bc fe 42 37 3d 04 db dd 3b
       0.009735105 -0.009999775 0.044741623 0.0067704935
000240 e8 95 7f bc 69 f3 22 bc 84 17 e0 3c 75 57 69 3d
       -0.015599705 -0.009945729 0.027354963 0.05696817
000250 4a cc b1 3c f2 10 c1 bc 70 41 ce bc 68 54 86 bd
       0.021703858 -0.02356765 -0.025177687 -0.06559068
000260 56 4e 19 3d 20 74 b2 bc 83 26 82 3d 04 10 c7 3c
       0.037428223 -0.021783888 0.06355002 0.024299629
000270 7f 90 0a 3d 14 07 87 bb ca d8 21 bd 18 3a c7 3c
       0.03382921 -0.004120717 -0.039513387 0.024319693
000280 cd 13 52 3d cc 91 e9 3c 80 61 45 3c 8a b0 02 bd
       0.051288415 0.028511904 0.012047172 -0.031906642
000290 25 57 21 3d 44 37 a7 bb 6a 97 6d bd de 2f 6d bc
       0.039389748 -0.0051030237 -0.058005728 -0.014476744
0002a0 62 6f 2b bd bc 41 8f 3c 29 b6 8b bd 85 3e 8d 3c
       -0.04185427 0.0174874 -0.06821854 0.017241726
0002b0 32 ed b1 3c 22 8e 8f bc 3a 1d 3f bd 87 46 25 bd
       0.021719549 -0.017523829 -0.046658732 -0.040350463
0002c0 b9 1b 87 3d b9 4f c9 3c 82 c9 a6 3c 8a 01 f4 3c
       0.065970846 0.024574148 0.020359758 0.02978589
0002d0 44 16 9f 3c df 76 8c 3d 0e 30 7d bd be 80 f5 bc
       0.019419797 0.0685861 -0.061813407 -0.029968616
0002e0 d8 4b c0 bc b8 e6 c1 bb 21 e3 53 3d 9c ac 53 bd
       -0.023473665 -0.0059173964 0.05173028 -0.051678285
0002f0 04 3f 2f bc d3 e9 35 bd e0 cd 15 3d 5a 46 82 bd
       -0.010696176 -0.044412445 0.03657329 -0.06361075
000300 c2 c8 ad bc f4 67 0b 3d 97 19 19 bd 7d 1b 78 3d
       -0.021213893 0.034034684 -0.03737792 0.06057309
000310 1a 87 43 bd fa 3e 0d bc 1f be 8e bd dc 70 d7 3c
       -0.047736265 -0.008620972 -0.069698565 0.026298933
