model_save/v1-dsm12-lite.pth (torch, 260041 bytes, 3 tensors)

model.0.weight f4 [200, 320]
000000 a4 b5 85 bb 60 16 80 3c 98 57 f0 3c 83 35 19 3d
       -0.004080491 0.01563567 0.029338643 0.03740455
000010 4e 27 60 bc 6a dc 50 3d 26 6b 8f 3c 78 2e e3 bc
       -0.013681246 0.050991453 0.017507147 -0.027732119
000020 54 2f 38 bd 5d 4e aa bb e0 09 5a bc d0 69 55 3c
       -0.04496701 -0.00519733 -0.013308018 0.013025716
000030 25 74 39 3d 1b 4e 42 bd a1 38 90 3c 87 f2 2d 3d
       0.04527678 -0.04743777 0.017605128 0.04246762
000040 95 ee 3a 3d 3c 91 c7 3c 53 14 8f 39 ac 53 3b 3b
       0.045637686 0.024361245 0.00027290228 0.0028583808
000050 e0 a8 4f bd 27 33 40 3d ed ca 3a bc 1b 87 16 3d
       -0.05069816 0.046923783 -0.01140092 0.03674994
000060 d9 d2 b6 3c 99 af bb bc 65 32 bf bc 45 94 57 3c
       0.022317337 -0.02291088 -0.02333946 0.013157909
000070 5b 62 d2 3b 28 4e 41 3c 5f 74 75 3b 54 81 69 3c
       0.0064204163 0.011798419 0.0037453396 0.014252026
000080 20 fe 47 3d 5c 98 25 3d 18 7f 3a 3d 0e 86 7f 3d
       0.048826337 0.040428504 0.045531362 0.062383704
000090 5c 87 9f bc 4e 99 15 bd 4e 5a 39 bd 77 cb 41 3c
       -0.019473724 -0.036523156 -0.045252137 0.011828295
0000a0 d0 2d a8 bb 0c 55 1c 3d af 93 c7 bb 01 0a 57 bd
       -0.0051324144 0.038167045 -0.0060906033 -0.052499775
0000b0 bd 53 93 bc b3 fb 0e bd a2 e7 d5 3c b0 b5 4f 3d
       -0.017984265 -0.034908008 0.026111428 0.05071038
0000c0 86 23 65 3b 0f 8b a0 3c 1b 90 51 bd 88 8f 85 bc
       0.00349638 0.019597558 -0.05116282 -0.016303793
0000d0 a4 86 4d 3b 1c 72 86 3c eb 8a 28 3d f1 22 4f 3d
       0.003136077 0.016411833 0.041148107 0.050570432
0000e0 84 4d 1a bd 90 94 56 3d a8 7c 8f 3b 57 e9 31 3d
       -0.03767158 0.052387774 0.004378874 0.04343542
0000f0 5a 24 f1 bc 60 51 42 3c 93 1a c8 bc 10 06 7e 3d
       -0.02943628 0.011860222 -0.024426734 0.0620175
000100 9d 04 3b 3d 11 18 e1 3c a4 2b bb 3c 22 ea 93 bb
       0.045658696 0.027477296 0.022847958 -0.004513995
000110 db 9b ac 3c be 36 11 bd 3e ac e8 3c 31 24 ac bc
       0.021070411 -0.035452597 0.028402444 -0.021013351
000120 eb 68 f0 bc d5 4d 8d 3c 22 c6 1c 3d 5e 16 57 bb
       -0.029346904 0.017249027 0.03827489 -0.0032819728
000130 28 d3 7b bc 7b 6f 64 3d 8b 34 1d bd f5 1a e7 3c
       -0.015370168 0.05577038 -0.038380187 0.028211096
000140 0d 54 73 bd 02 d3 b0 3b ec d7 ae 3c 92 52 af 3c
       -0.05940633 0.005396248 0.021343194 0.021401677
000150 99 39 0c bd b1 c6 5b bb 85 b7 d9 3b 21 64 2d 3c
       -0.034234617 -0.0033535177 0.0066441917 0.010582955
000160 d5 70 a2 bc e8 d4 0b 3d 2d f1 a0 bc 71 af c8 3b
       -0.019829193 0.03413859 -0.019646252 0.00612443
000170 61 6d d6 3c 92 15 d5 3c 35 fb 39 3b ab f8 18 3d
       0.026175203 0.026011262 0.002837849 0.037346523
000180 88 36 3f 3c 1b cd 30 bd b3 6e 42 bd 6e 29 e7 bc
       0.011670716 -0.043164354 -0.047468852 -0.028217997
000190 da 0c 02 3d 14 c7 09 3d b0 ad 50 bd 16 2f 5d bd
       0.031750537 0.03363712 -0.05094689 -0.053999983
0001a0 48 a1 f6 39 2e a9 9f 3c 33 9d 0e bd c0 ea 83 3c
       0.0004704094 0.01948985 -0.034817886 0.016103148
0001b0 84 45 09 3d 3c cf f3 3b c7 31 86 3c 7d a6 0d bc
       0.03351356 0.0074404757 0.016381158 -0.008645651
0001c0 6f 1d 4b bc 13 d3 05 bd 2c 70 17 bd 9a ea 1b 3d
       -0.012397154 -0.032672 -0.03697221 0.03806553
0001d0 7b 58 69 3d 3f ea 1d bb 7d 7f 7b bb f8 1e 15 bd
       0.056969147 -0.002409592 -0.003837555 -0.036406487
0001e0 1a 11 16 bd c5 bf 3d bd ba 30 a8 3c 64 d7 93 3b
       -0.036637403 -0.046325464 0.020531047 0.0045117605
0001f0 3c 59 fd 3a 75 59 2b bc 70 76 0c bd a3 71 80 3d
       0.0019328962 -0.01045834 -0.03429264 0.062716745
000200 d4 92 04 bd 83 8b eb bc 81 a5 98 3c b0 b5 5e bd
       -0.03236659 -0.028753048 0.018633606 -0.05437249
000210 06 ab 96 bb 94 b8 d3 3c db 6c 65 bd ce d3 e9 3c
       -0.0045980243 0.02584485 -0.056012016 0.02854338
000220 0f c0 02 bd be b5 f9 bc cb 63 35 3d 23 0f 09 bd
       -0.031921443 -0.03048217 0.044284623 -0.0334617
000230 a0 29 a9 bc be 54 63 bd c0 1f 8c b9 c1 28 06 bc
       -0.020649731 -0.05550074 -0.00026726536 -0.008188427
000240 38 ee 14 3c 03 5a 7b 3d 56 f3 2e bd a2 5e c8 3b
       0.009089999 0.06136514 -0.042712532 0.0061147967
000250 02 92 58 3d 8d 42 2d bd 70 45 10 bd f9 9f 0d bd
       0.05287362 -0.042299796 -0.03522247 -0.03457639
000260 7f e8 c0 3a ca c6 38 bc c2 07 12 bd a6 ad 79 3c
       0.0014717727 -0.011277864 -0.03565193 0.015239155
000270 ed 9a 41 bc 56 1f 8c 3c d2 23 44 3c c0 85 59 3d
       -0.011816722 0.017104786 0.011971431 0.05310607
000280 24 62 f2 bc 2a 23 1b 3c df d8 0a 3d cc f9 38 3d
       -0.029587813 0.009468833 0.03389823 0.0451601
000290 d7 55 e3 bc b7 89 52 3d 82 97 0b bd 0e 3c e7 3b
       -0.027750893 0.051400866 -0.034080036 0.0070567196
0002a0 2d 85 26 3d 95 f8 68 bd 46 a1 8f 3c 9c 38 d4 bb
       0.04065435 -0.05687769 0.017532956 -0.006476475
0002b0 fd de 1d bd 57 11 0a 3d 1b 41 14 3d 62 f6 18 bc
       -0.038542736 0.033707943 0.036194902 -0.009336086
0002c0 25 a1 25 bd 20 e0 58 3d 15 af 4a 3c 07 4e 22 bd
       -0.040436883 0.052948117 0.012370844 -0.039625194
0002d0 a7 8c ca 3c e0 1a f7 bc 0c bf f3 b7 e1 fa ce 3c
       0.024725271 -0.030164182 -2.905682e-05 0.025266113
0002e0 39 43 36 3c 39 67 17 3c fb c4 89 3c 47 8e 27 bc
       0.011124426 0.009240919 0.01681756 -0.010226793
0002f0 e5 b6 c5 bc 06 f3 6d ba 39 63 bc 3a 10 68 ae ba
       -0.024135062 -0.0009077046 0.0014372832 -0.001330616
000300 a6 d7 13 bd c7 60 00 3d 41 24 4f 3c 98 f7 1e 3d
       -0.03609433 0.031342294 0.012642921 0.038810343
000310 1c 95 ef 3c bc 58 36 bd 61 29 0e bd f5 cb 0a bd
       0.029245906 -0.044518217 -0.03470743 -0.033885915
000320 04 37 37 bc 72 b5 01 bd 15 30 3c 3d 6e a9 e6 bc
       -0.01118255 -0.03166718 0.045944292 -0.028156962
000330 ff 7b 90 bc d4 b1 16 3d ce ed 74 bc 02 64 d8 bb
       -0.017637251 0.036790684 -0.014949275 -0.0066037187
000340 39 72 29 bd 39 38 1c 3d 3c fa 0c bd 4d 2d 30 3c
       -0.041368697 0.038139556 -0.03441833 0.010752988
000350 fd 71 91 bc 0f 6d 8c bc 64 d7 59 bd 0e 3d d8 bc
       -0.01775455 -0.017141847 -0.053183928 -0.0263963
000360 50 bf 18 3c 51 f2 a1 3c 67 25 76 bc 06 8e 0d 3d
       0.009322956 0.019768866 -0.015023566 0.034559272
000370 5b dd 39 bd 92 58 4b 3d 73 ce 20 bd 4f d5 c7 bc
       -0.045377117 0.049645014 -0.039259385 -0.024393706
000380 d9 29 bc 3b fb a8 b1 3c 44 47 25 3d e1 67 b7 bc
       0.0057422933 0.021687021 0.040351167 -0.0223884
000390 3e 4f 5d bd ea 02 71 bc c5 39 34 bd 41 c8 18 3d
       -0.05403065 -0.014710167 -0.044000406 0.037300352
0003a0 20 73 fe 3c 03 73 33 bb 9a 30 4c 3d e3 8e 1a 3c
       0.031060755 -0.0027381785 0.049851038 0.009433481
0003b0 1c 1b f8 bc 79 47 97 3c 1d 2f b7 3c 63 e1 c9 3c
       -0.030286364 0.018466698 0.022361333 0.024643606
0003c0 19 aa 46 bd 2a 18 fa bc 9b 45 1a 3d 2f cc 34 b9
       -0.04850206 -0.0305291 0.037664037 -0.00017242202
0003d0 fe dc 62 3c dd 51 88 bc e0 6a 28 bd f3 a7 55 bc
       0.013846634 -0.016640598 -0.04111755 -0.0130405305
0003e0 6a 65 85 3d d0 60 07 bd 2d 80 ce 3c 5e 3d 1a bc
       0.06513484 -0.033051312 0.025207603 -0.009414045
0003f0 d8 0f a8 bb 84 8e 1a bd 9f e0 c5 3c 39 55 06 bd
       -0.005128842 -0.03773357 0.02415496 -0.03279612

model.0.bias f4 [200]
000000 52 d3 7f bd c5 53 62 3c 9e f7 2d bd 84 64 02 3d
       -0.06245739 0.0138139175 -0.042472474 0.03183414
000010 6d 88 f2 bc 68 0f c0 3c ed 5a 23 bd bc c5 0c 3d
       -0.029606069 0.023444846 -0.039881635 0.03436826
000020 c9 7c 30 ba 08 27 27 bd f3 3f 5b 3d b7 7b e8 bc
       -0.00067324616 -0.040808707 0.053527784 -0.028379304
000030 34 3b 6d bc 48 17 a0 3c 94 02 da 3c 88 ce 04 3d
       -0.014479447 0.019542351 0.026612557 0.032423526
000040 80 99 4f 3d e0 31 25 bd 95 a9 55 bd 0d ce b5 bc
       0.0506835 -0.040330768 -0.05216368 -0.02219298
000050 ac 9b 1b bd 06 58 2d 3d 50 e8 0a bb c4 ae c1 3c
       -0.037990257 0.042320274 -0.0021195598 0.023642905
000060 02 38 fd 3c ec 78 59 bd cb 4a 36 bd 3f 50 96 3b
       0.030910496 -0.053093836 -0.044504922 0.004587203
000070 42 dc 3b 3d 36 e7 e0 bc 74 35 02 3d ab e4 5e 3c
       0.04586435 -0.027454 0.031789258 0.013604323
000080 66 34 61 bc 36 f9 5f 3d b8 88 1e bd a4 fc 9b 3c
       -0.013745403 0.054681025 -0.038704604 0.019041367
000090 20 3a 8b 3b 5a 7e 58 bd eb 12 4e 3c cb 95 05 ba
       0.0042488724 -0.052854873 0.012577753 -0.0005095868
0000a0 00 dd 3e bd be 17 57 3c 11 fe 0c 3d 8f 44 63 3d
       -0.04659748 0.013128219 0.034421984 0.055485304
0000b0 55 a1 e5 3c de ea d1 bc 20 97 02 3d d3 a7 07 3c
       0.02803103 -0.025624689 0.031882405 0.0082797585
0000c0 9e 25 3d 3d e8 78 bb 3c 84 21 d2 bb 90 3c 7e bc
       0.046178453 0.022884801 -0.006412687 -0.015517369
0000d0 f0 86 04 bd b4 12 b8 3c d0 dc 5a 3c c2 7b c9 3c
       -0.03235525 0.022469856 0.01335831 0.024595145
0000e0 c2 04 59 3c 98 15 2f 3d 76 d8 ad bc b8 48 00 bd
       0.013245763 0.042745203 -0.02122138 -0.03131935
0000f0 31 30 3d 3d e8 6d 61 bd e8 f9 72 bd e4 9d 4c bb
       0.046188537 -0.055036455 -0.05932036 -0.003122204
000100 ed 5d e4 bc 3a d2 4a 3d 48 f3 32 3d 42 18 e3 bc
       -0.027876819 0.049516894 0.043689042 -0.027721528
000110 98 7d e1 3b 37 08 12 3d 3b 30 1a bc d8 2d 28 3d
       0.006881427 0.035652366 -0.009410913 0.041059345
000120 58 94 62 bc f8 63 ce bc a5 7d d9 bc c8 1c 61 bd
       -0.013829313 -0.025194153 -0.02654917 -0.05495909
000130 f8 62 50 bd c4 b3 0f 3d 71 f2 9d 3c 21 4a c6 3c
       -0.050875634 0.035083547 0.019280644 0.02420527
000140 b0 af 6b 3c 5d 11 56 3c 82 03 09 bd 61 16 6f bc
       0.014385149 0.013065663 -0.03345061 -0.014592738
000150 c8 93 f7 3c ff 17 27 3d f2 3c 43 3d 9f 39 e1 3c
       0.030221835 0.04079437 0.047665544 0.027493296
000160 bc 07 d6 bb 66 d8 e7 bc 92 59 91 bc 32 f0 1b 3d
       -0.0065316837 -0.028301429 -0.017742906 0.038070865
000170 b0 e4 1b 3c d2 99 93 3b 41 93 86 bc 93 95 4b bd
       0.009514973 0.004504421 -0.016427638 -0.049703192
000180 98 46 d4 bb f2 75 3e bd ef 33 16 bd 81 8a b1 bc
       -0.006478142 -0.0464992 -0.03667062 -0.02167249
000190 7d 37 40 bd 30 88 c0 bb c0 66 59 bb b0 c9 2f bd
       -0.046927918 -0.00587561 -0.0033172816 -0.042916954
0001a0 2b 06 1d ba 56 c9 15 3d 73 2e 51 3d 72 16 00 3d
       -0.0005989994 0.036568962 0.051069688 0.031271406
0001b0 7d bb 31 bd 85 e0 2c bd 4f 08 c9 3c 32 13 a5 bc
       -0.043391693 -0.042206306 0.024540095 -0.020150755
0001c0 b0 65 20 bb 63 0f 1c 3d 54 3c 49 bd 3c f7 7d bc
       -0.0024474673 0.03810061 -0.0491298 -0.01550084
0001d0 a6 2d 89 bc 61 13 2d bd 2b b7 1b 3d 05 e7 71 3d
       -0.0167454 -0.04225481 0.03801648 0.059058208
0001e0 8e c7 1b bd 32 24 1d bd 91 31 2d bd 49 f0 60 bd
       -0.038032107 -0.038364597 -0.0422836 -0.054916654
0001f0 d0 66 63 bd 9e c2 f1 3b a8 b3 84 3c a0 95 df bc
       -0.05551797 0.0073779365 0.016198948 -0.027293026
000200 31 9a 46 bd f6 0d b4 bc 9f 29 b9 bc b6 a0 cc bc
       -0.048486892 -0.021979313 -0.022602854 -0.024978977
000210 26 1f 80 bc d8 53 59 3d ef 55 31 bd d9 cb 1c bd
       -0.015639853 0.053058475 -0.043294843 -0.03828034
000220 95 45 fa bb 1f a4 3d 3d 7b 8a 89 bc e0 54 a0 bc
       -0.0076376894 0.046299096 -0.016789665 -0.019571722
000230 cc 8b 89 3c 04 ac 1f 3d c8 15 1a bd 0a e4 05 3d
       0.016790293 0.038982406 -0.03761843 0.032688178
000240 a5 b6 23 bd 4c e9 a2 3c dc ce 10 bb 7e a3 49 3d
       -0.039969105 0.019886635 -0.0022095954 0.049228184
000250 d0 c7 7c bc c4 3d 80 bb a6 e5 75 3c 40 0c d1 bb
       -0.015428498 -0.003913613 0.015008366 -0.006379634
000260 00 42 7a bc a0 49 73 bb 83 7a c5 bb 78 23 1a bd
       -0.015274525 -0.0037122741 -0.0060265674 -0.037631482
000270 85 fb e7 bc 78 0f 23 bd b8 68 5c bc 69 06 db bc
       -0.028318176 -0.039809674 -0.013452701 -0.026736455
000280 bc dd 40 3d e6 b2 c3 3c d6 20 2b 3c 74 2d 12 bd
       0.047086462 0.023889016 0.01044484 -0.03568788
000290 77 28 ab bc ac 23 c2 bb de f4 42 bd 48 52 13 bd
       -0.020893319 -0.0059246626 -0.047596805 -0.03596714
0002a0 50 fc 3f bd 2e 2c 27 3d 51 16 b2 bc bd 28 2f bd
       -0.046871483 0.040813617 -0.021739157 -0.04276346
0002b0 6c 25 ed 3c c3 37 1f 3d 49 de 28 bc 5f 38 17 bd
       0.028948508 0.038871538 -0.010306903 -0.036918994
0002c0 1a 2a 09 bc 35 ae 8a bb 5b 82 3c 3d 11 ba 43 bd
       -0.008371854 -0.004232193 0.046022754 -0.04778487
0002d0 c4 af bd 3c 29 96 61 bd ff 92 fd 3c f4 cc 31 3d
       0.0231551 -0.055074845 0.030953882 0.04340835
0002e0 c5 ee 4a 3d 7c 6b 08 3d 74 1a d8 bb 36 0a 5f bd
       0.049544115 0.03330563 -0.0065949503 -0.054453097
0002f0 f0 40 4a 3d 82 9c 1b 3d 34 db 3d bd 88 f6 cc 3b
       0.049378335 0.037991054 -0.046351627 0.0062549748
000300 28 e8 e9 bb 8f 4a 46 bd ec 86 d6 bc 30 e4 8c 3c
       -0.007138271 -0.04841095 -0.026187383 0.017198652
000310 b0 d6 04 bc 1e ee 0e bd b6 bb 08 3d e8 a1 45 3d
       -0.008107826 -0.034895055 0.03338214 0.04825011

model.3.weight f4 [1, 200]
000000 35 0b 09 bd 4a 60 9b 3d 3b b7 68 bd 5d d9 bb bc
       -0.033457953 0.07586725 -0.056815367 -0.022930795
000010 1a d4 06 3d eb c6 84 3c 3b d3 6f bd b6 77 8e bc
       0.03291712 0.016208133 -0.058551054 -0.017391067
000020 62 5d 85 bc 86 fe c4 bc 87 27 17 bc 2e 15 2b bd
       -0.01627988 -0.024047147 -0.009225733 -0.041768245
000030 a1 d4 0a bd 30 58 2c 3d b8 d4 95 3c 07 87 c7 3c
       -0.033894185 0.04207629 0.018289909 0.024356378
000040 93 23 10 bd 69 00 0a bd 14 b1 55 bc 06 4e 26 bd
       -0.035190176 -0.033691797 -0.013042707 -0.040601753
000050 aa 9e 73 bd 0c a1 77 3d c2 82 7d bd 0b b7 71 3d
       -0.059477486 0.06045632 -0.06189228 0.059012454
000060 30 2d 0f 3d a5 59 6b bd a0 b3 2a 3d 16 c7 8d bd
       0.034955204 -0.05745854 0.04167521 -0.06922738
000070 9c 69 ce 3c 15 bd 1b bd 22 d7 40 bd 56 13 77 bd
       0.025196843 -0.03802212 -0.047080167 -0.060321175
000080 b7 98 00 bc f0 c6 dd bb ba 26 12 bd 8e cb 52 bd
       -0.00784891 -0.0067681 -0.035681464 -0.051463656
000090 ef cd 8a 3d 3d dc 3d 3d 95 b5 21 3c 11 2d 19 bd
       0.0677756 0.046352614 0.009869953 -0.037396494
0000a0 14 9e b6 3c c7 87 74 bb ca 6f 4c bc 8a 93 6e 3d
       0.022292174 -0.0037312375 -0.012477824 0.058246173
0000b0 f0 d0 04 bc 1b 5f 33 bd a5 1d 64 bd 59 32 83 bd
       -0.008106455 -0.04379187 -0.055692334 -0.064060874
0000c0 df 0f 98 3d 75 b2 79 3d c1 50 d7 3c 3c 93 8b 3c
       0.07424902 0.060961206 0.026283624 0.01703798
0000d0 e0 e3 72 3d 45 86 87 bd 90 a2 27 3c 7e ff 1e 3d
       0.05929935 -0.06617407 0.010231629 0.038817875
0000e0 30 99 2b bd 08 9e eb 3c 03 36 86 bd 22 f8 2e 3d
       -0.041894138 0.028761879 -0.06553271 0.042717107
0000f0 bd 4a c0 3c 14 33 7b bd 24 ff ca bb 48 21 27 3d
       0.023473138 -0.06132801 -0.006194966 0.040803224
000100 04 99 31 3d 84 46 16 3d e1 31 23 3d 44 d4 d5 bc
       0.043358818 0.036688343 0.03984249 -0.026102193
000110 36 5e 00 bd ae ad 5c bd d0 8b d6 bc 2e 48 8f bc
       -0.031339847 -0.05387657 -0.026189715 -0.017490473
000120 fc 75 f9 bb 33 cf 9b 3c d4 98 29 bd 30 4f 85 3c
       -0.007612942 0.019019699 -0.041405514 0.016273111
000130 7c 2c 0a 3d 4b 7f 40 bc 12 4d 82 3d 74 dc 9c 3c
       0.03373383 -0.011749099 0.06362356 0.019148089
000140 d3 dc 14 bd 99 3b 80 bc d9 84 95 3c e6 ac ce 3c
       -0.036343407 -0.015653418 0.018251823 0.025228929
000150 2e fb 24 bc b6 7a b7 bc f3 a1 07 bd c8 e0 13 bc
       -0.0100696515 -0.02239738 -0.03311343 -0.00902576
000160 23 8c ae bc e0 db 7b bd 3f f5 ac 3c 00 fd 27 3d
       -0.021307057 -0.061488986 0.021113036 0.041012764
000170 a8 9c 5b bd 7a d8 5f bd 7d 72 db bc 27 72 93 bc
       -0.053616196 -0.054649808 -0.02678799 -0.017998768
000180 28 5a eb 3c 1a 2e 51 3d cc 9a b7 bc ec f8 6f 3c
       0.028729513 0.051069357 -0.02241268 0.01464675
000190 b8 91 85 3d 1e a5 b6 bc 4e 79 7c 3d 2a 3e 8b bc
       0.06521934 -0.02229553 0.061639123 -0.016997416
0001a0 6e 87 6a 3d 80 35 41 3d be ca 10 3d 30 44 ce bb
       0.057258062 0.047170162 0.0353496 -0.0062947497
0001b0 35 81 42 bd aa 45 0d bd 76 4c 80 bd 6c 46 46 bc
       -0.047486503 -0.034490265 -0.06264584 -0.012101751
0001c0 52 89 24 3d b6 6b 3c bd 80 0a 45 3d 1b 54 83 bd
       0.04017002 -0.04600116 0.048105717 -0.06412526
0001d0 01 00 86 3d ad 6d 7b bd 98 45 1e bd 2f 7b 00 3d
       0.065429695 -0.06138389 -0.03864059 0.031367477
0001e0 c0 51 c6 ba 3e 1a 71 3d be 4e e6 bc 4c 46 8c 3d
       -0.0015130565 0.058862917 -0.02811372 0.068493456
0001f0 0e 89 19 bd 3d 07 fa 3c 8e 7d 29 3d 17 d6 1d bd
       -0.03748422 0.03052103 0.041379504 -0.03853425
000200 1e aa 38 3d fc 15 aa 3d 10 fb 3d 3d 4b 12 89 3d
       0.04508411 0.083049744 0.04638201 0.06692942
000210 1e f5 43 3d 48 cc 04 3d f4 4f 7a 3d 19 f8 37 3d
       0.047841184 0.03242138 0.061111405 0.04491434
000220 f0 6e 25 3c 81 61 8e bc b9 a4 9b 3d e8 e2 8d 3d
       0.01009725 -0.017380478 0.07599778 0.069280446
000230 64 07 51 3d 1e ec bd bc 70 8f 12 bd 44 88 ac 3c
       0.05103244 -0.023183879 -0.035781324 0.02106107
000240 33 9c 45 bd f0 81 83 bc 4f 1d ca 3c eb ee 78 3c
       -0.048244666 -0.01605317 0.024672179 0.015193681
000250 3a 90 32 3d 90 2f 4a bd 6d 85 95 bc 5c 38 be 3c
       0.043594576 -0.049361765 -0.018252099 0.023220234
000260 84 02 85 bd 6f b7 83 3d 07 6f 9c bb 0c ef 44 bd
       -0.064946204 0.064314716 -0.0047739777 -0.048079535
000270 10 03 07 bd 03 f4 4b 3d 40 bf 8c bb 0c 93 3e 3d
       -0.032961905 0.049793255 -0.0042952597 0.046526954
000280 48 58 91 3c 7d 03 07 bb 1e 9a 37 bd be ba 45 3d
       0.017742291 -0.0020601444 -0.044824712 0.048273794
000290 91 19 00 bc f4 4c f1 3c f5 5c 05 bd b0 ab 41 3c
       -0.0078185955 0.02945564 -0.032559354 0.011820719
0002a0 ee 5b 61 3d e2 69 89 3d 18 64 62 bd 26 79 50 3d
       0.05501931 0.06709649 -0.055271238 0.050896786
0002b0 10 09 28 3c 00 23 6c 3d 26 ab 85 3d f7 a4 93 3d
       0.010256067 0.057650566 0.065267846 0.07209199
0002c0 24 2f 8c 3d 0f d0 e9 bc cc b8 51 3d a7 50 99 3d
       0.06844929 -0.028541593 0.051201627 0.07486086
0002d0 c3 e7 04 bd cf f2 4a bd 27 41 71 bc 50 22 3b bd
       -0.032447588 -0.049547967 -0.014725006 -0.04568702
0002e0 5c 80 ba 3c 1b c8 f3 bc d5 13 e4 3c f7 90 60 bd
       0.022766285 -0.029758504 0.027841488 -0.05482575
0002f0 8d 0b 02 bd 89 e0 30 bc cb a1 93 bc 4b 4e db bb
       -0.031749297 -0.010795721 -0.018021485 -0.006692683
000300 cc cf 51 3d cc 6a 87 bd cb 5e 47 3d d4 d3 60 bd
       0.05122356 -0.06612167 0.048674386 -0.054889515
000310 96 d0 69 3d 9c c8 86 3d f8 4c a5 bc 2b 01 02 bd
       0.05708369 0.06581232 -0.020178303 -0.031739395
