model_save/v2-100-znorm-epo90-batch12.pth (torch, 131417 bytes, 3 tensors)

model.0.weight f4 [100, 320]
000000 01 29 b8 bc 3b 06 a5 bc 01 1f 25 bd 77 49 2d bd
       -0.02248049 -0.020144572 -0.04031277 -0.04230639
000010 bd 8c 05 bd 9b 68 5c 3d bf 95 7b bc 5e 68 19 3d
       -0.03260492 0.053810697 -0.0153555265 0.037453048
000020 ac dd 21 3c 07 64 0d 3d 25 20 2e 3d 09 6d 39 39
       0.009879511 0.03451922 0.042511124 0.00017683594
000030 e0 9a 2a 3d 67 b2 e2 bc f8 8d 5a bd 61 d6 56 bd
       0.041651607 -0.02767296 -0.05335805 -0.05245054
000040 9b 31 a7 bc c2 73 30 3d 61 a7 01 bd 42 aa dc 3b
       -0.020409396 0.043079145 -0.031653766 0.0067341635
000050 37 fa 81 3b 45 e8 ee bc 0b 0e 73 3c 1d fd 35 bc
       0.0039665955 -0.02916349 0.014834891 -0.01110771
000060 5e 9e 5b bd 19 9a 53 3a 49 87 d8 bc 26 a1 00 3d
       -0.053617828 0.00080719736 -0.026431696 0.031403683
000070 2e 1d e0 bc 89 10 18 bc 12 5a 2f 3d 44 e2 8d 3b
       -0.027357664 -0.009281286 0.042810507 0.0043299515
000080 d2 3e f9 bc fd 3a 1d 3d 5a f8 56 bd 24 20 bc bc
       -0.030425463 0.038386334 -0.05248294 -0.022964545
000090 a4 a3 23 3d 79 d3 21 bc 1e 21 46 bd bf c5 0e 3d
       0.03995098 -0.009877079 -0.048371427 0.034856554
0000a0 03 7e 5f 3c 0b 77 1c bd 99 a4 32 3d 3f 4f ea bc
       0.013640883 -0.038199466 0.043614004 -0.02860224
0000b0 86 d0 57 bb 43 9f d0 3c 1e 10 b4 3c 2e 62 dc 3c
       -0.0032930686 0.025466567 0.021980342 0.026902284
0000c0 ed a7 43 bd ee 04 05 bd 12 f9 14 bd 03 66 48 3d
       -0.04776757 -0.032475404 -0.036370344 0.04892541
0000d0 83 54 86 3c 21 74 44 ba 33 93 1f 3d 4e d0 fb bc
       0.01639772 -0.0007494111 0.03895874 -0.030738976
0000e0 0b 7f d5 bc 1a 82 d3 bc 4b 65 b8 3c ba 69 00 bd
       -0.026061555 -0.025818873 0.022509238 -0.03135083
0000f0 6b 07 ec bc 28 b7 88 3c 4a a1 27 bb cd ce 56 3d
       -0.02881213 0.016688898 -0.0025578314 0.052443314
000100 a5 5f 09 bd 0c 52 3c 3d 7b e0 a5 bb c9 b4 03 3d
       -0.03353848 0.045976683 -0.0050621605 0.032154832
000110 06 95 b8 3c ab 5f 12 bc f4 e0 47 bd ca 8f 60 3d
       0.022531997 -0.008933942 -0.048798516 0.054824628
000120 07 b7 3a 3c 12 28 01 3c 11 17 28 3b 00 0d 16 3c
       0.011396176 0.007883089 0.0025648514 0.009158373
000130 fa af d6 bc 89 3b 0a 3d 9b 89 1c 3d f0 93 49 bd
       -0.026206959 0.033748183 0.03821717 -0.04921335
000140 b3 26 6a bd bf 1b 59 bb a6 97 aa bc 31 f9 33 3d
       -0.057165813 -0.003312811 -0.020824265 0.04393882
000150 19 7f 6e bc 9f 96 4f bc 6b 9c 1b 3d e5 2b 2d bd
       -0.01455667 -0.012670188 0.03799097 -0.04227819
000160 72 fa db bc 32 e5 d6 3b bb 3f d2 bc 52 db 5f 38
       -0.02685282 0.006558084 -0.025665155 5.33716e-05
000170 af 6d 03 bd 00 7d 9f ba b7 96 9a bc 63 ce 3b 3b
       -0.032087024 -0.001216799 -0.018870695 0.0028656952
000180 9f 78 75 3d 61 95 db bc 9d 7d 05 bd 38 bf 38 bd
       0.059929486 -0.026804628 -0.032590497 -0.045104235
000190 54 f2 47 bd 2c d3 63 bd a2 ea bb 3b 0d 54 ca 3c
       -0.048815086 -0.05562131 0.0057347575 0.024698282
0001a0 92 78 7a 3c b3 3c 3a 3d 5e 53 0b bc 7a e4 21 3d
       0.015287535 0.045468044 -0.008503763 0.039524533
0001b0 36 8b 88 bc 5c dc 96 bc be 60 36 3d 5f b5 00 bd
       -0.016667943 -0.018415622 0.044525854 -0.03142297
0001c0 45 4e c7 3b ff f0 10 3c 82 7b c8 bc b9 80 6e 3d
       0.0060823285 0.00884652 -0.024472956 0.05822823
0001d0 e2 14 ce bc 69 fe e3 3c ef da e1 3b 14 74 5e 3c
       -0.025156442 0.027831273 0.006892554 0.01357748
0001e0 a2 89 4c 3d a1 e2 44 3d 13 8c ce bb a4 7b b8 3b
       0.049935944 0.048067693 -0.0063033192 0.0056299735
0001f0 d6 11 4e bd 46 ac 3c 3d 56 7f 43 bd 55 cd 06 3d
       -0.05030998 0.04606273 -0.04772886 0.032910664
000200 89 05 24 39 77 f7 c6 bb 78 97 ea bb 12 79 de bc
       0.00015642321 -0.0060719806 -0.0071591698 -0.02715734
000210 ff d8 05 3d 84 1a 59 bd 09 7c 01 3d ae 1b 37 3d
       0.032677647 -0.053003803 0.03161243 0.04470413
000220 25 90 83 3c 32 9f ff bb ec c1 24 3d 13 ce c4 bc
       0.016059944 -0.00780096 0.040224 -0.024024045
000230 a4 e6 29 3c d4 d4 1f 3d 99 f1 b4 3b 2a 39 44 bd
       0.01036993 0.039021328 0.0055219647 -0.04790608
000240 08 c4 e6 3b 20 79 fb 3c f5 e6 41 3d eb fb 58 bc
       0.0070424117 0.030697405 0.0473394 -0.013243656
000250 a7 a7 de 3c 99 7e 55 3d c3 cb 16 bd a3 36 47 bd
       0.027179552 0.052122686 -0.036815416 -0.04863609
000260 dc d5 d4 bc 93 62 24 3c 7b 97 57 bd 30 5a eb 3c
       -0.025980882 0.010033268 -0.052634697 0.028729528
000270 9f ce 31 bd 43 96 07 3c 22 17 9e bc 2a 0a 25 bd
       -0.04340994 0.008275571 -0.01929814 -0.040292896
000280 ed 43 86 bc c5 94 a8 3c fb 03 a1 bc 9b 74 60 3c
       -0.016389811 0.020578751 -0.019655218 0.013699676
000290 30 98 a9 3c eb 7e fa 3c 78 d1 2f bd d4 38 db bc
       0.020702451 0.030578097 -0.042924374 -0.026760496
0002a0 4e 5d 66 3d a0 6e c4 3c 43 08 15 bd a7 02 3e bd
       0.056241326 0.023978531 -0.036384832 -0.04638925
0002b0 39 19 68 bc 7f 6d f1 3c f6 bf ef 3b 1c fe 45 bd
       -0.01416617 0.029471157 0.0073165847 -0.04833804
0002c0 3a ae 4c bc e6 63 11 bc 60 04 7d bc 07 38 58 3d
       -0.012492711 -0.008873915 -0.015442938 0.052787807
0002d0 5f a4 0e 3d e2 7e 1b 3d b4 09 3f bd 40 f0 4b 3d
       0.034824725 0.0379628 -0.046640113 0.049789667
0002e0 00 58 72 bc 7f 0c fd 3c c6 03 fb bc 0f fb 3f 3c
       -0.014791489 0.030889748 -0.030641448 0.011717572
0002f0 d0 31 d4 bb b2 6c e4 bb ab a0 3f bb 4c 38 22 3d
       -0.0064756647 -0.0069709653 -0.0029240053 0.03960447
000300 aa c1 9b bb 6f dc 5b bd dc b6 a7 3a db 24 e0 bb
       -0.004753311 -0.05367702 0.0012795585 -0.006840331
000310 ce 40 c5 bc d5 44 4a 3d 04 96 e2 bb e9 1f 4d 3d
       -0.024078753 0.04938205 -0.006914856 0.05007926
000320 7b 91 23 bd 0d 47 bd bc 28 99 53 bd 3a df b1 3b
       -0.039933663 -0.023105169 -0.051659733 0.005428222
000330 5b d1 82 bc 56 68 8e 3c ee 85 5c bd 0a 3a 7c 3c
       -0.01596897 0.017383736 -0.053838663 0.015394697
000340 42 7f 9a bc b6 95 4c bd f1 dc 14 3d 39 6e b4 bc
       -0.01885951 -0.049947463 0.03634352 -0.022025215
000350 3f ac 20 3c e5 2e f0 bc 82 f9 27 3d 61 20 cd 3a
       0.009806692 -0.029319236 0.041009434 0.0015649908
000360 66 de 50 3d 0c 9d 18 3d 28 e3 9c 3c d2 a7 9d bc
       0.050993346 0.037259147 0.019151285 -0.019245062
000370 04 bd 28 bd 85 d5 74 3d 40 09 14 bd fa 35 b8 3b
       -0.041195884 0.05977394 -0.036141634 0.005621669
000380 00 c1 33 bc 30 c0 fd bc bb 40 65 3d c6 ae 9c 3c
       -0.010971308 -0.030975431 0.055969935 0.019126307
000390 fe 37 40 bc f7 4c 44 bd 59 a2 01 3c 06 90 07 3d
       -0.0117321 -0.047924962 0.007912242 0.033096336
0003a0 d4 c1 0e bd 4e f6 26 3c a2 9b 34 3d 9b fe 19 bc
       -0.034852818 0.01019056 0.044093736 -0.009399082
0003b0 a5 59 d7 bc a7 29 26 bd f6 8a 1c 3c 05 87 1e bb
       -0.026287863 -0.040567067 0.009554615 -0.0024189365
0003c0 65 40 3e bd 1b bf 4d bd 6a 38 5a bd 84 d2 aa 3c
       -0.04644813 -0.05023108 -0.053276457 0.020852335
0003d0 26 59 86 3c 57 e1 0c 3d cb b9 1a bc 2b b6 1e bd
       0.016399931 0.03439459 -0.009443711 -0.038747948
0003e0 1a 53 3a 3c 6b 76 f9 bc 73 05 c3 3c 16 59 47 bd
       0.011372352 -0.030451974 0.02380631 -0.048668943
0003f0 e2 57 9f bc 83 39 8f bc d7 78 fc bc f0 70 69 bd
       -0.019451085 -0.017483478 -0.03081934 -0.05699247

model.0.bias f4 [100]
000000 2d 7e 6a bd cc 22 27 bd a6 7e 62 bd 5a ac bc bb
       -0.057249237 -0.04080467 -0.055296563 -0.0057578506
000010 11 53 ab bc f8 2e b1 bb b9 a2 0f 3d c2 28 43 bd
       -0.020913633 -0.0054072104 0.035067294 -0.04764629
000020 20 d8 45 3c 92 f1 36 bd 84 12 cb bc a0 a2 9c bc
       0.012075454 -0.044663973 -0.024789102 -0.019120514
000030 a4 86 0d 3c 75 81 0c 3d 88 85 56 3c 29 70 a2 bc
       0.008638058 0.034303147 0.01309336 -0.019828873
000040 2c 79 8c bd ce 5e 83 bd 54 5d 0c 3d f2 b3 44 bd
       -0.06859049 -0.06414567 0.034268692 -0.04802317
000050 31 6a 38 bc 27 67 e4 3c d4 ae a3 3b 68 00 a5 3c
       -0.011255787 0.027881218 0.0049952064 0.020141795
000060 7b 31 5e bd 84 33 01 bd 02 e0 ad 3b 4e 0a c0 bc
       -0.054246407 -0.03154327 0.005306245 -0.023442414
000070 a3 29 04 bd fa dc 4b 3d 16 39 d8 3c c4 73 da 3c
       -0.03226627 0.049771287 0.026394408 0.02666653
000080 9d a7 1b 3d a1 8a 41 3c aa 70 ac bc ca 25 2c bd
       0.038001645 0.011812837 -0.021049816 -0.042028226
000090 74 e2 17 bc 84 24 8d bc 6e 9d 5c bc 48 f6 17 bd
       -0.009270299 -0.017229326 -0.013465269 -0.037100106
0000a0 c2 c9 4b 3d af e9 48 bd 72 e4 2a 3d fd 56 df 3c
       0.049752958 -0.049050983 0.04172177 0.027263159
0000b0 b6 46 56 bc 01 65 1f bd 94 09 be bb 6f 22 22 bd
       -0.013078382 -0.038914684 -0.0057994816 -0.03958362
0000c0 e5 ef 2f 3d aa 58 71 bd 9b 5f 4a bd cc bf 6d 3b
       0.04295339 -0.058922447 -0.049407583 0.003627765
0000d0 ff bc 71 bd e9 64 e7 bc 2b f3 1a bd 38 f9 0e bd
       -0.05901813 -0.02824636 -0.03782956 -0.034905642
0000e0 d4 ab 0f 3d ac d6 35 bc eb 64 d3 3c 16 36 08 3d
       0.035075977 -0.011098545 0.025804957 0.033254705
0000f0 5c 4e 25 bd 46 dc 8c bc 31 4e 08 bd 5b ac d3 bc
       -0.040357932 -0.017194878 -0.033277694 -0.025839021
000100 30 b5 03 bd 84 6a 13 3d ef b8 bb 3c 2e ce 6b 3c
       -0.032155216 0.035990253 0.022915332 0.014392419
000110 16 9a b1 bc a1 27 53 bd cb 8e 9d 3c 59 45 c4 bc
       -0.02167992 -0.051551465 0.019233128 -0.023958849
000120 88 33 7d bc 2e 75 82 3a 99 53 bc 3c e0 73 15 bb
       -0.015454181 0.0009953135 0.022989081 -0.0022804663
000130 9c 6b 90 bc 98 fe 25 bd c2 5d cb 3c a8 bd ad 3c
       -0.017629437 -0.040526003 0.02482498 0.0212086
000140 c3 88 42 bd 1a 2c 37 3d d1 e0 f7 3c 5c 28 0a bd
       -0.047493707 0.044719793 0.030258568 -0.033729896
000150 5f 7d 18 3d 2c 94 f1 bb f7 87 ce 3c 70 56 70 3c
       0.03722894 -0.0073724 0.025211317 0.014669046
000160 c2 2f b1 bc 04 26 17 bc e8 d3 ee 3c e9 26 18 3b
       -0.021629218 -0.009225372 0.02915378 0.0023216552
000170 a4 05 5f bd 85 10 57 bd 28 4b b5 bd 48 38 b7 3c
       -0.05444874 -0.05250599 -0.088522255 0.022365704
000180 37 ab b0 bc d8 94 92 bc 94 ce 70 bd 51 73 31 bd
       -0.021566017 -0.01789324 -0.05879076 -0.043322865

model.3.weight f4 [1, 100]
000000 36 fa 8c 3d 11 f9 c1 3d 1a d6 35 bd fe c7 36 b9
       0.068836614 0.09471334 -0.044393636 -0.00017431375
000010 de bc 60 3e 60 bb b5 bd f3 4b 90 bd 71 38 92 3d
       0.21947047 -0.088736296 -0.07045736 0.071396716
000020 20 b9 8b bd c5 21 b6 bd 51 70 6a bc 17 d4 cf bc
       -0.06822419 -0.0889316 -0.014309005 -0.025369687
000030 08 d5 a7 ba 59 91 c9 ba 97 f6 9f 3d 67 6c 02 3c
       -0.0012804577 -0.00153784 0.07810705 0.007960415
000040 a4 89 52 3f 4c 5c 83 bf d4 71 23 3e 3d d0 7c bf
       0.8224127 -1.0262542 0.1596139 -0.98755246
000050 aa af 02 3c 91 a2 c9 39 d5 e9 90 3e 38 79 b4 bf
       0.007976452 0.0003845883 0.283034 -1.4099493
000060 a8 fb 97 bd bf 45 58 3c 5d ff b1 37 c3 ff 9a bd
       -0.074210465 0.0132002225 2.1218957e-05 -0.07568314
000070 8c 53 90 bf 58 b8 c9 bc 65 a9 3c 3d 61 e2 37 bd
       -1.1275496 -0.024624035 0.046059985 -0.044893626
000080 d9 8a 76 bd ac bd 9c bd ad e9 85 3d ec 1b a2 3c
       -0.06019101 -0.076533645 0.06538711 0.019788705
000090 87 90 a5 3d 1d 01 c2 bd 2e a6 f6 bf 4b 5e 5c bd
       0.08084207 -0.094728686 -1.9269464 -0.053800862
0000a0 b6 35 92 bd 1a 90 9d 3d dd bb 05 bd a0 37 a7 3e
       -0.07139151 0.07693501 -0.032649864 0.32659626
0000b0 63 59 ae bd 3f 85 c9 3d a4 7b 7a 3d 53 f5 93 bc
       -0.08513143 0.09839868 0.06115307 -0.018061316
0000c0 29 80 18 3d d7 00 88 bc da e1 39 bd 8a f7 9e bc
       0.037231598 -0.016601963 -0.045381404 -0.019405145
0000d0 82 ff b7 bd 30 d0 a1 bd be c2 06 3d 62 d1 95 3d
       -0.08984281 -0.07901037 0.032900564 0.07315327
0000e0 23 33 9c bd 91 f5 af 3e 95 d3 1b 3e d0 47 a8 bb
       -0.07626941 0.3436704 0.15217431 -0.005135514
0000f0 7a aa c7 3e 6d 27 c4 3d ef f8 6a 3d c0 2f a3 3c
       0.3899725 0.09577832 0.057366308 0.01992023
000100 c6 8d 57 3d 69 30 a4 3d 55 9a ae bf db 3a 97 bf
       0.05262544 0.08017046 -1.3640848 -1.1814836
000110 1f 98 86 bf 58 ed 9e bc 47 f5 0e 3a 6f 7d ab 3d
       -1.0515174 -0.019400284 0.0005453419 0.08373534
000120 e0 44 fc bb 53 99 ff 3c 13 7b a6 bd 94 9e 85 3c
       -0.00769864 0.03120104 -0.08128943 0.016310968
000130 0f 50 b6 bc 92 d8 0c 3d bb 54 d6 bf ba 68 46 bd
       -0.022254972 0.034386225 -1.6744608 -0.04843972
000140 63 db 3a bd 63 15 3d bd 75 b4 68 bd 05 85 5b 3d
       -0.04561938 -0.046162974 -0.056812722 0.053593654
000150 e9 f0 2b 3d 88 73 00 3f cf 30 8d 3d cb bc 92 bd
       0.041977797 0.50176287 0.06894075 -0.07164916
000160 e2 10 b4 3c f6 f0 10 bd 3a c2 38 bd 1b 7f 52 3d
       0.021980707 -0.03538605 -0.045107104 0.05139075
000170 49 72 9d bc 42 0e 98 3d bc 33 7e 3f ce 49 9c 3d
       -0.019219534 0.074245945 0.9929769 0.076312646
000180 e2 6d 69 bc 73 42 99 bd 67 b6 c5 bf dd e7 a7 bd
       -0.0142473895 -0.07483377 -1.544629 -0.08198521
