model_save/v2-60-znorm.pth (torch, 79823 bytes, 3 tensors)

model.0.weight f4 [60, 320]
000000 94 c9 54 bd 71 55 46 bd e4 95 f2 bc 23 08 e9 bc
       -0.051950052 -0.048421327 -0.029612489 -0.028446263
000010 4d 1c 8f 3c aa 12 29 3d 1d 04 1f bd a2 85 1d 3d
       0.01746955 0.041277565 -0.038822282 0.03845752
000020 12 ab 94 3c 37 f2 b0 3b 19 6a 4a 3d b7 41 89 bc
       0.018147979 0.005399968 0.04941759 -0.016754968
000030 08 c0 33 bd 38 0f c5 bb a5 73 90 3c 91 eb 16 3d
       -0.043884307 -0.006013777 0.017633269 0.036845747
000040 7e 5c 14 3d e7 c5 1b bd f7 3d 4b 3d d7 65 5d bd
       0.03622102 -0.03803053 0.04961964 -0.0540522
000050 3d b0 48 3c 54 e5 11 bd e4 2c 1a 3c 6c f3 3c 3d
       0.01224905 -0.035619095 0.009410117 0.046130583
000060 c4 3c 59 3d 54 88 2b bd 91 06 83 3b 2a 34 02 3d
       0.053036466 -0.04187806 0.0039985855 0.03178803
000070 40 a7 46 bd c4 33 0b bd 20 02 ef 3c db 3c 89 bc
       -0.048499346 -0.033984914 0.029175818 -0.016752651
000080 ca 3d 3b 3d 24 e4 e9 3c 56 ae 76 bc 22 cd d7 3b
       0.045713224 0.028551169 -0.015056213 0.006585733
000090 3c 80 1f 3d 00 8a dd 3c ff 06 58 bd da b8 14 bc
       0.038940653 0.027043343 -0.052741047 -0.009077275
0000a0 d0 7b d8 3c c9 84 aa bc 30 57 e7 3c 3a 7e 2c bc
       0.026426226 -0.02081527 0.028239816 -0.010528142
0000b0 b8 23 eb bc c1 52 83 3c 17 4d bd 3c 27 86 3b 3c
       -0.028703555 0.016030671 0.023108048 0.011445559
0000c0 74 f0 4f 3d c7 87 b8 3c 03 b3 24 3b 06 8e 28 3d
       0.050766423 0.022525681 0.0025131113 0.04115107
0000d0 ca fe 16 3d 04 7b fc 3b 32 7f 7c 3c 6f 17 20 3c
       0.03686408 0.0077050943 0.015411185 0.009771212
0000e0 02 92 0f 3d 8e 5b 01 3d e5 04 37 3d c2 bb 41 3d
       0.035051353 0.031581454 0.044682402 0.0472982
0000f0 de 26 1d 3d bf e7 9b bc 1a f7 1b 3c bb 3b fd 3c
       0.038367145 -0.019031404 0.009519363 0.03091227
000100 b7 ec af 3c f7 de b3 bc 69 62 2b bc fa b1 66 bd
       0.02147518 -0.021956904 -0.0104604745 -0.056322075
000110 c1 d0 be bc 11 b1 18 bd 64 5b de bc fb 28 32 3c
       -0.023292901 -0.03727824 -0.027143188 0.010874028
000120 4f d5 3e bd 70 0e 2e 3c e8 1b 07 3d 44 c7 11 3c
       -0.046590146 0.010623559 0.032985598 0.008897606
000130 1c 6e 77 3c 49 00 a5 3c bb 6f 07 bc c1 9c 3b 3d
       0.015101936 0.020141738 -0.008266385 0.04580379
000140 c0 9c 10 3d 75 9b 06 bd a5 70 6c bd 73 39 42 bd
       0.03530574 -0.0328631 -0.057724614 -0.04741807
000150 ed 74 40 3c 0b c4 e9 bb ba a1 20 bc b2 56 06 bd
       0.011746627 -0.007133966 -0.009804184 -0.032797523
000160 0a 33 a6 3c 3b 64 d4 bc 72 09 23 bc c4 06 3f 3d
       0.02028801 -0.0259267 -0.009950982 0.04663731
000170 7c eb f1 3c 85 96 45 bc 6f 28 09 bd 94 42 42 3d
       0.029531233 -0.012059812 -0.033485826 0.047426775
000180 b8 25 24 bd 3a 54 d2 bb ac 81 65 3c 02 b4 b5 3c
       -0.040075034 -0.006418732 0.014007967 0.022180561
000190 a2 e0 cc bc 28 00 3f 3b 4f 44 c0 3c a5 ef 17 3d
       -0.025009457 0.002914438 0.023470072 0.037093777
0001a0 d4 cb 2c 3d 54 f7 c5 bc 31 dd 30 bc 8b a6 0d bd
       0.042186573 -0.024165787 -0.010794924 -0.034582656
0001b0 50 e4 90 3c b0 1b 33 bc 04 0d 12 3d 68 90 33 bd
       0.017686993 -0.010931894 0.035656944 -0.04383889
0001c0 2d 4a 25 3d 32 4a 21 bc 24 44 61 3d ef 4e 12 3d
       0.040353943 -0.00984435 0.054996625 0.03571981
0001d0 02 a9 3b bd 41 35 38 3b df 6e a6 bb b2 05 9b 3b
       -0.045815475 0.0028107914 -0.005079135 0.0047309035
0001e0 e3 d1 02 bd ba ea 04 bd 2a c6 5c 3c 80 5b 09 bd
       -0.031938445 -0.032450415 0.01347498 -0.033534527
0001f0 71 86 4b bd 79 75 c0 bc cf d4 36 bd 1b a3 48 3d
       -0.04968876 -0.023493515 -0.044636544 0.048983674
000200 d4 e0 40 bd aa 2a 1c bd 0a 2d 0f bd 9a 0f 04 bc
       -0.047089413 -0.038126625 -0.034955062 -0.00806036
000210 35 e3 08 bd 27 c1 24 3d e7 ea c3 3b 0c a8 a4 bc
       -0.033419807 0.040223267 0.0059789303 -0.020099662
000220 a0 27 56 bd 36 45 52 bd ee a7 d3 bc b0 a6 2e bc
       -0.052283883 -0.051335536 -0.025836911 -0.010659859
000230 04 14 02 3d 56 1e f5 3b dc 94 23 3c 36 93 35 bc
       0.03175737 0.007480423 0.009984221 -0.011082461
000240 de ac 4a 3c 64 93 4a bd c5 20 51 bd ef da 25 3c
       0.012370316 -0.04945697 -0.051056642 0.010122999
000250 07 f7 0e 3d 3d da d2 bc b6 73 63 bb 54 7c 50 bd
       0.034903552 -0.02573883 -0.003470642 -0.05089982
000260 3f eb 0c bd 90 98 23 bc b6 8a 98 3c 08 2f 20 3d
       -0.034404036 -0.009985104 0.01862083 0.039107352
000270 e7 3f be bc 0d da c7 3c 92 8b bf bc ca 16 f9 bc
       -0.02322383 0.024395967 -0.023381982 -0.030406374
000280 98 de b7 3a 51 e0 90 bb 01 c5 9e bc 64 36 ef bb
       0.001402813 -0.004421272 -0.019381048 -0.007300185
000290 09 38 84 bc dd f9 a6 3c 98 08 1b 3c 0b 56 21 3d
       -0.01614 0.020382816 0.009462498 0.039388698
0002a0 70 81 1d 3d 58 68 86 bc 27 09 19 bd 2b 8e 14 3d
       0.03845352 -0.016407177 -0.037362244 0.036268394
0002b0 30 48 4a bc 91 7f d4 3c 98 a1 91 3c 73 0a d7 bc
       -0.012346312 0.025939735 0.01777725 -0.0262501
0002c0 96 37 3b bb 2d b0 8d bc cc 35 67 bc 88 a8 69 3d
       -0.0028567067 -0.017295921 -0.014111947 0.05704549
0002d0 18 12 0f bd 5c a1 10 bd e7 85 29 3d 04 93 2b bc
       -0.034929365 -0.035310134 0.041387465 -0.010472063
0002e0 48 ff 51 3d e5 fa 1b bd 92 ce 61 3a 1d 9e d9 3c
       0.051268846 -0.03808107 0.000861385 0.026564652
0002f0 d0 85 0c 3c 34 49 6b bc cd 51 05 3d 03 13 57 3d
       0.008576825 -0.014360715 0.032548714 0.052508365
000300 c8 d6 ff bc a5 31 21 bd 8d 10 29 3d 3f 15 55 bd
       -0.031230345 -0.039353985 0.04127555 -0.052022215
000310 8b c8 c2 3b d1 46 fa 3c 87 0a 2c 3d b8 f6 d9 3b
       0.0059443167 0.030551346 0.042002227 0.0066517256
000320 8c a7 97 3b ed 6c 33 ba 7b 16 9f 3c 69 3a 22 bd
       0.0046281274 -0.00068445393 0.0194199 -0.039606486
000330 b0 62 0e bd c1 dd b2 3c 07 c1 0b 3c 9d de 41 39
       -0.034762084 0.021834256 0.008529908 0.00018488844
000340 12 39 c9 ba 5d f5 bc bc de 7f 85 ba 1d b4 82 3c
       -0.0015352091 -0.023066217 -0.0010185202 0.015955025
000350 7a 53 c4 bb 10 83 51 3d 0d 3a 3f bd c3 25 0e 3d
       -0.0059913965 0.05115038 -0.04668622 0.03470398
000360 c1 7f ed bc 89 61 62 3d c1 94 04 bd 7d 84 13 bc
       -0.028991582 0.055268798 -0.032368425 -0.009003756
000370 8a 33 41 3d ab b8 51 bd 8d 2e b0 bc 8e 71 24 bd
       0.047168292 -0.051201504 -0.021506572 -0.040147357
000380 de f7 a0 bb ec bf d3 3c 68 08 30 bd 3e ff e6 bc
       -0.0049123606 0.025848351 -0.042976767 -0.02819788
000390 46 01 25 bd 1c 48 8a 3c 7b 05 1d 3d 87 de e2 bc
       -0.040284418 0.016880088 0.038335305 -0.027694
0003a0 b9 a4 0b 3d c0 31 e5 3c cd 2b 4c bb 0a f4 f6 bc
       0.03409264 0.027977824 -0.0031154037 -0.030145664
0003b0 c7 1a 68 3b 77 3e e8 3c 91 5d bf 3c 77 84 e2 3b
       0.0035416351 0.028350098 0.023360046 0.0069127637
0003c0 ce 16 ae 3c 2b 57 3f 3d 5c 87 0a bc 6e 4e 00 3d
       0.021251108 0.04671399 -0.008455124 0.031324796
0003d0 8d 2e 45 3d 5a ca 29 3d ce ae 05 3d bf 03 2f 3d
       0.048140097 0.041452743 0.03263741 0.042728182
0003e0 80 99 2c bd ec 95 04 bd c2 34 5b bc 67 a9 5e 3d
       -0.042138577 -0.03236954 -0.013379278 0.054360773
0003f0 3c af bd bc 2d 53 18 3c 50 43 66 3d 0b 8c a5 bc
       -0.023154847 0.009297174 0.056216538 -0.02020838

model.0.bias f4 [60]
000000 bf 23 e3 bc 00 25 21 3c 49 84 b3 bc 28 47 5b 3c
       -0.027727006 0.009835482 -0.021913664 0.013383664
000010 00 36 4a bd 8d 48 15 bc 68 b0 4c bc df 4d aa bc
       -0.049367905 -0.009111536 -0.01249323 -0.020789085
000020 08 7a a2 bc b8 0e ff bc ff 4d 2f bd e0 6f 21 bd
       -0.01983358 -0.031134948 -0.042798992 -0.039413333
000030 78 05 14 bc 9b 58 5b bd c2 1e 12 3c c0 1e 3a 3d
       -0.009034507 -0.053551298 0.008918466 0.04543948
000040 00 f1 91 bc b6 fb 1a 3d 22 67 cc 3b ef f7 91 3c
       -0.017815113 0.037837707 0.0062378803 0.01781842
000050 cd 4e 74 bc 69 f0 27 3d 4c 1e 13 bc e6 23 bd bc
       -0.014911366 0.041000757 -0.008979391 -0.023088407
000060 80 10 39 bd 3a 8b cd 3c 8a 58 d7 bc 6c 33 d9 3c
       -0.04518175 0.025090802 -0.026287336 0.026513778
000070 d3 e9 6c bd ac 09 61 bd 12 45 92 bc f6 a4 09 bd
       -0.05784018 -0.054940864 -0.0178552 -0.033604585
000080 8b 40 3e bc ed b9 00 3b 8b da 1a 3d da 71 1f 3d
       -0.011612068 0.001964207 0.037806075 0.038926937
000090 5a fb e0 bc c1 e9 85 bd 40 03 23 3d da 3c 31 bd
       -0.027463604 -0.06538726 0.03979802 -0.043270923
0000a0 ca 64 14 3d 0c 8e dd bc 18 16 e6 bc f0 e3 28 3d
       0.036228932 -0.027045272 -0.028086707 0.041233003
0000b0 08 38 77 bc fc 94 3a bd 07 76 b8 3b 15 fc 14 bd
       -0.0150890425 -0.04555224 0.0056293043 -0.036373217
0000c0 a2 37 95 bc 30 53 dd 3c 4c 06 58 bc a3 28 50 bd
       -0.018215004 0.027017206 -0.013185095 -0.050820004
0000d0 00 0f 12 3c 9a a2 07 3c de 94 a6 bc e8 3d 0d 3d
       0.008914709 0.008278513 -0.020334657 0.034482867
0000e0 27 09 57 3d 58 1a d0 3c 82 d3 0b 3a 4a bc 04 bd
       0.052498963 0.025403187 0.00053339463 -0.03240613

model.3.weight f4 [1, 60]
000000 52 cc ff bd 96 ee a8 3d 6d 02 9a 3d 1e d3 78 bd
       -0.12490143 0.08248632 0.07519994 -0.060748212
000010 ce 50 e8 3d f3 ab ae 3d 0e 34 be 3d d2 f8 47 be
       0.11343537 0.085288905 0.092872724 -0.19528511
000020 1b ac 99 3d dc 87 31 bd ba f4 9e bd b8 85 0a 3d
       0.0750353 -0.043342456 -0.07761522 0.03381893
000030 18 31 3d 3d 60 17 ee 3c f8 be 92 3c 99 5b 12 bd
       0.046189398 0.02906388 0.017913327 -0.035731886
000040 f0 17 34 3d a6 74 11 3d 78 31 e9 3d c7 b5 33 bc
       0.04396814 0.035511635 0.113863885 -0.010968632
000050 76 63 93 bd 72 78 51 bd 6c 58 61 bd aa 75 2e bd
       -0.07196705 -0.051140256 -0.055015966 -0.042592682
000060 8c 09 00 3d c9 55 73 3d 8f 91 69 bc 1a 38 ff 3d
       0.031259105 0.059407983 -0.014255895 0.124618724
000070 d8 1f 6c 3d db e8 69 3c 1c f4 ae 3d 46 35 c7 3d
       0.057647556 0.0142767085 0.08542654 0.09726958
000080 5a 7d d0 bd e3 cf ea 3c aa 5f 70 3a 6e 11 df 3d
       -0.10180159 0.028663581 0.00091695285 0.10891996
000090 d8 5a 77 bd 13 9c 35 3d df 33 c8 bd 92 d7 01 be
       -0.06038937 0.044338297 -0.097755186 -0.1267989
0000a0 16 96 97 3d 40 a7 98 bd 34 bc b3 bc 59 c7 d5 3d
       0.074016735 -0.074537754 -0.021940328 0.10438413
0000b0 a3 2f ad bd 79 e0 18 3d ed 6f d8 bd 78 27 01 3e
       -0.084563516 0.03732345 -0.10568223 0.12612712
0000c0 c6 85 2b bd 36 d0 55 3c ed 4c 88 bd 24 19 df 3d
       -0.041875623 0.01305013 -0.066552974 0.10893467
0000d0 10 c3 be 3d 8d 2b 42 bc ef a6 99 b9 16 92 23 bd
       0.09314549 -0.011851204 -0.0002930681 -0.03993424
0000e0 6d ff cb 3d ba 03 8e 3d 25 e7 2f bd 10 91 85 3c
       0.09960828 0.069343045 -0.042945046 0.016304523
