model_save/znorm-3.pth (torch, 260225 bytes, 3 tensors)

model.0.weight f4 [200, 320]
00000000: 802c 623c 90c8 573d 4c40 f63c c05b 283d
00000010: 684d de3c 00a1 0d39 0aea b5bc e076 8c3b
00000020: 8cfe cdbc 8694 523d 7e81 313d a443 1abd
00000030: 2002 023c b64f 4f3d 6c2f 983c c0c8 04ba
00000040: 2094 473d aa00 3b3d 46a0 303d e4ea 5c3d
00000050: bc42 bc3c 14ff 1e3d fc79 af3c 981e 4c3c
00000060: 00c0 403c 8487 c13c bf49 32bd ca89 0b3d
00000070: 48b5 94bc 2a93 1a3d 04bc d23c 8f60 3cbd
00000080: 5049 20bb b65a 9ebc 0837 e63c 3675 2c3d
00000090: 007a c4bc d858 0e3d b01b 1bbd c42e 1a3d
000000a0: 227d 153d f131 d2bc 4a2f 40bd 5a92 99bc
000000b0: e4bb bd3c f1a7 3ebd 8c09 a03c 06ab 3e3d
000000c0: 00a0 b5bc d002 e23c 4048 a73c 88c7 e23c
000000d0: 6010 8b3c 7cd3 073d e42e 62bd 00e5 a6bc
000000e0: 4c5b 4bbc 8a63 f1bc 4834 0d3c 9b3c 52bd
000000f0: f4bb 9e3c 527e 023d 30bf da3c ccec fb3c
00000100: 48ea 85bb 009a a1b9 68de fcbc 18e2 493d
00000110: e2cc 343d ee14 95bc 1470 2a3d 3e9c 41bd
00000120: b4e1 a0bc 66ff 083d d2c6 95bc 583b 313c
00000130: fca4 24bd c477 523d aa05 4dbd 3ac8 473d
00000140: 96f3 34bd 04e3 5f3d 00b0 dabb 4895 d73c
00000150: 4ed6 343d 5092 2d3d 5daf d6bc 441b 4c3d
00000160: 1831 03bc 5a7d 45bd 900f ef3b c0f0 04bb
00000170: f0a2 943b 3952 45bd 70f6 ccbb 5e2b 21bd
00000180: 002e 94bb f84e 76bc cc0b 343d 88ea 183d
00000190: d1c8 31bd 284c ba3c 18f4 313d 400a 8dbb
000001a0: 7059 4f3c 2ab6 013d 465d c8bc d0d2 15bb
000001b0: fca3 e63c 7687 29bd 28a6 173d 88bf 39bd
000001c0: 2ce0 9bbc d06b adbc f8d2 513d 5cc8 6abc
000001d0: bc81 22bd aa79 5a3d e47f 2e3d 5ac8 0abd
000001e0: 991d 2fbd 8330 35bd 0cd1 323d 500a fd3c
000001f0: 9acc 4b3d 55db 0abd 6c9c 39bd 7435 153d
00000200: 0e7e 143d ad08 5fbd 60e4 ad3c 5363 4bbd
00000210: 5065 6d3b 70ba 033c b851 f0bc 1f18 4abd
00000220: 79d9 5ebd a893 8cbc 5218 5b3d 5064 893c
00000230: d40e 6fbc 04c4 50bd 2a62 f5bc 3424 183d
00000240: c0f4 1bbd a4c1 54bc 3068 0b3d d095 2abc
00000250: f45f d13c e4e8 8b3c 6a11 06bd 702a 393d
00000260: 8414 ea3c b028 4f3d 3485 9bbc 4711 dfbc
00000270: e03c 46bb 809d 343d d216 60bd 9081 64bd
00000280: 1ce1 ed3c fbb4 2fbd b043 dbbb ca68 1cbd
00000290: 4e1e 0abd e850 3dbd f7e7 47bd 089d d23c
000002a0: 6ebd 403d fad5 51bd a06a 673b 94a2 173d
000002b0: ae1f ebbc 64be a4bc 230f 25bd 149b c3bc
000002c0: fe39 3cbd 40ef c1bc 60c6 243d 3097 3e3c
000002d0: 566e fbbc 9050 67bc 9029 a43c 009a 56ba
000002e0: 0c1d e43c 3a7f 493d b86c 94bc f695 593d
000002f0: 8873 c4bb fe23 003d af8c 59bd 08a4 203d
00000300: 907a 213d 7599 30bd 749e 823c c8e1 e73c
00000310: 8829 053d ec77 3dbd 2050 49bd 1ec3 083d
00000320: 4c2b 1dbc 1654 073d ecbe 29bd 4e76 5d3d
00000330: ba72 633d fa35 bfbc a843 dd3c 1c9d 63bc
00000340: 4a76 53bd e162 54bd 6ab7 f5bc c4f6 193d
00000350: 1100 0bbd 9a19 353d 3446 14bc 40e2 0b3a
00000360: fc20 efbc 2ea3 4bbd a861 233c f66e 3f3d
00000370: 78d7 e73c 7861 bbbb 4e09 043d e050 f33c
00000380: e048 f63b 6800 5d3d b6b9 433d a8ec 8ebc
00000390: 8a1e 243d 3a7c 483d febc 54bd 1007 213c
000003a0: d04c a9bb 787b 90bb b2b6 203d 604a fbbc
000003b0: 149e 863c f41f ea3c b03f 0b3d fcbd db3c
000003c0: bc0c 123d 3aed 21bd da42 4e3d d9b9 48bd
000003d0: c449 853c 4c4e c43c 5049 46bb 409f ea3b
000003e0: 83ac 0dbd 9c28 a8bc 5034 2e3c e02b a83c
000003f0: a021 3ebb 0802 cc3c d8f9 293d d495 493d
0.013804555 0.052681506 0.030059956 0.041103125 0.02713652 0.00013506785 -0.022206325 0.004286632
-0.025145791 0.051411174 0.043336384 -0.037662163 0.007935077 0.050613128 0.0185773 -0.00050653145
0.048725247 0.04565493 0.0431216 0.053934947 0.02298104 0.03881748 0.021420471 0.012458466
0.011764526 0.02362419 -0.04352736 0.034066953 -0.018152848 0.037738003 0.025724418 -0.045990523
-0.002445776 -0.019330364 0.028102413 0.04210397 -0.023983955 0.034752697 -0.0378682 0.037642255
0.03649629 -0.02565858 -0.0469201 -0.018746544 0.023160882 -0.04654688 0.019535802 0.04654982
-0.02217102 0.027589232 0.020420194 0.027683035 0.016975582 0.03316067 -0.0552205 -0.020372868
-0.012411904 -0.02946641 0.008618422 -0.05132733 0.019376732 0.03185875 0.026702493 0.030752562
-0.0040867664 -0.00030823052 -0.03086777 0.049287885 0.044140704 -0.018198457 0.041610792 -0.047268145
-0.019638874 0.033446692 -0.018283281 0.010817371 -0.040196404 0.05138375 -0.05005423 0.048774935
-0.044177614 0.05465986 -0.006673813 0.0263163 0.04414969 0.042375863 -0.026206667 0.04983069
-0.00800731 -0.048215248 0.0072955564 -0.00202851 0.004536025 -0.048174117 -0.0062549636 -0.039348
-0.004522085 -0.015033476 0.043956563 0.03733304 -0.043404404 0.022741392 0.043445677 -0.0043042004
0.012655601 0.031667866 -0.024458539 -0.002286125 0.028154366 -0.04138895 0.037023693 -0.045348674
-0.019027792 -0.021169573 0.051226586 -0.014329996 -0.039674506 0.053338684 0.042602435 -0.033882476
-0.042752836 -0.044235718 0.043656394 0.030888706 0.04975567 -0.033900578 -0.04531519 0.03642793
0.036253028 -0.054451633 0.021227062 -0.04965527 0.0036223717 0.008040056 -0.029335842 -0.04933941
-0.054406617 -0.017160252 0.05348999 0.016771466 -0.014590938 -0.050968185 -0.029954035 0.0371439
-0.03807521 -0.012985621 0.034034908 -0.010411695 0.02555845 0.017078824 -0.03273145 0.045206487
0.028574236 0.050575912 -0.018984415 -0.027229918 -0.0030248687 0.044095516 -0.054709263 -0.055787623
0.029038005 -0.042897206 -0.0066914186 -0.038185872 -0.033720307 -0.046219736 -0.048805203 0.025709644
0.047055654 -0.051229455 0.0035311356 0.03702028 -0.02870163 -0.020110317 -0.04029764 -0.023877658
-0.045953743 -0.023673654 0.040228248 0.011632726 -0.03069226 -0.014118329 0.02003935 -0.00081864
0.027845882 0.0491936 -0.018118247 0.05312153 -0.0059952177 0.031284325 -0.053112682 0.039218932
0.039423525 -0.043115098 0.015944697 0.028305903 0.03251031 -0.046256945 -0.04914868 0.033389203
-0.009592842 0.033039175 -0.041441843 0.054067902 0.055529334 -0.023341168 0.0270098 -0.013892438
-0.05162648 -0.05185211 -0.029994685 0.03758885 -0.03393561 0.04421387 -0.009049941 0.0005336143
-0.029190533 -0.049716167 0.0099720135 0.04673668 0.028300986 -0.0057184063 0.032235436 0.02970165
0.0075160116 0.053955466 0.04778453 -0.01744683 0.040068187 0.048946597 -0.05193805 0.009828344
-0.0051666275 -0.00440925 0.03923673 -0.030675113 0.0164328 0.02857969 0.033996284 0.02682399
0.035656676 -0.039532878 0.050356723 -0.049005363 0.016270526 0.023963116 -0.00302561 0.0071600974
-0.034588348 -0.020527177 0.010632589 0.020528734 -0.0029011741 0.024903312 0.041498035 0.049215153

model.0.bias f4 [200]
00000000: d499 1ebd 90bf 6b3b 8039 faba 6028 1fbd
00000010: 289a 4abd fff0 5bbd 5390 a9bc da7b c53c
00000020: 12f8 1cbd 515c debc 0a74 3bbd 6e4a 573c
00000030: 6be4 c8bb b420 53bd bcdc 29bd 1826 d23c
00000040: ad02 9fbc 22a8 00bd 936a a03c 5f66 633b
00000050: 4f46 043d 3e9c 3d3d 4367 aa3c 6daa 123d
00000060: fe98 973b 180b f3bb 6618 243d 08cd 89bb
00000070: 5847 b33c 3000 e83b c884 323c dd83 ec3c
00000080: af5f 01bc a096 3f3d ac07 02bd bc31 543c
00000090: 4725 cabc 18e2 023c 4a3b bf3b f87b 443d
000000a0: 7096 fa3b 6efc 69bc e478 633d 47b2 18bc
000000b0: 70d1 18bc 2ceb d63c 88a4 0cbd 8b07 403d
000000c0: 3458 4fbc 8177 b83c 2c04 41bd ecb9 f73c
000000d0: e68f 1b3d b877 333c f8d1 65bc d72e 53bd
000000e0: 54d5 023d e53b d5bc 73ff 19bd 5c37 f0bc
000000f0: 5ad0 333d 5bb8 7dbd 48e2 613c f479 2bbd
00000100: 6b45 163d c238 f63c f91f 01bd b00c d2bb
00000110: 7d48 253c 3057 69bc 7d85 dabc cdbd 23bc
00000120: a2c8 433d 7854 24bd 41fd 0abd fa36 163d
00000130: 094b d53c 00dd 563d db2b 6abc 2081 a83c
00000140: 485c 263d 60ec 803c fc7f 3f3d 2ec9 55bd
00000150: f25d c93b 9110 4cbc f33e 253d 2024 c93c
00000160: 650f 43bd 24d7 0bbd 97da e6bc 68b9 d33a
00000170: c909 e6bc 5478 ae3c 805e 493c b0a7 ccbb
00000180: 3b12 64bb 1542 80bd eae9 4abd 7976 a53c
00000190: a417 f13c 4596 6b3c d927 c6bc 004b 43bd
000001a0: 8b92 0cbd 843e b63c 3770 863c d817 acbb
000001b0: 15ae 353d b776 0d3d ee60 edbc cb0e debc
000001c0: 9e26 5f3d 2a9e 64bd 8246 a23c e28c 12bd
000001d0: de52 44bc 9d01 fb3c b86b 23bd 5976 163d
000001e0: 2ed0 ccbc b922 ac3c 32e8 b0bc bc4f d53c
000001f0: f5cf b9bc 121f 2f3d 2db8 193d 5599 0abd
00000200: 43da d73c c69c 3bbc cad9 413d acd5 233d
00000210: ff21 323d 8616 f3bb ce2e 433d 4155 96bc
00000220: 2444 31bd aac2 d33c 728c bc3c 006a ceb9
00000230: 559e 70bd 0e4c babc 4145 d1bb 42d1 083d
00000240: 0960 283d 1deb fb3c 03aa 30bd 3cff 163c
00000250: b6fe 63bd 985d 3bbd d7b2 d33b c10f 55bd
00000260: 8931 58bd 7d6c fc3a 83a0 9bbb a9eb ffbc
00000270: 2cdd 23bd f5d3 c63c 3cca f9bc 189d 51bd
00000280: b746 103d 7ccb debc 9d02 2bbd fd46 a03b
00000290: 580f 5fbd 9c15 0fbd eff1 1cbd 8c67 0a3d
000002a0: e79a 37bd b04f 2e3c 328e 79bc aa7c 9b3b
000002b0: 2609 143d 7421 4cbd d760 11bc be63 143d
000002c0: 6397 ac3b 4693 2abd a3b3 96bc 00f3 f6bc
000002d0: 9c83 6cbd 73de e63c 18e7 c5bc 98bc 133c
000002e0: 0d4b cf3b a5ee 243d a877 503c 26a0 833c
000002f0: 6997 253d 5aa0 0fbd 3450 ca3c b048 1f3d
00000300: 7218 13bd b4ec 82bc 1c99 093d 2203 d6bc
00000310: 4407 9ebc f338 d6bc b04f 313d 83e1 263d
-0.03872092 0.0035972334 -0.0019090623 -0.038856864 -0.04946342 -0.05369663 -0.020698702 0.024106909
-0.038322516 -0.02714363 -0.04576496 0.013140304 -0.006130745 -0.05154486 -0.041470274 0.02565293
-0.019410456 -0.031410344 0.019582069 0.003469847 0.032293614 0.046291582 0.020801192 0.035807062
0.0046263924 -0.007417094 0.04006233 -0.00420535 0.021884605 0.0070801005 0.010895915 0.028871471
-0.007896348 0.046774507 -0.031745598 0.012951311 -0.024675978 0.007988475 0.005835925 0.04796979
0.007647328 -0.014281375 0.055535212 -0.009319848 -0.009327278 0.026235186 -0.034336597 0.046882194
-0.012655307 0.022517921 -0.04712312 0.030240022 0.03797903 0.010953836 -0.014027111 -0.05155834
0.031941727 -0.026029537 -0.03759713 -0.029323272 0.04389987 -0.061943393 0.01378686 -0.04186435
0.036687296 0.030056361 -0.031524632 -0.006410204 0.010088083 -0.0142419785 -0.02667498 -0.0099939825
0.04779876 -0.04011962 -0.033932928 0.036673523 0.026036756 0.052456856 -0.0142926825 0.020569384
0.04061535 0.015737712 0.046752915 -0.052193813 0.0061452324 -0.012455122 0.040343236 0.024553359
-0.047622103 -0.03414072 -0.028180404 0.0016153278 -0.028080838 0.021297611 0.012290597 -0.006245576
-0.0034800905 -0.06262604 -0.049539484 0.020198094 0.029430218 0.014379089 -0.024188923 -0.047678947
-0.03431944 0.022246607 0.01641093 -0.005251866 0.04435547 0.034537043 -0.028976884 -0.027106663
0.054480188 -0.0558149 0.019809011 -0.035778888 -0.011982648 0.030640418 -0.03989765 0.03673396
-0.025001612 0.02101265 -0.021595094 0.026038997 -0.02268217 0.04275424 0.03752916 -0.033837635
0.026349192 -0.011450952 0.04732684 0.039998695 0.043489452 -0.0074184565 0.04765206 -0.0183512
-0.043277875 0.025849659 0.023016188 -0.00039370358 -0.058744747 -0.022741344 -0.0063864295 0.03340269
0.04110721 0.03075176 -0.043130886 0.009216126 -0.055662833 -0.045743555 0.0064605284 -0.052016977
-0.052781615 0.0019258406 -0.004749359 -0.031240301 -0.040005848 0.02427099 -0.03049194 -0.051175207
0.03522369 -0.027196638 -0.04175054 0.004891275 -0.054457992 -0.034932718 -0.038316663 0.033790156
-0.04482546 0.010639116 -0.015231656 0.0047450857 0.036141537 -0.04983659 -0.008873186 0.036227934
0.00526707 -0.041644357 -0.018396204 -0.030145168 -0.0577427 0.028182244 -0.024158046 0.009017132
0.0063260854 0.04026665 0.012723841 0.016067576 0.0404276 -0.035065033 0.024696447 0.03888768
-0.035911985 -0.01598201 0.033593282 -0.02612454 -0.019290574 -0.026150202 0.043288887 0.04074241

model.3.weight f4 [1, 200]
00000000: 04d3 6cbc 4b6b 0dbd 3a4d 723d ebb6 6dbd
00000010: d026 893b 50bb 423d 7a2a c1bc 16d7 04bd
00000020: 60fd 5bbc c973 893d 9856 ad3c cb07 cc3c
00000030: 3829 ffb8 cd21 19bd 87ed 14bd 9350 0ebd
00000040: f72b fdbc e8b2 c23c 234e fabb b46e 1fbc
00000050: 0507 053d 0e95 4f3d 86a6 0bbd c41a 31bd
00000060: 2955 43bd b856 3d3c 2967 b83a 1e6e 6d3d
00000070: be6b eebc f416 e13c 9057 383c 7f51 6abd
00000080: 9d95 7a3a 40b4 48bc 347f a73c e595 7fbc
00000090: 5edd 94b8 1841 5c3c 3404 8cbd f0b5 c5bb
000000a0: 223b 2abd b9d3 6f39 605d 17bc a7e4 12bd
000000b0: 139c 873d d0d5 4e3d ebc3 2bbd f25b 72bd
000000c0: 3cbc c33c da15 2b3c 1eed 243a 95fa 07bd
000000d0: c2ec 62bd d517 bdbc 8087 b0bb 298e c53c
000000e0: d77f 15bd 16ee 083c a14e 7c3c d0b7 43bd
000000f0: 901f 9e3c ddcb 463d cba3 29bd 187d 0bbd
00000100: bfd2 553d 1f4a d5bb 71b1 2cbd a35d 803d
00000110: 88e5 7b3d 109c 92bc 6a30 31bc ca63 5b3d
00000120: d84c 513c 486f 2e3c 23a0 fe3c 8940 cf3a
00000130: c54d 04bd f690 73b9 857e ff3c 82b6 383d
00000140: 55d6 35bd 04bc de3c 29e8 3dbd c084 d93b
00000150: 8994 1c39 1d04 debc 3e38 3e3d 4640 7a3d
00000160: 3d5f 823d 260d 44bd 44bd b53c 50a9 8e3d
00000170: 09eb 8ebd 6276 20bd f8fd 9cbc f480 1cbc
00000180: 6a24 3d3d 245e e23a 68a4 4c3d b11e c53c
00000190: 29cf 583d 264d 34bd fb25 153d ec87 3d3d
000001a0: 90a7 d5bc a0d6 64bd ee24 9e3b 0293 4a3d
000001b0: 8cdb 033c 65d6 4ebd 8758 683c 0e8d 9c3d
000001c0: fcb2 3a3d 9b6c 93bd 0be1 9abc 94dd 223d
000001d0: fa70 3b3b 4a20 9abc 4a3d 03bd 8c18 2fbd
000001e0: 98f3 30bd 743a 913c 0477 113d e639 7bbd
000001f0: ad8e 0fbd e07c c23c a9d7 063d 9cdf 063c
00000200: ff68 453d 676d 3fbd c1f6 8b3c 0266 433d
00000210: 8919 07bd eff5 2e3d 74ac 533d 76df febc
00000220: 6419 c93c 854e a2b8 4ce7 7db9 8015 68ba
00000230: 0ee5 17bd 4bae 6cbd 9a01 183c 1360 d8bc
00000240: 5c2a c43c 872c 163b e2ff 8dbc 3b94 b3bc
00000250: 22a9 84bc 26bc ddbc 2e42 6e3b a774 8fbd
00000260: e34a d5bc 917e 34bc d8bb 253c 7d6c 80bd
00000270: 7da7 8dbd 8ffe 94bd 244d b3bc 8e38 36bd
00000280: 1fa8 1abc f4c8 a63c 21cf dcbc e54e 7d3c
00000290: 986d 4bbd 32e3 c9bc dd43 3abd b3b2 793d
000002a0: fa09 dfbc 5c93 f43c 8c6a b9bc d5d4 203d
000002b0: 2a3d 79bd df3c 4a3d 3714 81bb 9243 19bd
000002c0: fa9a 193a bd28 c8bb 4631 aebc e4bc 95bd
000002d0: b531 b03b 29a6 1e3d b936 76bd 4eb5 6d3d
000002e0: d41b 783d 3e22 a43c 3404 5bbd 7bf3 fab8
000002f0: 42ce 76bd e0df 2dbd 8312 19bd 6203 c5bc
00000300: adc8 e33c 24b3 fc3c 2dac 373d 4ffc 6f3d
00000310: c0f9 a63a 8ad6 8ebd 06c5 493d d737 883c
-0.014454607 -0.03452615 0.05915568 -0.058035772 0.004185535 0.047541916 -0.023579825 -0.032431684
-0.0134271085 0.067115374 0.021159455 0.02490606 -0.00012167025 -0.03738575 -0.036359336 -0.03474481
-0.030904753 0.02376695 -0.007638709 -0.0097309835 0.032477397 0.05067926 -0.034094356 -0.043238416
-0.047688637 0.01155632 0.001406883 0.057966344 -0.02910411 0.027476765 0.011251345 -0.057206627
0.0009559037 -0.012250006 0.020446397 -0.0155997025 -7.098423e-05 0.013443254 -0.06836739 -0.0060336515
-0.0415603 0.00022871689 -0.009238571 -0.03586259 0.06621566 0.050496876 -0.04193489 -0.059169717
0.023893468 0.010442222 0.0006291437 -0.033197958 -0.05540157 -0.023082653 -0.0053872466 0.024115639
-0.03649887 0.008357545 0.015399606 -0.04778272 0.01930216 0.048534263 -0.04141597 -0.034054846
0.052202936 -0.00650908 -0.04216141 0.0626786 0.061498195 -0.017896682 -0.0108147655 0.053561963
0.012774669 0.010646649 0.031082219 0.001581208 -0.03230073 -0.00023228288 0.031188259 0.045095928
-0.044393856 0.027189262 -0.046363983 0.0066381395 0.00014932653 -0.02710157 0.046440355 0.061096452
0.063658215 -0.0478641 0.022184975 0.069658875 -0.06978423 -0.0391754 -0.01916407 -0.009552229
0.046177305 0.0017270488 0.049961478 0.024062486 0.05293194 -0.044018887 0.036413174 0.046272203
-0.026080877 -0.055868745 0.0048261797 0.049456604 0.0080479495 -0.05049743 0.014181263 0.076440915
0.04558085 -0.07198449 -0.018906137 0.039762095 0.0028601275 -0.018814225 -0.03204087 -0.04274802
-0.04320106 0.017728068 0.035513893 -0.061334513 -0.035048176 0.023741186 0.032920513 0.008232024
0.048195835 -0.046735194 0.017085435 0.047704704 -0.032983337 0.04271501 0.051678136 -0.031112414
0.02454824 -7.7393874e-05 -0.00024214125 -0.00088533014 -0.037083678 -0.057783406 0.009277726 -0.026413
0.02394598 0.0022914724 -0.017333928 -0.021921268 -0.01619393 -0.027067255 0.0036355364 -0.070046715
-0.026036685 -0.011016504 0.010115586 -0.062706925 -0.069167115 -0.07275116 -0.02188737 -0.04448753
-0.009439497 0.020359494 -0.026954236 0.015460704 -0.049665064 -0.024644468 -0.045474876 0.060961436
-0.027226437 0.029855423 -0.022633813 0.039265472 -0.060849346 0.049374457 -0.0039391774 -0.037417956
0.000585958 -0.006108372 -0.02126373 -0.07311419 0.0053770193 0.03873268 -0.06011078 0.058034234
0.060573414 0.02003586 -0.053470805 -0.00011966281 -0.060255297 -0.042449832 -0.03737117 -0.024049465
0.02780565 0.03084714 0.044841934 0.05859023 0.0012739226 -0.06974514 0.04926016 0.016628189
